projet/models/actor_critic/conv_player_0_actor.pth (torch, 743383 bytes, 10 tensors)

conv_1.weight f4 [32, 1, 3, 3]
0.21390915 0.16911831 -0.4989353 0.00674648 0.15076016 0.018728618 -0.06474634 0.25760353
-0.46494475 -0.061709646 0.22911012 0.25459337 -0.22925669 0.16629544 0.18856066 0.071397476
0.06389107 0.41514614 0.041627742 0.23616137 -0.19370104 0.15994823 -0.31012708 0.07020004
0.17474322 -0.32648826 -0.16612841 -0.45375767 0.13023901 0.2667601 -0.1924752 -0.105922535
0.25775132 0.0034499278 0.04086417 -0.30297068 -0.06521879 0.041346934 0.2592988 -0.01122366
-0.08416133 0.069315806 0.054072276 -0.17590134 0.0065452866 0.0010498586 -0.0346576 0.3513142
0.03814791 0.033916578 -0.109192885 0.123411074 -0.23100758 -0.1855893 -0.0830969 -0.035370763
-0.19856757 -0.09798305 0.0033061036 0.072179034 -0.043698423 -0.12074746 -0.23001568 0.324218
0.18535301 0.14219965 -0.04934951 0.27936634 0.23646289 -0.09602397 -0.05655903 0.30803022
0.05967982 0.077326134 0.0659201 -0.012125025 0.05053377 -0.03485464 -0.030318664 -0.08729913
-0.055593774 -0.07483284 -0.025850274 -0.45474264 -0.08334683 -0.2129562 0.3058966 -0.10864681
-0.066329904 -0.118428946 0.08239929 -0.16953693 0.113723084 -0.33821222 0.51394016 0.39207336
0.26408318 0.09764179 0.48742974 -0.13492043 0.20356621 -0.5603633 -0.03704202 -0.06596496
0.08460722 -0.074469104 0.3385749 -0.3930483 0.05633304 -0.02166634 0.0606671 -0.12804161
0.08871099 -0.18742476 0.101269625 -0.11500129 0.076723315 0.018062772 0.0028427294 0.10306296
-0.020307383 0.09737916 0.044112828 0.06397493 -0.028532349 0.026522476 0.042607747 0.04457747
0.10915594 0.22205867 0.0083356425 -0.3006951 -0.22518632 0.14792041 0.26519078 -0.4905141
0.32112283 0.091843225 0.35521522 -0.13836525 0.6252592 -0.029539496 0.23036268 0.059127014
0.18821861 -0.09456689 -0.20054086 -0.06746565 -0.1431677 -0.44510767 0.035625424 0.3873117
0.36004463 -0.14948943 0.46622744 0.23539415 0.08893108 0.10868223 0.34646577 0.020648604
-0.15738247 -0.07932238 0.018132692 -0.09288028 -0.39680728 -0.045188315 -0.09500187 0.13649903
-0.11345315 0.25450253 -0.36909646 0.0900858 0.42855224 -0.23115206 0.19375357 -0.33799326
-0.07468523 0.07489051 -0.34723884 0.078660525 0.29051936 0.30970514 -0.086408354 -0.2211649
0.450309 -0.06586315 0.3290246 0.34355408 0.6402105 0.4004436 -0.2636552 -0.011278785
-0.3393879 -0.12000461 0.5580372 -0.14632136 0.03795908 -0.015272159 0.05720929 0.33008185
-0.3735077 0.032298107 0.109375075 0.041052606 0.076792434 -0.0539733 -0.21364553 -0.056054402
0.3105007 0.42108345 0.060813654 0.054361586 0.31837803 0.32660255 -0.011771711 0.3477094
0.24866492 -0.4159492 -0.07166373 0.03291771 0.04864237 -0.11063893 -0.24165957 0.19532488
-0.034437727 0.39604938 0.51569587 0.10083462 -0.4747557 0.575477 0.34476638 -0.07273149
0.007009517 0.25644955 -0.30599248 -0.006391987 0.15540025 0.009928456 0.30342695 0.17483954
0.1089788 -0.19323646 0.24039926 0.08716813 -0.15769717 0.38141635 -0.059826896 0.4338893
0.0061489525 -0.48603776 -0.25545934 0.53980476 0.113761246 -0.29787898 0.40254095 -0.070543244
00000000: 000b 5b3e 5a2d 2d3e 7374 ffbe 9311 dd3b
00000010: df60 1a3e c26c 993c bb99 84bd 9ce4 833e
00000020: 3d0d eebe 41c3 7cbd d89b 6a3e 105a 823e
00000030: 44c2 6abe 5a49 2a3e 0c16 413e d738 923d
00000040: 52d9 823d 098e d43e da81 2a3d 49d4 713e
00000050: 9159 46be 78c9 233e fac8 9ebe 0ac5 8f3d
00000060: e3ef 323e 7829 a7be 911d 2abe ed52 e8be
00000070: 605d 053e c894 883e 3818 45be eaed d8bd
00000080: fbf7 833e 2f18 623b 3061 273d f91e 9bbe
00000090: 6e91 85bd 675b 293d d0c2 843e 71e3 37bc
000000a0: c65c acbd 72f5 8d3d e47a 5d3d 7b1f 34be
000000b0: d879 d63b 699b 893a 21f5 0dbd 74df b33e
000000c0: fc40 1c3d 1cec 0a3d 85a0 dfbd f2be fc3d
000000d0: 408d 6cbe 1f0b 3ebe b52e aabd efe0 10bd
000000e0: 4c55 4bbe 56ab c8bd 37ab 583b 9ad2 933d
000000f0: 1efd 32bd 724a f7bd 3b89 6bbe e7ff a53e
00000100: 2ecd 3d3e c99c 113e b622 4abd 1b09 8f3e
00000110: 5423 723e 37a8 c4bd 71aa 67bd 23b6 9d3e
00000120: d472 743d 2a5d 9e3d 1e01 873d 0aa8 46bc
00000130: 80fc 4e3d bdc3 0ebd d95e f8bc e3c9 b2bd
00000140: 4cb6 63bd f641 99bd f4c3 d3bc 07d4 e8be
00000150: beb1 aabd 3111 5abe 7b9e 9c3e 3882 debd
00000160: f9d7 87bd e08a f2bd f5c0 a83d 179b 2dbe
00000170: a6e7 e83d 272a adbe 9591 033f d7bd c83e
00000180: e935 873e 6bf8 c73d 6490 f93e 9528 0abe
00000190: a973 503e f873 0fbf 60b9 17bd a318 87bd
000001a0: 8d46 ad3d 4283 98bd b059 ad3e a03d c9be
000001b0: 79bd 663d 9c7d b1bc 117e 783d 571d 03be
000001c0: 1cae b53d 47ec 3fbe 7366 cf3d cc85 ebbd
000001d0: 1d21 9d3d 61f8 933c 164d 3a3b ac12 d33d
000001e0: ab5b a6bc ba6e c73d a7af 343d 4a05 833d
000001f0: acbc e9bc aa45 d93c 7685 2e3d dd96 363d
00000200: 268d df3d 5963 633e 3892 083c b5f4 99be
00000210: 3e97 66be 7378 173e 16c7 873e aa24 fbbe
00000220: 366a a43e 4d18 bc3d c5de b53e 9faf 0dbe
00000230: fd10 203f d0fc f1bc 32e4 6b3e 2b2f 723d
00000240: 61bc 403e 49ac c1bd 955a 4dbe 6e2b 8abd
00000250: 8e9a 12be 27e5 e3be f7eb 113d b84d c63e
00000260: c557 b83e c213 19be 5db5 ee3e 2a0b 713e
00000270: 8021 b63d ca94 de3d f663 b13e 4327 a93c
00000280: df28 21be c673 a2bd 038b 943c 0438 bebd
00000290: 532a cbbe 6217 39bd 5790 c2bd 67c6 0b3e
000002a0: 205a e8bd 284e 823e 36fa bcbe e77e b83d
000002b0: 336b db3e 20b3 6cbe 5667 463e 740d adbe
000002c0: 92f4 98bd 3260 993d 4ac9 b1be c518 a13d
000002d0: f4be 943e ac91 9e3e ddf6 b0bd 0d79 62be
000002e0: e78e e63e 42e3 86bd ea75 a83e 52e6 af3e
000002f0: d6e4 233f f206 cd3e d0fd 86be a7ca 38bc
00000300: 40c4 adbe fac4 f5bd 87db 0e3f 44d5 15be
00000310: fb7a 1b3d 1438 7abc 4a54 6a3d 7d00 a93e
00000320: 673c bfbe 054b 043d 0a00 e03d c726 283d
00000330: 5a45 9d3d 1b13 5dbd e5c5 5abe 4d99 65bd
00000340: f3f9 9e3e 4098 d73e bd17 793d 41aa 5e3d
00000350: 7202 a33e 7338 a73e 22de 40bc f706 b23e
00000360: 04a2 7e3e 4bf7 d4be 6fc4 92bd b8d4 063d
00000370: 393d 473d aa96 e2bd 9b75 77be 3f03 483e
00000380: 930e 0dbd fcc6 ca3e a504 043f 6282 ce3d
00000390: 2e13 f3be 7652 133f 3885 b03e 3ff4 94bd
000003a0: 17b0 e53b 5b4d 833e 0cab 9cbe e073 d1bb
000003b0: 3e21 1f3e f6aa 223c c75a 9b3e 2309 333e
000003c0: 4730 df3d c7df 45be 392b 763e 3485 b23d
000003d0: 5e7b 21be 0149 c33e 0c0d 75bd bd26 de3e
000003e0: 277d c93b f1d9 f8be 91cb 82be a530 0a3f
000003f0: a8fb e83d 9883 98be d919 ce3e fa78 90bd

conv_1.bias f4 [32]
-0.34598017 -0.0066058272 -0.02078153 -0.091882154 -0.43097338 0.07504635 -0.54532766 -0.011178323
-0.25689092 -0.2091472 -0.129956 -0.26519606 -0.25825506 -0.45717388 -0.025942989 -0.32992077
-0.05504668 -0.10451298 -0.25821614 -0.2314042 -0.06454556 -0.028283618 -0.30916715 -0.118595526
-0.1814295 0.0994031 -0.02809355 -0.047230463 -0.051053677 -0.088033 -0.47286215 -0.20441224
00000000: 5024 b1be b275 d8bb 073e aabc b62c bcbd
00000010: 8ba8 dcbe e7b1 993d 989a 0bbf 4925 37bc
00000020: 3587 83be af2a 56be 3013 05be c7c7 87be
00000030: 023a 84be b212 eabe 6486 d4bc 60eb a8be
00000040: a178 61bd e70a d6bd e834 84be 39f5 6cbe
00000050: 7630 84bd 0cb3 e7bc 284b 9ebe 36e2 f2bd
00000060: a8c8 39be da93 cb3d 7224 e6bc bb74 41bd
00000070: a91d 51bd a54a b4bd fd1a f2be 7151 51be

conv_2.weight f4 [64, 32, 3, 3]
-0.05321729 -0.04762353 0.029026706 0.0424589 -0.08022378 -0.25145838 0.014642839 -0.024042115
-0.06921115 0.03078284 0.13830198 0.4191931 -0.08146667 0.062627256 0.33977747 -0.08870211
-0.09379437 -0.048615895 -0.0009623328 0.13580342 -0.060264997 0.20970036 -0.13252147 -0.14202012
-0.23198427 -0.025562508 -0.088361725 -0.08927254 0.08542827 -0.08465671 -0.15437104 -0.14237605
-0.012933277 0.17893851 0.30788335 0.086854175 0.042946175 -0.02150185 0.072869405 0.031045897
-0.023998499 0.09723715 0.20911787 0.04662954 0.010280386 0.20643733 0.0972205 -0.052532226
-0.14056264 -0.09270356 -0.12226213 0.037807725 0.04501535 -0.13830666 -0.2380546 -0.134544
-0.0060795527 0.1529137 -0.13047262 -0.13156989 0.060649455 0.10597314 0.07312801 -0.09798788
0.030690607 0.020967491 -0.06912395 0.031887498 -0.066362925 -0.18255964 -0.1767986 0.065345146
-0.0016484387 -0.16489376 -0.21290082 0.052953765 -0.0032856986 -0.18168114 0.04312228 -0.14461395
0.12027803 -0.21661085 -0.12674442 0.09418676 0.25436336 -0.19894163 -0.17051242 -0.0852873
-0.03302246 0.058139544 -0.002431208 0.015994648 0.49698403 -0.024934156 0.35613382 0.32769668
0.007892681 -0.029027184 0.040306486 -0.10449327 0.14645083 -0.031032884 0.059733775 0.002638074
-0.16369866 0.13734554 0.0073772077 -0.24549802 0.1923816 -0.13510276 0.04547361 0.006802845
-0.09682287 -0.079888515 0.010946772 -0.12404047 -0.08747044 0.044611126 -0.051769678 -0.048506312
-0.046033487 0.018623555 0.035024103 -0.05543652 -0.0030046906 0.01962207 0.24337259 0.28143325
0.1373578 -0.12097466 0.04087989 0.057627056 -0.11246215 -0.19612439 -0.134732 -0.017112935
0.009649936 -0.054966025 0.045657884 0.049942154 0.08764208 0.114601724 0.19203116 0.14312948
0.051458035 0.08278832 0.020023799 -0.05295734 0.14214233 0.13441063 -0.036783777 -0.3811408
-0.05668547 -0.13826878 0.14973015 0.08124876 0.12147067 -0.04128465 0.1474924 -0.10925835
0.23012985 0.36905497 -0.06032515 -0.09000831 0.09482894 0.086000115 -0.19770718 -0.2960505
0.039175954 -0.0049044574 -0.22929592 -0.11276361 0.122372486 -0.05226925 0.23840709 -0.08308507
-0.10662839 -0.10129707 0.11592155 0.08848463 0.20086372 0.012081003 0.43953124 0.0021947986
0.19201928 0.24462049 -0.14064476 -0.20030773 0.14015628 -0.013982275 -0.0072914036 0.26739725
0.19870035 0.20299546 0.005557784 0.050819494 0.013767451 0.114101 0.17110173 0.04803309
0.17714623 0.0998444 -0.20682667 -0.23503825 -0.030761208 0.09559742 0.061617557 0.101088814
0.13710903 0.23649833 -0.19898932 -0.012928935 0.2532352 -0.0366763 -0.009667921 0.17695543
-0.019093802 0.03333086 -0.24615668 -0.078371346 0.22751774 0.0014505921 0.12355082 -0.05710748
0.046000324 0.08563707 0.032307208 0.4237495 0.11789225 0.33740836 0.1509222 -0.039793435
0.12757438 0.22688513 0.19948938 0.06165752 0.09221111 -0.15266444 0.10542142 0.23751833
-0.04215586 -0.04680009 0.103397526 0.21558048 0.17500654 0.07743 0.014077708 0.10714485
0.24161111 -0.07739696 0.015478108 0.16008374 0.31175044 -0.05070286 -0.10624163 -0.09966624
00000000: 60fa 59bd e410 43bd 6ac9 ed3c 62e9 2d3d
00000010: 5d4c a4bd 27bf 80be 85e8 6f3c f8f3 c4bc
00000020: 93be 8dbd 4b2c fc3c 099f 0d3e 7aa0 d63e
00000030: ffd7 a6bd b842 803d 50f7 ad3e 74a9 b5bd
00000040: 4317 c0bd 7621 47bd 1045 7cba 0d10 0b3e
00000050: 6ed8 76bd b1bb 563e b5b3 07be b96d 11be
00000060: 498d 6dbe 7768 d1bc fef6 b4bd 85d4 b6bd
00000070: 04f5 ae3d 7f60 adbd 7113 1ebe 07cb 11be
00000080: 18e6 53bc a83b 373e e3a2 9d3e 9ae0 b13d
00000090: 54e8 2f3d a624 b0bc 8e3c 953d f753 fe3c
000000a0: 8098 c4bc 4524 c73d ff22 563e 9efe 3e3d
000000b0: 106f 283c 4f64 533e 8b1b c73d 082c 57bd
000000c0: a7ef 0fbe 5ddb bdbd 9164 fabd 46dc 1a3d
000000d0: 0462 383d 43a0 0dbe 96c4 73be e7c5 09be
000000e0: fc36 c7bb 6995 1c3e 9d9a 05be 42ba 06be
000000f0: 906b 783d 7208 d93d 23c4 953d dfad c8bd
00000100: de6a fb3c 04c4 ab3c dc90 8dbd 779c 023d
00000110: 49e9 87bd eaf0 3abe b10a 35be add3 853d
00000120: 6d10 d8ba e9d9 28be ac02 5abe 0ce6 583d
00000130: e054 57bb 9f0a 3abe fda0 303d ae15 14be
00000140: 5454 f63d 3ccf 5dbe 4ac9 01be fde4 c03d
00000150: ea3b 823e 5bb7 4bbe cf9a 2ebe 1cab aebd
00000160: 8f42 07bd bb23 6e3d e754 1fbb 3507 833c
00000170: b174 fe3e b742 ccbc 2c57 b63e dcc7 a73e
00000180: 4e50 013c 6bca edbc 6a18 253d 9100 d6bd
00000190: 35f7 153e ad38 febc 67ab 743d 8ae3 2c3b
000001a0: 9fa0 27be 4fa4 0c3e 81bc f13b d563 7bbe
000001b0: afff 443e 6158 0abe 8942 3a3d 66ea de3b
000001c0: 124b c6bd 979c a3bd 175a 333c ee08 febd
000001d0: b423 b3bd 28ba 363d 710c 54bd 8eae 46bd
000001e0: 9c8d 3cbd 6d90 983c 6f75 0f3d 6811 63bd
000001f0: 58ea 44bb 77be a03c aa36 793e 0518 903e
00000200: 86a7 0c3e 90c1 f7bd ac71 273d 590a 6c3d
00000210: 8e52 e6bd d5d4 48be 2ff7 09be 6d30 8cbc
00000220: c41a 1e3c 0e24 61bd c303 3b3d 2590 4c3d
00000230: b17d b33d 4fb4 ea3d d1a3 443e 8990 123e
00000240: a9c5 523d ec8c a93d f308 a43c cce9 58bd
00000250: c28d 113e f1a2 093e 96aa 16bd e324 c3be
00000260: 062f 68bd 5596 0dbe dc52 193e c065 a63d
00000270: 9dc5 f83d 181a 29bd 3f08 173e d8c2 dfbd
00000280: 29a7 6b3e c6f4 bc3e 8117 77bd 4756 b8bd
00000290: ad35 c23d d420 b03d c073 4abe ee93 97be
000002a0: f776 203d 92b5 a0bb 8dcc 6abe 9cf0 e6bd
000002b0: 6d9e fa3d 4818 56bd fd20 743e 8128 aabd
000002c0: fc5f dabd d774 cfbd 4768 ed3d 6e37 b53d
000002d0: 38af 4d3e 66ef 453c 3d0a e13e 9cd6 0f3b
000002e0: b4a0 443e cb7d 7a3e 2e05 10be 781d 4dbe
000002f0: 2185 0f3e e915 65bc baec eebb 4be8 883e
00000300: 1b78 4b3e 0bde 4f3e 121e b63b 1a28 503d
00000310: e090 613c c9ad e93d 4b35 2f3e 58be 443d
00000320: d265 353e 397b cc3d 5fca 53be dead 70be
00000330: eefe fbbc 95c8 c33d b162 7c3d a707 cf3d
00000340: 4f66 0c3e 9e2c 723e dbc3 4bbe e2d3 53bc
00000350: 0ba8 813e e339 16bd 3366 1ebc ce33 353e
00000360: 9b6a 9cbc f185 083d 7f10 7cbe 2881 a0bd
00000370: 69fa 683e cb21 be3a 3608 fd3d 88e9 69bd
00000380: d66a 3c3d 7d62 af3d 9054 043d b2f5 d83e
00000390: 7e71 f13d cac0 ac3e 598b 1a3e 71fe 22bd
000003a0: dca2 023e 9354 683e f246 4c3e 988c 7c3d
000003b0: 2ed9 bc3d 1154 1cbe 2fe7 d73d 0138 733e
000003c0: a0ab 2cbd 73b1 3fbd 15c2 d33d 21c1 5c3e
000003d0: ea34 333e 9f93 9e3d 30a6 663c c26e db3d
000003e0: e768 773e 4c82 9ebd e497 7d3c feec 233e
000003f0: c19d 9f3e cdad 4fbd 3695 d9bd d01d ccbd

conv_2.bias f4 [64]
0.055873223 -0.07615853 -0.06603503 -0.025259133 -0.029380653 -0.07502569 -0.037496656 -0.056690514
-0.09743612 -0.06890752 -0.054361023 0.094287485 -0.0012351599 -0.05317259 -0.14143127 -0.017771736
0.084248155 0.10545606 -0.047657855 0.1003727 -0.04716193 -0.057218883 -0.08632651 -0.029465582
0.06884184 0.22848265 -0.06004135 -0.035175115 -0.0037721992 -0.03407358 -0.097894214 -0.034774758
0.20372954 -0.047375202 -0.0746322 0.05946953 -0.055094164 0.050595075 -0.08625781 0.16245255
-0.08679048 -0.069099426 -0.07901752 0.03018475 -0.043197352 -0.056311082 -0.07770491 -0.028813766
0.09714347 -0.02683982 -0.03622468 -0.0644318 -0.0549521 -0.057133935 -0.07189031 -0.06631818
-0.08281016 -0.037562173 -0.08024694 -0.05332815 -0.04276764 -0.022050673 -0.031496163 -0.04757303
00000000: 52db 643d 01f9 9bbd 603d 87bd 3eec cebc
00000010: b2af f0bc 12a7 99bd 1896 19bd 5034 68bd
00000020: 978c c7bd 631f 8dbd aaa9 5ebd cc19 c13d
00000030: 17e5 a1ba 80cb 59bd 5cd3 10be 0896 91bc
00000040: 4c8a ac3d 59f9 d73d e234 43bd 3490 cd3d
00000050: de2c 41bd 595e 6abd f4cb b0bd ce61 f1bc
00000060: f3fc 8c3d 5bf7 693e ebed 75bd c813 10bd
00000070: 0037 77bb bd90 0bbd c37c c8bd fa6f 0ebd
00000080: 7a9e 503e 800c 42bd c4d8 98bd 5296 733d
00000090: 6baa 61bd c83c 4f3d efa7 b0bd f659 263e
000000a0: 35bf b1bd 0084 8dbd f0d3 a1bd 0246 f73c
000000b0: b5ef 30bd 73a6 66bd c023 9fbd d90a ecbc
000000c0: 28f3 c63d 2fdf dbbc 5460 14bd d2f4 83bd
000000d0: 7415 61bd 4605 6abd 3a3b 93bd d3d1 87bd
000000e0: 6098 a9bd cbda 19bd 8258 a4bd 9e6e 5abd
000000f0: 1f2d 2fbd 9da3 b4bc 1f02 01bd f0db 42bd

fc1_layer.weight f4 [256, 384]
-0.105529316 -0.010416665 -0.048437286 -0.095325656 -0.022062598 0.076605216 -0.05096532 -0.0518719
-0.015457417 -0.10171173 -0.04887356 0.012035033 0.06347429 -0.014985875 0.0041039484 -0.0754889
-0.04466102 -0.057980493 -0.026428167 -0.043637745 -0.06393137 -0.026704274 0.061178617 0.0129029965
0.0021037264 -0.032420702 0.05567468 -0.04398709 -0.075752534 -0.031129507 -0.039862644 0.02679299
-0.018075138 0.022078881 0.031018807 0.033894822 0.10710765 -0.059082218 0.023431446 0.035346117
-0.021828212 -0.03750876 -0.068394095 0.049601454 -0.04948588 -0.0052366112 -0.005658152 -0.03796064
0.019881979 -0.04676492 0.040640816 0.03738968 -0.02527039 0.00010135397 0.0156325 -0.07967743
-0.09508989 0.13144736 -0.11311431 -0.09493381 -0.0067244098 0.04922484 -0.03168504 -0.009104736
-0.037386954 -0.01809014 -0.057486083 0.007471612 0.02936426 0.05605813 -0.04090908 -0.021647628
0.0323038 0.0042048944 -0.001914746 0.055838455 0.005913429 0.059129685 -0.036872186 -0.012365205
-0.021297533 -0.022520438 0.034748018 0.043306816 -0.03649267 -0.02541851 -0.14764379 -0.015591231
0.030467266 -0.027921638 0.024115738 0.031114284 0.028039021 0.0143410945 0.017041532 -0.038890712
-0.1635346 0.07458049 -0.062828496 -0.024327738 0.07898616 -0.046554796 0.03798988 -0.0035024188
-0.069502294 0.016478088 -0.045941927 -0.026854027 -0.039868932 -0.0042648413 -0.047887605 -0.019245561
-0.02487694 0.0081120925 0.053756762 0.017200988 -0.06904385 0.047630686 0.04657097 -0.089221954
-0.07029079 0.022875018 0.014748704 -0.009726066 0.030676639 0.060666043 0.015815716 -0.04171647
-0.013990446 -0.10467234 0.046917956 0.026713992 -0.025132725 -0.014285452 -0.017850973 -0.018706717
0.03467716 -0.039916106 0.023892935 0.023485681 -0.043066956 0.038891952 -0.02291553 -0.040799085
-0.083500944 0.040199753 -0.050798148 -0.21981025 -0.00151937 -0.131694 0.0077604535 -0.14584348
-0.11704809 -0.13213962 0.020796949 -0.026368823 0.03550689 0.07339837 0.05544918 -0.025017023
0.068144694 -0.025759952 -0.12834229 -0.027209379 -0.0028617217 -0.081006594 -0.08712376 -0.11825102
-0.034702644 -0.043878507 -0.058642637 -0.026121048 0.017191445 -0.045219135 0.04284204 -0.034270618
-0.041901287 -0.068586774 -0.028295355 0.005825186 -0.00061894837 0.026127119 -0.06544214 -0.09583664
-0.03247577 0.02857001 0.030197121 0.0038656294 0.0392209 0.029422991 -0.024508411 0.02698911
-0.021716872 -0.00043806806 0.03939003 -0.033094704 -0.004643243 -0.0077537703 -0.0019411099 0.06844439
0.024929231 -0.013812328 0.022917764 0.011845736 0.0141289355 -0.04572378 -0.031786315 0.028067505
0.006081572 -0.01621025 -0.07305214 -0.00077340845 0.028503599 -0.09222788 0.02509451 0.0065735145
-0.050005507 0.042921472 0.0690465 -0.06355135 -0.03626358 -0.14737675 -0.09243606 -0.13089463
-0.111607105 -0.09868862 -0.16971554 -0.11803663 -0.041090786 -0.0034155957 0.025176734 -0.0056219622
-0.00021147981 0.00419851 0.0106302425 0.013074517 0.020233363 0.023677519 -0.004103724 -0.040699527
-0.02653854 0.036101356 0.04961008 -0.036101848 0.0029625557 -0.012613764 0.00542469 0.0027166659
-0.0521236 -0.091576 -0.04374722 -0.024092153 0.036738567 0.017407645 -0.049159773 -0.021374218
00000000: c11f d8bd a9aa 2abc 2d66 46bd 193a c3bd
00000010: 9fbc b4bc 32e3 9c3d 03c1 50bd a177 54bd
00000020: 1b41 7dbc 3d4e d0bd a42f 48bd 962e 453c
00000030: cffe 813d 5187 75bc 6a7a 863b ed99 9abd
00000040: 79ee 36bd f47c 6dbd e27f d8bc 7ebd 32bd
00000050: 73ee 82bd ecc2 dabc 6e96 7a3d 1767 533c
00000060: acde 093b 92cb 04bd 220b 643d cf2b 34bd
00000070: 2524 9bbd 4f03 ffbc 0347 23bd f97c db3c
00000080: 5012 94bc c5de b43c 271b fe3c 4cd5 0a3d
00000090: 415b db3d 3200 72bd 4ef3 bf3c 17c7 103d
000000a0: 14d1 b2bc c9a2 19bd 3412 8cbd e52a 4b3d
000000b0: b5b1 4abd e197 abbb 0568 b9bb 9e7c 1bbd
000000c0: 88df a23c 938c 3fbd fc76 263d ec25 193d
000000d0: d903 cfbc 008e d438 bb0f 803c ec2d a3bd
000000e0: 7dbe c2bd 239a 063e 7aa8 e7bd a86c c2bd
000000f0: 7058 dcbb fc9f 493d 2cc8 01bd 082c 15bc
00000100: 1023 19bd c631 94bc 8776 6bbd 6dd4 f43b
00000110: 518d f03c 369d 653d 4890 27bd 5e56 b1bc
00000120: fd50 043d 36c9 893b 37f8 faba ddb6 643d
00000130: 70c5 c13b f831 723d 4a07 17bd 6e97 4abc
00000140: 2a78 aebc c87c b8bc f053 0e3d 7d62 313d
00000150: 5779 15bd 7b3a d0bc ef2f 17be 5d72 7fbc
00000160: 7d96 f93c ebbb e4bc 5e8e c53c 62e3 fe3c
00000170: 17b2 e53c e9f6 6a3c af9a 8b3c de4b 1fbd
00000180: 9d75 27be a8bd 983d 3aac 80bd f74a c7bc
00000190: 7fc3 a13d 3eb0 3ebd 479b 1b3d d688 65bb
000001a0: 3857 8ebd 0efd 863c 9a2d 3cbd fafc dbbc
000001b0: 9b4d 23bd 15c0 8bbb cb25 44bd dea8 9dbc
000001c0: b9ca cbbc 95e8 043c 0d30 5c3d 16e9 8c3c
000001d0: dd66 8dbd 6518 433d 34c1 3e3d 00ba b6bd
000001e0: 9ef4 8fbd 6464 bb3c 8ca4 713c 145a 1fbc
000001f0: 934d fb3c f57c 783d f68f 813c e4de 2abd
00000200: 2f38 65bc 745e d6bd 0b2d 403d 4dd7 da3c
00000210: 25e3 cdbc 870d 6abc 343c 92bc d43e 99bc
00000220: a309 0e3d 127f 23bd 1ebb c33c 0b65 c03c
00000230: fa66 30bd 2b4d 1f3d 59b9 bbbc f11c 27bd
00000240: 8b02 abbd 7fa8 243d b811 50bd f015 61be
00000250: 9925 c7ba cbda 06be 674b fe3b fe57 15be
00000260: e9b6 efbd 9c4f 07be 5d5e aa3c 6e03 d8bc
00000270: ac6f 113d e251 963d ae1e 633d 80f0 ccbc
00000280: 728f 8b3d 8906 d3bc 296c 03be 34e6 debc
00000290: b98b 3bbb c9e6 a5bd f16d b2bd 972d f2bd
000002a0: 5c24 0ebd f3b9 33bd 4333 70bd cffb d5bc
000002b0: 13d5 8c3c b337 39bd 237b 2f3d 595f 0cbd
000002c0: afa0 2bbd 3977 8cbd a9cb e7bc 34e1 be3b
000002d0: ec40 22ba 8a08 d63c 8706 86bd 0046 c4bd
000002e0: 5005 05bd a70b ea3c f45f f73c 8056 7d3b
000002f0: 18a6 203d 7c08 f13c ddc5 c8bc 4418 dd3c
00000300: 95e7 b1bc 80ac e5b9 7157 213d 508e 07bd
00000310: 5826 98bb 5713 febb d76c feba 932c 8c3d
00000320: 6338 cc3c 1a4d 62bc 09be bb3c 9e14 423c
00000330: 0d7d 673c dc48 3bbd 5e32 02bd d3ed e53c
00000340: ec47 c73b 5ccb 84bc 5c9c 95bd 90be 4aba
00000350: 6180 e93c f9e1 bcbd 0093 cd3c a366 d73b
00000360: 93d2 4cbd 6dce 2f3d 4068 8d3d 3627 82bd
00000370: 1f89 14bd eee9 16be 1e4f bdbd 3e09 06be
00000380: 4492 e4bd 421d cabd e9c9 2dbe 30bd f1bd
00000390: d04e 28bd 30d8 5fbb 703f ce3c 7038 b8bb
000003a0: aec0 5db9 a893 893b 782a 2e3c 8036 563c
000003b0: 70c0 a53c 5bf7 c13c 8878 86bb 8cb4 26bd
000003c0: 5a67 d9bc 04df 133d f033 4b3d 88df 13bd
000003d0: 7027 423b f6a9 4ebc 99c1 b13b 170a 323b
000003e0: 8e7f 55bd 338c bbbd 4930 33bd e85c c5bc
000003f0: 2e7b 163d 7a9a 8e3c c25b 49bd fc18 afbc

fc1_layer.bias f4 [256]
-0.1238881 -0.0073930915 -0.065879226 -0.024768451 -0.055598386 -0.060086448 0.024119925 0.1250741
-0.0763213 -0.019532442 -0.09713526 -0.05352396 -0.059473906 0.05005244 -0.0087189935 0.11392359
-0.13284531 -0.047084197 -0.11075214 -0.039612714 -0.06665614 -0.1350462 -0.12079507 0.120051876
0.05723487 -0.07683186 -0.062247083 0.031301 -0.046750378 -0.097792804 -0.068460315 -0.09132672
-0.05632306 0.08794398 -0.019153815 0.08100876 -0.05877122 -0.08911731 -0.11015189 -0.09947486
-0.079927616 -0.09113342 -0.12314932 -0.10360408 -0.096571125 0.114593305 -0.07049733 -0.05272095
-0.119572565 0.08487579 -0.12089336 -0.055506654 -0.13445356 -0.031095598 -0.039086692 0.12570809
-0.03424923 0.11034023 -0.08346718 -0.084322006 -0.06327286 -0.04833367 -0.103980765 -0.14637165
-0.13316679 0.110494606 -0.12364245 0.007709765 -0.08875953 -0.029867442 0.1881538 -0.077979475
-0.061870113 -0.07232135 -0.09473893 -0.043243017 -0.09408083 -0.085664615 -0.076726004 -0.030112429
-0.0364637 -0.058917653 -0.07790267 -0.009494977 -0.101532385 -0.077084295 -0.06451059 0.18872277
-0.043898746 -0.18777184 -0.06337623 -0.2145115 -0.094342 -0.11214272 -0.067871846 -0.060588457
-0.119463496 -0.047295526 -0.012197303 -0.004817665 -0.10425323 -0.07558034 -0.07701541 -0.039134387
-0.09082777 -0.075412974 -0.019759161 -0.07006084 -0.104191735 -0.06749696 0.023596229 -0.10068701
-0.06193992 -0.13332264 -0.0703431 0.10236556 -0.08205168 -0.07920119 -0.05799796 0.0019057909
-0.03969198 -0.053245533 -0.034014095 -0.019617302 -0.11813069 0.04328358 -0.13070522 -0.041166585
0.04136555 -0.08811359 0.03709362 -0.09750022 -0.08918025 0.09648739 0.0153337335 0.013616755
-0.113897815 0.10640917 0.0130545935 -0.07158045 -0.11599997 -0.07025049 -0.13055736 0.076353185
-0.05594447 -0.078740455 -0.06815443 -0.021886723 -0.092133865 0.029228222 0.15771526 -0.07033007
-0.0030331674 -0.10372707 -0.036728855 0.08137344 -0.026883766 -0.006880334 -0.052812964 -0.115694754
-0.061512377 0.007829523 -0.037997887 -0.12340477 -0.10066891 0.016698768 -0.048207924 -0.07771891
-0.04888975 -0.007475659 0.054248057 -0.09700157 0.34992725 -0.08236624 -0.043916326 0.06527083
0.020040426 -0.08185546 -0.03886882 -0.029399794 -0.10310271 -0.06962417 -0.115094826 -0.10535591
-0.058492403 -0.055376902 -0.094304375 -0.08106467 -0.08781467 -0.05202706 -0.13638835 -0.037830327
-0.03612727 -0.029871017 -0.09696094 -0.051734496 -0.0925591 -0.102249965 -0.0888763 -0.07153645
0.0100728385 -0.07119133 -0.1347423 -0.078868754 -0.09700465 0.013643555 -0.07905038 -0.08895535
-0.09041456 -0.086320475 -0.076287135 -0.0705089 -0.038930684 -0.09158231 0.029071825 -0.074043855
-0.08142979 -0.12828895 -0.0069025923 -0.08053709 -0.10401714 -0.080334105 -0.05633571 -0.14090672
-0.116479225 -0.09985813 -0.086973146 -0.063617304 -0.06430866 -0.004810915 -0.07305657 0.07754536
-0.02113394 0.07869041 -0.037454437 0.101359285 -0.12629315 0.07969609 0.044545714 -0.09750607
-0.07080835 -0.08544455 -0.08943575 -0.009685285 -0.120820016 -0.13857259 -0.062367152 -0.121529005
-0.057261582 -0.09681264 -0.108045496 -0.09010825 0.06661161 0.053788684 0.068472065 -0.09146157
00000000: 0bb9 fdbd bf41 f2bb b0eb 86bd 35e7 cabc
00000010: 22bb 63bd 351d 76bd 2697 c53c 6d13 003e
00000020: 574e 9cbd 8002 a0bc daee c6bd f13b 5bbd
00000030: e99a 73bd ca03 4d3d 1cda 0ebc c550 e93d
00000040: 9a08 08be 5cdb 40bd 05d2 e2bd f140 22bd
00000050: 0483 88bd 8d49 0abe 6863 f7bd c2dd f53d
00000060: 1c6f 6a3d 065a 9dbd ccf6 7ebd 7a35 003d
00000070: 537d 3fbd 9847 c8bd ec34 8cbd 8109 bbbd
00000080: 02b3 66bd f91b b43d 76e8 9cbc ece7 a53d
00000090: 17ba 70bd 2383 b6bd 5097 e1bd 7ab9 cbbd
000000a0: 17b1 a3bd 29a4 babd b635 fcbd 602e d4bd
000000b0: 15c7 c5bd e5af ea3d e760 90bd ecf1 57bd
000000c0: 76e2 f4bd 5cd3 ad3d f096 f7bd f25a 63bd
000000d0: 32ae 09be 32bc febc 5e19 20bd 9fb9 003e
000000e0: ec48 0cbd 0ffa e13d d7f0 aabd 04b1 acbd
000000f0: 3495 81bd 87f9 45bd def3 d4bd 73e2 15be
00000100: e05c 08be ff4a e23d 4138 fdbd 32a2 fc3b
00000110: 8ec7 b5bd 91ac f4bc 64ab 403e b4b3 9fbd
00000120: 846b 7dbd 371d 94bd 7c06 c2bd 971f 31bd
00000130: 73ad c0bd ee70 afbd 8622 9dbd 57ae f6bc
00000140: f65a 15bd a353 71bd 6f8b 9fbd d290 1bbc
00000150: 36f0 cfbd 5fde 9dbd 211e 84bd 8b40 413e
00000160: 2ccf 33bd 4347 40be 66cb 81bd e7a8 5bbe
00000170: 6136 c1bd 15ab e5bd 6500 8bbd 9a2b 78bd
00000180: 47a9 f4bd f4b8 41bd 32d7 47bc 81dd 9dbb
00000190: b882 d5bd dec9 9abd 41ba 9dbd 614b 20bd
000001a0: e903 babd 1e72 9abd f7dd a1bc 0f7c 8fbd
000001b0: 7a62 d5bd d93b 8abd e14c c13c fe34 cebd
000001c0: b7b4 7dbd bb85 08be 0b10 90bd 09a5 d13d
000001d0: b60a a8bd 3c34 a2bd 458f 6dbd bbcb f93a
000001e0: 0f94 22bd fd17 5abd 5d52 0bbd 77b4 a0bc
000001f0: 81ee f1bd 204a 313d 97d7 05be 4b9e 28bd
00000200: ec6e 293d e674 b4bd 7bef 173d 32ae c7bd
00000210: 23a4 b6bd 2e9b c53d 573a 7b3c cf18 5f3c
00000220: 4243 e9bd 0ded d93d efe2 553c c598 92bd
00000230: 6491 edbd 7ddf 8fbd d4b0 05be 0f5f 9c3d
00000240: 0726 65bd ad42 a1bd 8d94 8bbd c94b b3bc
00000250: aeb0 bcbd 0670 ef3c 1c80 213e 3609 90bd
00000260: 1bc8 46bb dc6e d4bd ff70 16bd 1ea7 a63d
00000270: 583b dcbc 6d74 e1bb 6852 58bd 5ff1 ecbd
00000280: 67f4 7bbd 6647 003c aca3 1bbd a4bb fcbd
00000290: 802b cebd dbcb 883c ac75 45bd 182b 9fbd
000002a0: 9e40 48bd 5ff6 f4bb 3633 5e3d c2a8 c6bd
000002b0: aa29 b33e a2af a8bd 9be1 33bd b7ac 853d
000002c0: d22b a43c d6a3 a7bd e934 1fbd d6d7 f0bc
000002d0: 8327 d3bd 1e97 8ebd d6b6 ebbd d7c4 d7bd
000002e0: bb95 6fbd e4d2 62bd a722 c1bd 3c05 a6bd
000002f0: 2dd8 b3bd 541a 55bd 63a9 0bbe f9f3 1abd
00000300: 30fa 13bd 10b4 f4bc 7593 c6bd 8de7 53bd
00000310: a08f bdbd 6e68 d1bd c704 b6bd b481 92bd
00000320: 8c08 253c c3cc 91bd e3f9 09be f185 a1bd
00000330: 60aa c6bd 3889 5f3c 2ae5 a1bd 392e b6bd
00000340: 452b b9bd cac8 b0bd 6e3c 9cbd f866 90bd
00000350: c875 1fbd 828f bbbd 0928 ee3c 4ea4 97bd
00000360: a9c4 a6bd 2e5e 03be 242f e2bb a1f0 a4bd
00000370: f006 d5bd 3586 a4bd 46c0 66bd da49 10be
00000380: a98c eebd 6b82 ccbd fa1e b2bd ca49 82bd
00000390: 42b4 83bd e1a4 9dbb af9e 95bd 1ad0 9e3d
000003a0: 1621 adbc 7028 a13d d369 19bd 7595 cf3d
000003b0: fe52 01be b437 a33d 9175 363d 43b1 c7bd
000003c0: f803 91bd 8dfd aebd 172a b7bd 08af 1ebc
000003d0: 7c70 f7bd f9e5 0dbe b374 7fbd 33e4 f8bd
000003e0: 1f8b 6abd b545 c6bd f546 ddbd ad8a b8bd
000003f0: ab6b 883d 8651 5c3d 153b 8c3d 3450 bbbd

fc2_layer.weight f4 [256, 256]
-0.039483897 -0.008812338 0.051631495 -0.020979835 0.15394512 0.018987501 -0.0067482004 -0.004195529
-0.03227827 -0.028433323 -0.014120256 -0.01727821 0.052834466 0.0012775507 -0.0069771213 -0.15893522
0.07512275 -0.05716051 -0.006626212 -0.0871884 0.040941007 -0.059694946 -0.0130805215 0.04051583
0.05377662 0.05158902 0.05029445 0.013106727 -0.050620172 -0.07475787 0.056079507 -0.008205557
0.014569856 -0.002010427 0.081403255 -0.039677545 -0.018894061 -0.04728406 -0.052183304 0.05030979
0.021276167 -0.036731966 0.06811598 -0.020834606 0.059566647 -0.087165006 -0.106485896 -0.050950006
0.004149176 -0.04292858 -0.06691921 -0.091181904 -0.040610664 -0.054006983 -0.026690183 -0.11123548
-0.019174242 -0.026024565 -0.0058071967 0.053967714 0.037691288 0.022867829 0.046305314 -0.062599175
0.055373304 0.02653347 0.058204375 -0.02241718 -0.06478083 -0.06416123 0.004739155 0.038994778
-0.031702314 -0.027035087 -0.04193611 0.020982945 -0.035384808 -0.06739713 0.010378706 -0.023573652
-0.013622356 0.006775488 -0.020675786 -0.047568433 -0.012084686 0.041821264 0.019996986 -0.06845304
-0.040564492 0.01471017 -0.017112762 -0.06377017 -0.021233002 0.05021524 -0.011651602 0.023141047
-0.02844028 -0.044972885 0.029265696 -0.055181183 0.053694066 0.012949427 0.023655673 0.042098485
-0.058174804 0.03982354 -0.052812684 0.0052393377 -0.029420516 -0.07491892 -0.029542936 0.032488093
0.01615325 -0.018343655 0.045111272 0.19369592 -0.021994276 0.044230558 0.0023037582 -0.07730844
0.0010575916 -0.01503089 0.018123932 0.040140335 0.017451676 -0.023323912 0.011923825 -0.037745547
-0.014701058 -0.064629555 -0.014202155 0.028143445 -0.016403079 0.0031855814 0.14491595 -0.00802383
-0.043281365 -0.046226975 -0.048446536 0.05237577 -0.025262024 0.036388967 -0.054962736 0.05882904
-0.04948481 0.03401663 0.042993363 0.0024381157 0.022966444 -0.021409877 0.09674433 -0.04480176
-0.023120705 -0.017403092 -0.005829272 -0.06478282 0.03533519 -0.06892012 0.03671331 0.06940806
-0.049574293 -0.0731399 -0.09680977 -0.06049982 -0.04160019 -0.05907853 -0.050968297 -0.043060627
-0.048755962 -0.024006052 0.19874792 0.053819522 0.0048263315 0.047156908 -0.05567683 0.08606216
-0.023679636 0.06080921 -0.014823343 0.06976198 0.031816643 0.011632865 0.03484276 -0.0049249567
-0.004895434 -0.054332 0.054153416 -0.037953362 -0.040059216 -0.012370048 -0.045287576 -0.055236526
0.033683654 0.02257948 -0.0038701792 0.0005972609 -0.032110393 0.03293085 0.026019374 0.0074773408
0.01711762 0.059590865 0.05243686 0.041369304 0.016601581 0.04585654 0.03473548 -0.03327698
-0.058861446 -0.019947954 0.014907511 0.044855762 -0.013078663 -0.04373831 0.04526414 -0.05892016
-0.027110368 -0.0026362834 -0.039255437 -0.039326496 -0.029291542 0.0006549363 -0.06876763 0.0032002681
0.01379926 0.019332297 -0.049181398 -0.0935196 -0.0027247283 -0.021250704 -0.025286913 -0.04787538
-0.0011960153 0.004087652 -0.0062263664 0.008806015 -0.022474803 0.053490378 -0.05422401 0.028692933
0.019986235 -0.029207392 -0.023638764 -0.04828017 -0.0030470416 -0.025616705 0.03574123 -0.051175945
0.000112957816 -0.08938184 0.0011950224 -0.0040678983 0.061144598 -0.018570434 -0.11178882 -0.026350603
00000000: deb9 21bd a061 10bc 8c7b 533d e7dd abbc
00000010: caa3 1d3e ad8b 9b3c 0220 ddbb a67a 89bb
00000020: 3836 04bd 00ed e8bc a558 67bc 088b 8dbc
00000030: f468 583d 7d73 a73a 56a0 e4bb eabf 22be
00000040: f5d9 993d 2421 6abd b220 d9bb d58f b2bd
00000050: c2b1 273d b082 74bd af4f 56bc edf3 253d
00000060: e044 5c3d 024f 533d 8e01 4e3d 99bd 563c
00000070: 1957 4fbd a71a 99bd a0b3 653d 9a70 06bc
00000080: 68b6 6e3c 5ec1 03bb c0b6 a63d ec84 22bd
00000090: b8c7 9abc eeac 41bd 29be 55bd a311 4e3d
000000a0: 5b4b ae3c 4274 16bd 6480 8b3d 56ad aabc
000000b0: 28fc 733d 9183 b2bd 4715 dabd f4b0 50bd
000000c0: d0f5 873b e1d5 2fbd f00c 89bd 94bd babd
000000d0: 5e57 26bd 6d36 5dbd 5fa5 dabc 6dcf e3bd
000000e0: 4d13 9dbc 7831 d5bc 4c4a bebb 400d 5d3d
000000f0: 2e62 1a3d 5055 bb3c a4aa 3d3d ff33 80bd
00000100: 1ecf 623d b85c d93c b667 6e3d 3ca4 b7bc
00000110: d0ab 84bd f766 83bd ea4a 9b3b fdb8 1f3d
00000120: 49da 01bd b078 ddbc 33c5 2bbd 6de4 ab3c
00000130: a9ef 10bd 8207 8abd 730b 2a3c 881d c1bc
00000140: 4d30 5fbc ea04 de3b 4460 a9bc 1ed7 42bd
00000150: d9fe 45bc c64c 2b3d b8d0 a33c 1c31 8cbd
00000160: f426 26bd ed02 713c 1030 8cbc ef99 82bd
00000170: d5f0 adbc 7fae 4d3d 5ce6 3ebc 4b92 bd3c
00000180: 97fb e8bc 7d35 38bd 9dbe ef3c aa05 62bd
00000190: 4fee 5b3d d529 543c 8bc9 c13c 766f 2c3d
000001a0: b448 6ebd 021e 233d 1d52 58bd c0ae ab3b
000001b0: 4b03 f1bc 176f 99bd 0704 f2bc 3c12 053d
000001c0: d253 843c 6f45 96bc 99c6 383d 3958 463e
000001d0: 572d b4bc 1a2b 353d a6fa 163b e353 9ebd
000001e0: e39e 8a3a 1f44 76bc a478 943c 316a 243d
000001f0: d1f6 8e3c ca11 bfbc 265c 433c 139b 1abd
00000200: b5dc 70bc 805c 84bd 28b0 68bc 158d e63c
00000210: c05f 86bc 30c5 503b d964 143e 6276 03bc
00000220: cd47 31bd 7f58 3dbd e06f 46bd fa87 563d
00000230: 4ef2 cebc 990c 153d 9b20 61bd b8f6 703d
00000240: 96b0 4abd 0655 0b3d cf19 303d cbc8 1f3b
00000250: 2024 bc3c c463 afbc e421 c63d 0d82 37bd
00000260: a267 bdbc ee90 8ebc 7a03 bfbb dbac 84bd
00000270: a2bb 103d fe25 8dbd b260 163d d025 8e3d
00000280: 6a0e 4bbd 5fca 95bd 3344 c6bd a9ce 77bd
00000290: f664 2abd 54fc 71bd 22c4 50bd 5760 30bd
000002a0: 55b4 47bd 57a8 c4bc 9384 4b3e dc71 5c3d
000002b0: 3426 9e3b 9a27 413d 630d 64bd 5c41 b03d
000002c0: ccfb c1bc 1413 793d 9bdd 72bc 5edf 8e3d
000002d0: 2b52 023d c697 3e3c 48b7 0e3d 8861 a1bb
000002e0: e069 a0bb 3b8b 5ebd f9cf 5d3d fc74 1bbd
000002f0: 2215 24bd beab 4abc 777f 39bd b23f 62bd
00000300: dff7 093d 9af8 b83c d5a2 7dbb 8091 1c3a
00000310: 3086 03bd 80e2 063d 9526 d53c 7b04 f53b
00000320: 403a 8c3c 8d15 743d 08c8 563d dc72 293d
00000330: 0a00 883c 11d4 3b3d ca46 0e3d 714d 08bd
00000340: b318 71bd e469 a3bc a23e 743c adba 373d
00000350: e347 56bc f126 33bd e466 393d 4456 71bd
00000360: 9016 debc 7fc5 2cbb 4fca 20bd d214 21bd
00000370: d1f4 efbc 08b0 2b3a 0bd6 8cbd 97bb 513b
00000380: 4b16 623c c45e 9e3c 6f72 49bd 3487 bfbd
00000390: 5b91 32bb f515 aebc 8026 cfbc f918 44bd
000003a0: 9dc3 9cba b6f1 853b 8c06 ccbb 1b47 103c
000003b0: 141d b8bc ba18 5b3d ff19 5ebd 710d eb3c
000003c0: 2cba a33c 5744 efbc 15a6 c1bc 6dc1 45bd
000003d0: e0b0 47bb 20da d1bc 6565 123d de9d 51bd
000003e0: c4e3 ec38 d30d b7bd 4ca2 9c3a 014c 85bb
000003f0: c272 7a3d 0621 98bc 89f1 e4bd 38dd d7bc

fc2_layer.bias f4 [256]
-0.12712945 -0.013314761 0.002834068 -0.024499435 -0.013794618 -0.06735871 -0.04947001 -0.003492205
0.1587092 -0.005059691 -0.00877 -0.10193368 -0.007912338 -0.05878074 -0.09608682 -0.10509612
-0.087254286 -0.016673304 -0.14427622 0.16978633 0.06381613 -0.050328776 -0.018329097 -0.035499796
-0.09281306 -0.007222213 0.0035046388 -0.027730772 -0.051595498 0.042326313 -0.026433354 -0.08991687
0.13831764 -0.036913075 0.039402243 -0.067097366 -0.018088117 -0.0881906 -0.013492355 0.006323084
-0.04298484 -0.051340528 -0.020895632 0.010329238 -0.015548691 0.031616136 0.13666381 -0.085658826
-0.11515664 -0.05761915 -0.08421731 -0.07475408 -0.084609896 -0.10307139 -0.033866573 0.12323639
-0.105629265 -0.018692605 0.06468224 -0.03697387 0.06200057 -0.04865564 -0.09138299 -0.010978187
9.302227e-05 -0.023905411 0.044985797 0.13835491 -0.0049042087 -0.011239836 -0.050025564 -0.10611517
0.10470207 -0.092361495 0.025339352 -0.0049939146 0.015727956 -0.010270569 -0.062107153 0.07896039
-0.08648716 0.04771873 -0.07686487 0.028331473 -0.1061207 -0.12026629 0.0121579245 -0.06939866
0.03618933 -0.024388438 -0.049685586 -0.068639636 -0.038437292 -0.09116909 -0.0725406 -0.044826683
-0.09294676 -0.05384529 -0.095169455 -0.08382128 0.006695651 -0.040379073 -0.04930655 -0.052628372
0.005420593 -0.014059116 -0.036222268 0.083628066 -0.030862533 -0.12730186 -0.13318062 -0.0042162645
-0.051542275 -0.124680266 -0.11079184 0.026936632 -0.13438539 -0.10747074 0.33035904 -0.007358142
-0.100990064 -0.019177303 -0.051072963 -0.09151762 -0.06019305 -0.032961518 -0.104206555 -0.0737835
-0.05577985 -0.05788506 -0.050853353 -0.013437813 -0.0059000044 -0.08196179 -0.09354364 -0.0380624
-0.023780067 -0.07200987 -0.065645695 -0.12863207 -0.013427214 -0.10316 -0.056509506 -0.11855441
-0.046558395 -0.007869253 -0.041845135 0.008030353 -0.16574949 -0.01251462 -0.012070723 0.0068282224
-0.036246423 -0.014259223 -0.051261187 0.0014627553 -0.013294323 -0.07767133 -0.084074475 -0.028586982
-0.012763793 -0.05264922 -0.0581329 0.08864587 -0.100559205 0.010538542 0.0057538906 -0.09499099
0.054530617 -0.011014466 -0.025039034 -0.05487701 -0.01156518 -0.16371314 -0.027570754 0.0069910656
-0.03680108 -0.094455875 -0.04235079 -0.08257359 -0.035127893 -0.07814408 -0.10873348 -0.07923666
-0.016240405 -0.11821572 -0.045468 0.01964458 -0.06492555 -0.10108866 -0.07917883 -0.040158425
0.0062018433 -0.050971173 -0.09676126 -0.053615067 0.04152481 -0.09831126 -0.070265934 -0.04628515
-0.08490747 -0.05688308 0.003127615 -0.028296273 0.06791775 -0.015511246 0.070362285 -0.06071392
-0.065683894 -0.03214744 -0.006750472 -0.031163702 0.07303858 -0.05529972 -0.008965182 0.023422947
0.034233358 -0.010333194 -0.06322222 -0.12541595 -0.08393833 -0.009887369 -0.01908949 0.0044111684
-0.0978388 -0.077161826 -0.062632054 -0.104671456 -0.12095839 -0.09033787 0.0012883657 -0.013598434
-0.07427443 -0.071255215 -0.11355797 -0.12886618 0.09894824 -0.01751372 -0.12689994 -0.0067749657
-0.06517947 -0.0706565 0.0034457613 -0.0038448735 -0.019327248 -0.039835002 -0.02682731 -0.087155186
-0.019192107 0.025254171 -0.02181995 -0.007686715 0.068623126 -0.12595063 -0.06873036 -0.09963167
00000000: 392e 02be 2826 5abc c5bb 393b 0ab3 c8bc
00000010: d202 62bc 5df3 89bd 11a1 4abd 7add 64bb
00000020: aa84 223e c4cb a5bb 0cb0 0fbc 9bc2 d0bd
00000030: c0a2 01bc 13c4 70bd 2bc9 c4bd a23c d7bd
00000040: 60b2 b2bd 7496 88bc 25bd 13be 78dc 2d3e
00000050: 08b2 823d 8c25 4ebd e726 96bc 3c68 11bd
00000060: c614 bebd 50a8 ecbb 15ae 653b a52b e3bc
00000070: cd55 53bd 5b5e 2d3d c38a d8bc 5626 b8bd
00000080: 24a3 0d3e 2a32 17bd 3f64 213d 586a 89bd
00000090: 882d 94bc 469d b4bd 0a0f 5dbc df31 cf3b
000000a0: df10 30bd 724a 52bd 512d abbc f73b 293c
000000b0: f0bf 7ebc ec7f 013d 99f1 0b3e e56d afbd
000000c0: 3fd7 ebbd 0f02 6cbd 207a acbd ab18 99bd
000000d0: f447 adbd 1817 d3bd adb7 0abd 5c63 fc3d
000000e0: 2854 d8bd 3c21 99bc 1f78 843d ea71 17bd
000000f0: 4ff4 7d3d 234b 47bd 0127 bbbd dbdd 33bc
00000100: f314 c338 48d5 c3bc 0743 383d e9ac 0d3e
00000110: 7cb3 a0bb 4a27 38bc 9be7 4cbd e952 d9bd
00000120: 0a6e d63d 0628 bdbd 7994 cf3c fea3 a3bb
00000130: ead7 803c e345 28bc 1264 7ebd fcb5 a13d
00000140: 2e20 b1bd b774 433d 546b 9dbd 6817 e83c
00000150: cf55 d9bd 2c4e f6bd 0832 473c e220 8ebd
00000160: 433b 143d 43ca c7bc 1d83 4bbd f092 8cbd
00000170: 6c70 1dbd dcb6 babd 2b90 94bd 2f9c 37bd
00000180: df5a bebd e18c 5cbd 34e8 c2bd 7eaa abbd
00000190: 3167 db3b 8764 25bd aaf5 49bd d990 57bd
000001a0: 3b9f b13b 3558 66bc cd5d 14bd 3145 ab3d
000001b0: 6cd3 fcbc 6b5b 02be 8060 08be 9728 8abb
000001c0: fe1d 53bd 5e58 ffbd d5e6 e2bd 36aa dc3c
000001d0: 539c 09be 9f19 dcbd d224 a93e 921c f1bb
000001e0: e1d3 cebd b819 9dbc e231 51bd 976d bbbd
000001f0: fd8c 76bd a802 07bd 3f6a d5bd ce1b 97bd
00000200: 6979 64bd e218 6dbd 9b4b 50bd 462a 5cbc
00000210: d354 c1bb 95db a7bd cf93 bfbd 52e7 1bbd
00000220: 6ace c2bc e979 93bd 4071 86bd 20b8 03be
00000230: d1fd 5bbc 8d45 d3bd 8376 67bd a8cc f2bd
00000240: 04b4 3ebd 0aee 00bc ce65 2bbd be91 033c
00000250: 3cba 29be 1f0a 4dbc 48c4 45bc 48bf df3b
00000260: 2177 14bd 849f 69bc 40f7 51bd ecb9 bf3a
00000270: 6fd0 59bc 2512 9fbd 3d2f acbd 3f2f eabc
00000280: 3a1f 51bc b5a6 57bd c41c 6ebd f78b b53d
00000290: fcf1 cdbd d9a9 2c3c 228b bc3b a38a c2bd
000002a0: 7f5b 5f3d 0576 34bc a91e cdbc b7c6 60bd
000002b0: e17b 3dbc 6ba4 27be 10dc e1bc 4f15 e53b
000002c0: bbbc 16bd 1572 c1bd 0678 2dbd 581c a9bd
000002d0: 44e2 0fbd 010a a0bd a9af debd d446 a2bd
000002e0: 990a 85bc 151b f2bd a73c 3abd aced a03c
000002f0: b0f7 84bd 9207 cfbd 8328 a2bd 297d 24bd
00000300: d538 cb3b 26c7 50bd c42a c6bd 799b 5bbd
00000310: eb15 2a3d 6a57 c9bd 96e7 8fbd 7f95 3dbd
00000320: f8e3 adbd 3cfe 68bd acf8 4c3b 96cd e7bc
00000330: 7618 8b3d e222 7ebc 1a1a 903d 29af 78bd
00000340: 4785 86bd 09ad 03bd 1033 ddbb 054b ffbc
00000350: 4095 953d f681 62bd b3e2 12bc 7be1 bf3c
00000360: 4738 0c3d 8f4c 29bc a77a 81bd 0a6d 00be
00000370: dce7 abbd a2fe 21bc 9061 9cbc 908b 903b
00000380: b55f c8bd 0507 9ebd 3c45 80bd fd5d d6bd
00000390: 08b9 f7bd 1003 b9bd 61de a83a f7cb 5ebc
000003a0: 311d 98bd 41ee 91bd 1591 e8bd 7ff5 03be
000003b0: 60a5 ca3d ef78 8fbc 0ff2 01be 8800 debb
000003c0: d07c 85bd 5bb4 90bd 48d2 613b 46fa 7bbb
000003d0: 2d54 9ebc 072a 23bd f2c4 dbbc 6b7e b2bd
000003e0: c438 9dbc d6e1 ce3c c0bf b2bc d7e0 fbbb
000003f0: 488a 8c3d 34f9 00be 81c2 8cbd b00b ccbd

actor_out_layer.weight f4 [7, 256]
0.20352986 0.1679453 -0.015644778 0.037986618 -0.0374259 -0.002921153 0.07654223 -0.038074225
0.06905054 0.011829957 0.12987302 0.15202938 0.0061891153 0.005279611 0.032548923 0.27191398
-0.05365003 -0.011856642 0.17850792 0.09457044 -0.015127691 0.05071045 -0.027176082 0.0050986526
0.009056529 -0.067651145 -0.015943224 0.069190964 -0.05798631 0.0016828649 0.0018735973 0.22761615
-0.022759197 -0.007397566 0.1796176 0.04294746 0.015337331 0.08018495 -0.02338423 0.05825633
0.014577746 0.048762515 0.034942016 0.004389613 0.014493179 0.033766836 0.249015 -0.047026515
-0.07010928 0.022176655 -0.029035313 0.01708993 0.08316131 0.06715628 -0.016253969 0.0274869
0.029330729 0.038656656 0.020907508 -0.0040336642 0.1480433 0.13248369 0.10748721 0.18843739
0.010361776 0.074037984 -0.033499416 0.31162652 -0.019811884 -0.017400373 0.036286592 0.05627221
-0.023021773 -0.01752086 0.010201255 -0.02587948 -0.14269042 0.008880765 -0.0779846 0.022094807
0.010726902 0.22482441 -0.055659793 -0.023636421 -0.015144929 0.10121905 -0.1220463 0.040725157
0.22291626 0.0123740425 0.0064669806 0.03516221 -0.010590129 0.060518153 0.028445922 -0.102438726
0.043234505 -0.024001507 -0.050874904 -0.06689316 -0.037421107 0.017854903 0.033386767 -0.05055117
-0.10494066 0.03872593 0.002268153 0.46546936 0.04860386 0.07091873 0.09710796 0.26236442
0.058158904 0.023249997 0.0060470426 -0.072974846 -0.0141797215 -0.040951695 0.012436104 0.0606563
0.15628633 0.007127916 0.006563725 0.13028027 -0.000827986 0.017290834 -0.02070452 -0.008482678
-0.033830855 0.21106724 0.023118792 -0.040844854 0.0034229697 0.17083794 -0.07438264 -0.09081028
-0.027654443 -0.014296255 0.06557269 -0.016955763 0.0292975 0.09503657 0.07870427 -0.020366242
-0.026233926 0.04959828 -0.029149404 -0.05066237 0.3465582 0.011486038 0.048438266 0.019689625
0.3027799 -0.051885366 -0.0015934535 0.016454715 -0.15635158 0.003556341 0.093507275 0.020463675
0.0042334795 -0.018278707 -0.053294554 0.040578417 -0.04164924 0.0053241523 -0.010501143 0.018597238
0.07327733 0.014696727 0.08988201 0.004616337 0.1665924 0.105136834 0.14309195 0.018310636
-0.12140581 0.11144105 -0.026252449 -0.011786919 -0.05845414 -0.02692021 -0.04888317 0.035803165
-0.0131076425 0.023099743 -0.0062125097 0.1407828 0.0072503877 0.05445102 0.13977905 0.017175602
-0.01549273 -0.006670908 -0.010848679 0.018483575 0.105005935 -0.03738736 0.0680428 -0.07699718
0.0043589654 -0.0050531738 -0.058747068 0.027969807 0.41855377 0.027671453 0.014005948 0.06468056
0.026625667 0.014157909 0.08999089 -0.0033112655 0.24952134 -0.00426914 -0.06749538 0.39406022
0.024992395 0.029271327 -0.06325157 -0.018906312 0.0096168155 -0.03779825 -0.012924109 0.13909863
0.014665086 -0.014672987 0.038170554 0.0892156 0.057693508 -0.014442691 -0.051913615 0.19225276
-0.0014726131 0.024801224 0.0016510158 -0.040122394 -0.055020466 0.0111688655 0.079364404 0.01191662
0.04318824 -0.034930404 -0.026001098 -0.0883093 -0.01438317 0.02235171 -0.0035601526 0.015992971
0.03739098 -0.043559168 0.0039238213 -0.0817287 0.061467376 0.18693994 0.0736378 0.015322647
00000000: 226a 503e daf9 2b3e 7a29 80bc db97 1b3d
00000010: e74b 19bd d170 3fbb 2cc2 9c3d b8f3 1bbd
00000020: 5f6a 8d3d 70d2 413c 6ffd 043e 97ad 1b3e
00000030: 10ce ca3b 9600 ad3b 0552 053d 4f38 8b3e
00000040: 22c0 5bbd 5c42 42bc c8ca 363e 26ae c13d
00000050: 23da 77bc c3b5 4f3d 60a0 debc 9912 a73b
00000060: d661 143c af8c 8abd 5d9b 82bc feb3 8d3d
00000070: 0e83 6dbd 9393 dc3a 7e93 f53a 3514 693e
00000080: 7f71 babc 4867 f2bb aded 373e ade9 2f3d
00000090: 6e49 7b3c 0238 a43d 4990 bfbc 319e 6e3d
000000a0: 80d7 6e3c 34bb 473d 5c1f 0f3d bed6 8f3b
000000b0: cc74 6d3c 184f 0a3d cafd 7e3e e09e 40bd
000000c0: 7495 8fbd d1ab b53c 77db edbc 2e00 8c3c
000000d0: 7a50 aa3d 3b89 893d 0b27 85bc 352c e13c
000000e0: ff46 f03c 7156 1e3d 3946 ab3c d42c 84bb
000000f0: aa98 173e cea9 073e 4122 dc3d bbf5 403e
00000100: 70c4 293c 3aa1 973d af36 09bd 838d 9f3e
00000110: 884c a2bc 3a8b 8ebc 40a1 143d b07d 663d
00000120: 2898 bcbc e887 8fbc 2a23 273c 3401 d4bc
00000130: 701d 12be a180 113c 64b6 9fbd 2b00 b53c
00000140: e3bf 2f3c 5f38 663e 86fb 63bd 2ba1 c1bc
00000150: 7022 78bc ef4b cf3d 69f3 f9bd 6ccf 263d
00000160: 2944 643e 7fbc 4a3c f7e8 d33b 4006 103d
00000170: 3882 2dbc e2e1 773d 6c07 e93c 65cb d1bd
00000180: aa16 313d cf9e c4bc 3462 50bd 48ff 88bd
00000190: e046 19bd 7244 923c 90c0 083d be0e 4fbd
000001a0: 21eb d6bd 159f 1e3d 4ba5 143b 0052 ee3e
000001b0: d714 473d d73d 913d 8ae0 c63d a154 863e
000001c0: 0838 6e3d c776 be3c 4526 c63b d673 95bd
000001d0: 1052 68bc f7bc 27bd cdc0 4b3c be72 783d
000001e0: 8609 203e 4b91 e93b 8414 d73b 3168 053e
000001f0: 330d 59ba 82a5 8d3c 879c a9bc eefa 0abc
00000200: 3992 0abd 0322 583e 9f63 bd3c ef4c 27bd
00000210: e753 603b 24f0 2e3e ed55 98bd bdfa b9bd
00000220: 928b e2bc d73a 6abc f94a 863d d0e6 8abc
00000230: 5001 f03c 89a2 c23d b42f a13d 1bd7 a6bc
00000240: 88e8 d6bc 9127 4b3d bbca eebc 5883 4fbd
00000250: 1470 b13e ef2f 3c3c 3467 463d 234c a13c
00000260: f805 9b3e c085 54bd 6ddb d0ba 0acc 863c
00000270: a11a 20be 8011 693b be80 bf3d 70a3 a73c
00000280: 00b9 8a3b 3abd 95bc 644b 5abd 8e35 263d
00000290: 6598 2abd 3a76 ae3b fc0c 2cbc 3c59 983c
000002a0: 6d12 963d 8aca 703c 0f14 b83d a444 973b
000002b0: 3397 2a3e fb51 d73d b286 123e 3000 963c
000002c0: 9ca3 f8bd 353b e43d 600f d7bc ec1d 41bc
000002d0: 9c6d 6fbd c687 dcbc b839 48bd 57a6 123d
000002e0: 70c1 56bc ac3b bd3c 4f92 cbbb 5e29 103e
000002f0: a994 ed3b 0808 5f3d 3d22 0f3e d9b3 8c3c
00000300: 38d5 7dbc a297 dabb a8be 31bc de6a 973c
00000310: 5a0d d73d 7d23 19bd 065a 8b3d b3b0 9dbd
00000320: a7d5 8e3b 1895 a5bb c4a0 70bd f020 e53c
00000330: ae4c d63e 3eaf e23c 3479 653c 3e77 843d
00000340: 121e da3c 93f6 673c 254d b83d d101 59bb
00000350: 8682 7f3e 24e4 8bbb 053b 8abd 43c2 c93e
00000360: dabc cc3c 6cca ef3c 0a8a 81bd 69e1 9abc
00000370: d98f 1d3c 56d2 1abd a4bf 53bc df6f 0e3e
00000380: d445 703c f866 70bc ba58 1c3d abb6 b63d
00000390: 0750 6c3d 09a1 6cbc 5fa3 54bd e8dd 443e
000003a0: b204 c1ba f02b cb3c e666 d83a 6157 24bd
000003b0: 245d 61bd 9efd 363c ce89 a23d ed3d 433c
000003c0: 27e6 303d 2f13 0fbd 4100 d5bc 82db b4bd
000003d0: 63a7 6bbc ef1a b73c 7351 69bb b103 833c
000003e0: 4927 193d 196b 32bd 6693 803b 6061 a7bd
000003f0: 37c5 7b3d 2f6d 3f3e 6acf 963d d70b 7b3c

actor_out_layer.bias f4 [7]
-0.049024556 0.052335914 0.47649434 0.21288218 0.33638707 0.12618454 -0.0045288485
00000000: f9cd 48bd 2f5e 563d 11f7 f33e c9fd 593e
00000010: ed3a ac3e 8536 013e bc66 94bb
