projet/models/actor_critic/conv_player_1_actor.pth (torch, 743383 bytes, 10 tensors)

conv_1.weight f4 [32, 1, 3, 3]
000000 5c ae 3c be d2 f0 6c 3e a5 d1 91 bc e3 44 c3 bd
       -0.18425888 0.2313874 -0.017800162 -0.095346235
000010 04 b2 d5 3d c7 ed 80 be 69 23 98 be 1e 4c 82 3c
       0.104343444 -0.2518141 -0.29714516 0.015905436
000020 d0 3e 81 bd 7d a3 26 be 12 66 61 3d 20 bc 95 be
       -0.06310809 -0.16273303 0.055028982 -0.2924509
000030 b0 33 51 3e b8 d2 78 3c 1a e1 3b be 5d 89 65 be
       0.20429873 0.015186958 -0.18347588 -0.22415681
000040 b3 3b 55 3e 8a f6 b2 be 6a 78 4e be 07 58 f1 3d
       0.20823555 -0.3495372 -0.20163122 0.11784368
000050 58 88 5c 3d c0 97 a4 3c 6c 3d 22 bd 8f 86 53 3e
       0.053840965 0.020091891 -0.039609358 0.20656799
000060 f7 f1 bc 3b 34 60 52 3d d7 bb 1d bd 52 0b 2d 3d
       0.005766149 0.051361278 -0.038509216 0.042247124
000070 7f cc 13 3e f1 c5 00 3d 52 8a 94 bd 18 7f 78 be
       0.14433478 0.03143877 -0.07252945 -0.24267232
000080 cf 4e ac 3e 9a 69 63 be 24 0e 79 be 20 bd 91 be
       0.33653876 -0.22208253 -0.243218 -0.28464603
000090 1e 5e 25 3e bb a1 07 be f7 ff 86 3e ea ef 33 be
       0.16149184 -0.13245289 0.2636716 -0.17571989
0000a0 e8 e8 96 be d9 42 22 be f7 59 81 3e 00 b1 40 bc
       -0.29474568 -0.15845813 0.2526395 -0.01176095
0000b0 06 bd 8d be ba bc 7b be bd ab 25 3c 65 bd 97 be
       -0.27683276 -0.24583712 0.010111746 -0.29636684
0000c0 57 7e 95 3e f4 af 92 3e fc e7 d3 bd 83 81 8d 3e
       0.29197952 0.28649867 -0.10346982 0.27637872
0000d0 94 ad b3 3c ae 1f 36 be 6a 9f 1d bc 08 bf 48 3e
       0.021933354 -0.17785522 -0.009620527 0.19604123
0000e0 76 77 88 3c 14 a1 ae bd 47 f8 44 3e 1d a7 61 be
       0.016658526 -0.08526817 0.19235335 -0.22036405
0000f0 d8 80 a6 3e 9a 11 8c be 47 f2 38 3d 4d b1 56 3c
       0.32520175 -0.2735718 0.04515293 0.013103795
000100 1b b8 02 3d 24 ab 01 be 97 c6 75 be b8 16 5e be
       0.031913858 -0.12662941 -0.24001537 -0.21688354
000110 16 d9 51 be 72 ab 9c bc 05 a1 85 3e ce bd f1 bd
       -0.20492968 -0.01912472 0.2609941 -0.118037805
000120 73 1e 82 be 6b 04 68 3e 5f a0 87 3e 09 af cf bd
       -0.25413856 0.22657935 0.2648954 -0.10140807
000130 a3 c2 4a 3d cb aa 38 3e 09 09 8e be 89 39 5b 3e
       0.049502026 0.18033902 -0.27741268 0.21408667
000140 c8 81 05 3e 39 1d ac 3d 0b 6c 9f be d0 d8 23 be
       0.13037789 0.08404011 -0.31137118 -0.16000676
000150 3c 04 b5 3d b9 bb 5f bd 70 8a 13 3e 6c a2 8f 3e
       0.08838698 -0.054622386 0.14408278 0.28053606
000160 17 d3 4a be 6c f5 ec bd 8f 97 7d 3e 28 2f 8d 3e
       -0.19807087 -0.11570248 0.24764846 0.2757504
000170 94 60 af 3e 11 2d 0e 3d b4 a0 29 bd c4 c1 78 3e
       0.3425337 0.034710947 -0.041413024 0.24292666
000180 c9 3f bc bd bd b4 14 3e 9c 68 5e 3e 7a a5 32 3e
       -0.091918536 0.14522071 0.21719593 0.17445937
000190 c8 6d 11 be a2 f4 19 be 20 6f 21 3e 37 41 16 3e
       -0.14202034 -0.15034726 0.15765047 0.14673315
0001a0 e6 a4 64 be 9d ed 78 3e dc 51 2a 3e b4 5b aa be
       -0.22328529 0.24309392 0.1663279 -0.3327309
0001b0 94 aa 5f bd 89 3e 53 be 2b bd f3 3c ee 53 2c be
       -0.054606035 -0.20629324 0.029753288 -0.16828892
0001c0 34 d6 d2 bd 86 22 8a be 3b 11 0d 3e 39 34 01 be
       -0.10294762 -0.26979464 0.13776104 -0.12617578
0001d0 95 b7 7b be 3f 31 ae be 97 e4 57 3d bf 0c 6f be
       -0.2458175 -0.34021947 0.052708235 -0.23344706
0001e0 97 46 a8 be 5a 28 29 be bc c1 13 3d c7 81 3c ba
       -0.32866356 -0.16519299 0.03607343 -0.0007190969
0001f0 87 b4 a2 3e 1b c7 14 be a3 b0 01 3e 67 ff 8a 3e
       0.31778356 -0.14529078 0.12665038 0.27147982
000200 98 ff fc 3d 73 3d ab 3e 6e ea ae 3d 21 68 27 be
       0.12353438 0.3344532 0.08540808 -0.16348316
000210 92 fa a4 3d b2 db 1b 3d eb 3c 7f 3e 7f 10 a2 3e
       0.08055605 0.038051315 0.24925582 0.3165321
000220 1d 89 5b 3e eb 1d 3e 3e f3 d5 64 bc 01 dc 9a 3e
       0.21439023 0.185661 -0.013967025 0.30245975
000230 38 40 87 3c 48 55 e8 bd 87 38 9d 3d 66 25 33 3e
       0.016510114 -0.11344391 0.07676797 0.17494735
000240 a2 90 49 3e a1 17 8f be d9 1b 80 3e 92 08 e7 3d
       0.1968408 -0.27947715 0.25021246 0.112809315
000250 7a 9c a3 3d 13 97 18 3e 80 77 2f be ba 46 82 3e
       0.0798883 0.1490138 -0.1713543 0.25444585
000260 a9 88 81 3e bf 68 83 be 35 5f 5c be 41 fa 2a be
       0.25299576 -0.25665852 -0.21520694 -0.16697027
000270 90 7f 36 3e 81 50 56 bd d6 67 ce bd cc 64 6c be
       0.17822099 -0.05232287 -0.10078399 -0.23085326
000280 44 67 93 3e fd 08 40 3e 45 f3 2d bc 25 e0 17 be
       0.28789723 0.18753429 -0.010617082 -0.14831598
000290 9a 20 d9 3d 09 34 5c 3e 1f 4a 2c 3e 80 2a 71 3e
       0.106019214 0.21504225 0.1682515 0.23551369
0002a0 7c c9 a3 be ea 34 4d bd dd 11 15 bd 07 17 85 3e
       -0.31989658 -0.05009929 -0.03639399 0.2599413
0002b0 db ee 78 be de 81 7a be e7 b9 66 be 32 c0 ee 3d
       -0.24309866 -0.24463603 -0.22531854 0.11657752
0002c0 c6 bb 92 3e b5 ae b2 3d 2a f8 a1 3d 0c 21 2b be
       0.28658885 0.08724729 0.07908662 -0.16711825
0002d0 74 67 34 3d 68 c5 7d 3e a5 27 cf 3d 60 a2 f8 3d
       0.044043973 0.24782336 0.101149835 0.121403456
0002e0 d5 17 7d 3e 27 28 a0 3d fb d1 b2 be cb 21 66 be
       0.24716122 0.078201585 -0.34925827 -0.22473828
0002f0 09 cc 30 be d4 08 71 3e 26 41 5e 3e 60 8e 6f be
       -0.17265333 0.23538524 0.2170454 -0.23394156
000300 78 16 05 be da fb 86 be 35 7f 3a 3e 18 ec d9 3d
       -0.12996852 -0.26364022 0.18212588 0.106407344
000310 dd 2a f2 bd a8 a2 5d be 92 3e 33 3e 80 8d 9a 3e
       -0.11824582 -0.2164408 0.17504337 0.3018608
000320 dc e0 10 3d 68 e5 36 3e cc 2a 93 3a 54 14 51 3e
       0.035370693 0.17860949 0.0011227964 0.20417911
000330 e9 a8 95 bd 71 45 6e ba f6 26 3b 3e c7 99 57 3d
       -0.07307608 -0.0009089327 0.18276581 0.052636888
000340 92 1d 84 3d e5 d3 c6 3b e4 77 b8 bd 19 31 3c 3e
       0.064509526 0.0060677403 -0.09007242 0.18378104
000350 a4 51 f4 bc 1c c2 0d be cd 1d 96 be 2e 68 a6 3d
       -0.029824086 -0.13843578 -0.2931961 0.081253394
000360 25 35 36 3e 70 e8 26 3e 86 77 ed bd 5a 60 29 bd
       0.1779371 0.16299605 -0.11595063 -0.041351654
000370 53 5f d2 ba 01 31 25 3c 85 44 9a 3e 24 a2 5c 3e
       -0.0016050137 0.010082484 0.301304 0.21546227
000380 26 27 de 3d 73 e2 4c be 23 68 34 be 31 c6 6b 3e
       0.10847311 -0.20008259 -0.1761785 0.23024823
000390 34 c6 d2 3d ec f7 3b be b7 14 50 bd 17 92 5e 3d
       0.102917105 -0.18356293 -0.050801005 0.05433854
0003a0 01 c2 20 be ec 35 7f be cc a4 e6 bd ab e9 99 be
       -0.15699007 -0.24922913 -0.11261901 -0.30061087
0003b0 6a 32 4c 3e 71 3a 50 be 00 25 91 be 69 ea 5e 3d
       0.19941106 -0.20334794 -0.2834854 0.05442277
0003c0 01 85 82 bd 0a 69 11 3e 4d 71 8e 3e 13 43 24 3d
       -0.06373025 0.14200225 0.27820817 0.04010303
0003d0 46 38 4b bb 13 b1 7a 3d 61 88 48 be 77 ea 36 bd
       -0.0031008883 0.061204027 -0.19583274 -0.044657197
0003e0 f7 d2 8e bd 2c 28 84 be 1f 27 84 3d 87 ba 75 3e
       -0.06973832 -0.258119 0.06452774 0.23996936
0003f0 1f 9e 27 3e a3 74 02 3e 93 72 bb bd fa de 00 bd
       0.16368912 0.12739806 -0.09152713 -0.031462647

conv_1.bias f4 [32]
000000 6c 54 37 3e 53 2c 07 3b bb e8 a2 3e 85 78 b5 bc
       0.17903298 0.0020625785 0.31818184 -0.022152195
000010 97 7a a3 3e f5 73 92 be 44 6f a0 be 93 d1 4b be
       0.31929466 -0.28604093 -0.3133489 -0.19904165
000020 af 74 45 3d 9f b3 bf bd 43 ae 36 3e 54 c8 06 3e
       0.04820698 -0.09360432 0.17839913 0.13162357
000030 bf 3f 6b be 41 39 04 be ef d1 c9 3d f7 e5 8d 3e
       -0.22973536 -0.12912466 0.09854495 0.27714512
000040 06 a2 ad 3e 01 4d 76 3e e4 1a 2f 3e c0 7c 33 be
       0.33912677 0.24052812 0.17100102 -0.17528057
000050 f3 70 0a bd fd cb 8b bb 54 c7 00 3e 6c 54 8a 3e
       -0.033799123 -0.0042662607 0.12576038 0.27017534
000060 cd fb 0c 3c 1c a5 ee bc 0f 9e 3d be 49 94 ed 3c
       0.008604956 -0.029131465 -0.18517326 0.029001372
000070 63 a4 4a 3e 8d 28 36 3d 9d f9 72 bd 9a 83 8c 3e
       0.19789271 0.044472266 -0.05932008 0.27444154

conv_2.weight f4 [64, 32, 3, 3]
000000 0c b3 64 bd 2c 86 82 3c a8 fa 03 bd c2 f4 36 3d
       -0.055834815 0.015933119 -0.032221466 0.044667013
000010 f3 04 39 bd 5e 56 97 3a d3 17 2f bd 63 23 62 3c
       -0.045170736 0.0011546125 -0.04274733 0.013802382
000020 46 36 76 bc 5a 42 ce 3b 23 21 f1 bc b6 26 25 bd
       -0.015027588 0.006294531 -0.029434746 -0.04032012
000030 14 18 50 bd 6e 42 16 3d 15 4a 9b 3c e7 4d 4d bd
       -0.050804213 0.036684446 0.018956224 -0.05012312
000040 ad 38 18 3c ae ff 18 bc a4 cc 2c bd 20 61 0b 3c
       0.009290856 -0.009338303 -0.042187348 0.008507043
000050 93 75 f8 bb f7 2a 50 3d 08 dc 34 bd d5 41 f7 bb
       -0.0075823753 0.050822224 -0.04415515 -0.0075456896
000060 21 b8 cb 3c b6 bf a6 3a b2 6c 04 bd 06 28 5b bd
       0.024868073 0.0012721929 -0.032330222 -0.053504966
000070 17 c3 8e bd eb 13 67 bd f8 96 1c 3d e8 5b 6c bd
       -0.06970804 -0.05641548 0.038229913 -0.057704836
000080 18 0b f3 3c 91 b9 22 bd e7 98 0a 3d 49 72 0e bd
       0.029668376 -0.03972775 0.033837225 -0.03477696
000090 d3 ff 03 3c d4 66 1a bd e3 7e 30 bd 46 5b d5 3c
       0.008056599 -0.03769572 -0.04308976 0.0260445
0000a0 47 f8 35 3d 94 48 22 3d 7b d7 4a 3d 8e 34 72 bd
       0.04442623 0.039619997 0.049521904 -0.05913215
0000b0 96 bb 64 bd 61 1f 7b 3c b6 92 b5 ba b9 ca 31 3a
       -0.05584296 0.0153273055 -0.0013852927 0.0006782222
0000c0 48 b4 a5 3c 20 5a 30 bd 06 fc 7b 3d cf 77 84 bd
       0.020227566 -0.0430547 0.061519645 -0.06468164
0000d0 14 e6 1a 3d fe 07 2c bd 9c 54 0e bd ce 57 92 bd
       0.037817076 -0.04199981 -0.03474866 -0.07145654
0000e0 97 4c 0e bd 52 59 23 bc 5f 65 d5 3c f3 b9 74 3d
       -0.03474101 -0.009970026 0.026049314 0.059747647
0000f0 de 17 83 bd 0a 6c 26 bc 26 0c 8e bd 40 53 21 3c
       -0.06401037 -0.010157594 -0.06935911 0.0098465085
000100 9e a8 e5 3c a0 8a 36 bd ab db 94 bc 61 6f 97 3c
       0.028034505 -0.044565797 -0.018171152 0.018485727
000110 a9 7a 0a 3d b5 56 5d bd 40 36 20 3d 32 24 ff bc
       0.033808384 -0.05403777 0.039114237 -0.031145189
000120 24 cb bc 3c 1e 5b 98 bc 5f 87 41 bc a2 ec c3 3b
       0.023046084 -0.018598136 -0.01181206 0.0059791366
000130 08 a3 de bc 7d db 02 3d 34 ef 20 bd cd 38 90 bd
       -0.027177349 0.0319476 -0.039290622 -0.07042084
000140 a0 29 66 3b 23 47 46 3d 95 d7 af 3c 38 f2 43 bc
       0.0035120025 0.048407685 0.021465102 -0.011959605
000150 f2 dd 29 3d ab 8c ef bb ae ae 8a bb 48 f2 53 bd
       0.04147143 -0.00731047 -0.004232249 -0.05174473
000160 66 03 30 3d c0 dd 06 3d 3d bf d6 3c 7b a8 3f 3c
       0.04297199 0.03292632 0.026214236 0.011697884
000170 1b cd 67 bd ec ae a0 3c f6 e5 5f bd 7c 21 6b bc
       -0.05659209 0.01961466 -0.054662667 -0.014351245
000180 41 08 45 bd b5 fd 45 bd 82 69 16 3d dc 00 39 3d
       -0.048103575 -0.048337657 0.036721714 0.045166835
000190 a6 99 99 3c 4c 49 6c bd f9 c3 cc bc 5a ee b0 bc
       0.018750023 -0.05768709 -0.02499579 -0.02159803
0001a0 f6 90 e3 3c 46 2c 95 bc 14 e7 cc bc b8 a9 51 bd
       0.027779084 -0.018209588 -0.02501253 -0.051187247
0001b0 91 93 22 bd 2d e1 ea 3b ad 67 69 bb 62 24 4e bd
       -0.03969151 0.0071679563 -0.0035614774 -0.050327666
0001c0 68 30 04 3d 50 7c cd 3c ce 1c b5 ba e7 2a cb bc
       0.032272726 0.02508369 -0.0013817789 -0.02480073
0001d0 c2 d1 39 3d fc 8b 05 bd 29 ac 16 bd e7 04 48 bc
       0.045366056 -0.032604203 -0.03678528 -0.0122082
0001e0 d9 9c 8b bd ad bb dc bc ce ea 3c 3c b6 a2 7f 3d
       -0.06817026 -0.02694496 0.011530591 0.062411033
0001f0 97 a7 36 bd 8c 22 47 bc ee 6e 77 bd dd 57 50 3d
       -0.04459342 -0.012154233 -0.060408525 0.050865043
000200 db 26 14 bd 04 d9 0b bc 25 99 73 3b d1 64 5e bc
       -0.036169868 -0.008535627 0.0037170139 -0.013573841
000210 f5 66 2e bd dd 95 92 3c 05 b8 b4 3c 4b 54 e0 bc
       -0.042578656 0.017893726 0.022060404 -0.027383944
000220 f1 d2 20 3d b8 a1 bc bc a3 02 60 3d ec 1c 1e 3d
       0.03926367 -0.023026332 0.054690015 0.0386018
000230 ac 82 7e bd 28 03 5a bd bb 7b 24 bd e1 50 d7 bc
       -0.062136337 -0.053225666 -0.04015706 -0.026283683
000240 df d5 54 bd 94 8d 96 3a d7 10 09 bc e7 b8 f8 3c
       -0.051961776 0.0011486285 -0.008365831 0.030361606
000250 ab 37 c8 bc 7c b9 87 bd f4 d7 3f 3d ba a3 b4 3c
       -0.024440607 -0.06627175 0.04683681 0.022050727
000260 cd 82 d3 bc 56 6b 62 3c f9 5e 38 bc 22 3a 44 3d
       -0.025819207 0.013819536 -0.011253112 0.047907002
000270 23 05 5d bd 19 33 1f bd 7f 67 28 3d 92 2f 0d 3d
       -0.053959977 -0.03886709 0.041114327 0.034469195
000280 c7 6f 53 bd 95 75 4c 3d e3 e1 25 bd 2a 3c c7 3c
       -0.05162027 0.049916822 -0.040498625 0.02432068
000290 d3 a2 12 3c 01 06 39 bd 46 dd 9c 3c bb d8 53 bc
       0.008949953 -0.04517174 0.01914848 -0.012930091
0002a0 ba ab a8 bb fb eb 11 3d 14 ec eb 3c 4a 50 fb bc
       -0.0051474245 0.03562544 0.028799094 -0.030677933
0002b0 28 fe 66 bd d9 ca 9a 3c 2d b5 85 bc 89 ec 49 3d
       -0.056394726 0.018895553 -0.016321743 0.049297843
0002c0 e6 d7 b0 3b 3c 44 62 bd d3 9f 20 bc 1b ed 77 bd
       0.005396831 -0.055240855 -0.00980373 -0.060528856
0002d0 1d b2 c7 3c 40 f1 8f bd ad f9 a6 3b 61 d5 7b 3d
       0.024376923 -0.07028437 0.0050956816 0.06148279
0002e0 8d 7e 56 3d c7 14 ce 3c 8e 2f cb 3b cb c2 7a bd
       0.052366782 0.025156392 0.0062007373 -0.061220925
0002f0 98 6e ee 3c e5 9c 86 bd 33 71 f4 bb e0 bf d7 3b
       0.02910547 -0.06572894 -0.0074597835 0.0065841526
000300 72 ef 0d bc 02 1b a9 bc ee 11 3e bc 6a 50 04 bd
       -0.008663045 -0.020642761 -0.011600954 -0.03230325
000310 59 e5 cd 3c 1b 1f 30 3c 3f e0 9f bd ea ac 80 b9
       0.025133776 0.010749604 -0.078064434 -0.00024542894
000320 ab c8 1c bd 72 a8 d7 3c c8 8c e7 bc 34 d8 4f 3d
       -0.03827731 0.026325438 -0.028265372 0.050743297
000330 98 c9 18 bd 0b 68 c6 bb ab b7 02 bd 6e 65 fe 3a
       -0.03730163 -0.0060548834 -0.03191344 0.001940889
000340 57 4d 28 3d 87 a9 82 bd 89 50 e2 39 42 1f 47 3d
       0.041089382 -0.06379991 0.00043166082 0.048613794
000350 76 c1 1e 3c 0e 15 12 3a ed cf 5a 3d c9 b7 60 bd
       0.009689679 0.00055725954 0.05342095 -0.05486277
000360 b1 ce 4d bd b6 ac 3a bd 3d 58 a4 bc 47 82 e7 bb
       -0.050245944 -0.045574866 -0.020061607 -0.007065091
000370 77 08 9f 3b 17 61 1f 3b 22 fd 41 3d 05 46 a5 bc
       0.004853304 0.0024319345 0.047360547 -0.02017499
000380 8f 42 4c 3c 51 2d 6e bd d7 dc d8 3c 00 cf 7e bd
       0.012467041 -0.058148686 0.026472492 -0.06220913
000390 be 68 39 3c 5d ba 18 bc 99 67 84 bc 5a 77 fe bb
       0.011316476 -0.009321776 -0.01616268 -0.0077656927
0003a0 39 64 00 3d 32 76 3e 3d 60 b6 82 3c 09 6f e0 3c
       0.03134558 0.04649944 0.015956104 0.027396696
0003b0 18 f2 dd bc f9 0d da 3c f6 30 db 3c 53 78 09 3d
       -0.027092978 0.02661799 0.026756745 0.033562016
0003c0 c5 d5 ac bc 85 47 18 bd 58 28 07 bd 17 f3 e7 3c
       -0.021098027 -0.03717758 -0.03299746 0.028314156
0003d0 68 9c 9c bc 88 31 7c bd 6d e0 90 3c 03 95 ef ba
       -0.019117549 -0.061570674 0.01768514 -0.0018278662
0003e0 d8 1a 4c 3c 10 a7 25 3d 51 3d 5f bd 92 be 7b bd
       0.012457572 0.040442526 -0.054501835 -0.06146104
0003f0 c2 dc d5 bc da d4 89 3c 7d 5a 80 bd 79 1d 04 bd
       -0.026106242 0.016825128 -0.06267259 -0.03225467

conv_2.bias f4 [64]
000000 bd 49 e4 3c 27 e2 cc 3c 86 df c5 39 f2 8e 92 3c
       0.027867192 0.025010182 0.00037741306 0.017890427
000010 82 c7 12 3d f9 81 27 3d 14 59 07 bd 3e 2c 36 bc
       0.035834797 0.040895436 -0.033043936 -0.011118947
000020 d2 cc ef bc f6 41 b9 3c 43 c2 2f 3d 33 37 94 bb
       -0.02927247 0.02261446 0.04290987 -0.004523182
000030 27 89 ce 3c b7 53 f1 3c 2b 3c 25 bd 6b ed af 3c
       0.025211884 0.029458864 -0.040340584 0.021475514
000040 6a f4 d2 bc 11 a4 83 bd 0a b2 94 3d ba bf c2 3b
       -0.025751311 -0.064277776 0.07260521 0.0059432657
000050 52 c8 23 bc 44 04 7a bc 38 e6 80 bc 90 b3 9b 3b
       -0.009996491 -0.015259806 -0.015734777 0.00475163
000060 eb 39 a6 bc e0 00 dc b9 cf ec 4c 3d c0 c5 63 bc
       -0.02029129 -0.00041962322 0.050030526 -0.013902128
000070 38 54 4f bd b4 f0 d6 3c e8 ce 6a 3d 95 42 44 3d
       -0.050617427 0.026237823 0.057326227 0.04791506
000080 48 c0 4d 3d f0 46 e2 bb dc a1 35 bd b6 7e 14 bd
       0.0502322 -0.006905429 -0.044343814 -0.036253653
000090 c4 3a e6 3c de 22 3e 3d f4 e8 91 bc f1 8b d7 bc
       0.028104194 0.04641997 -0.017811276 -0.026311846
0000a0 2a e1 12 bd 2a 12 0b 3d 98 fe 80 bc 11 b0 83 3d
       -0.035859264 0.03395287 -0.0157464 0.064300664
0000b0 37 64 2b bd 6a f6 8c 3d 03 2b 52 3d f5 17 1e 3d
       -0.04184362 0.06882937 0.05131055 0.038597066
0000c0 be 41 bd 3c 68 7f 48 3d 66 19 89 3b e2 fc 7b 3d
       0.023102637 0.04894963 0.004183936 0.061520465
0000d0 20 be 6b 3c 86 8c 0e bd 93 5a 2e bd 3b 88 22 3d
       0.014388591 -0.034801982 -0.042566847 0.0396807
0000e0 a4 00 16 3c 3d 10 1d 3c ff 51 81 3d 30 98 54 3d
       0.009155426 0.009586391 0.06314468 0.05190295
0000f0 84 81 35 bc 7a f2 80 3d 9c 81 25 3d dc 79 8b 3d
       -0.011078242 0.06296249 0.04040681 0.06810352

fc1_layer.weight f4 [256, 384]
000000 e0 29 9e ba 68 46 69 3c a8 04 b8 3c 82 2d 22 bd
       -0.0012066923 0.014237978 0.022463158 -0.03959418
000010 78 5d 6d bc 94 43 e5 3c a0 71 22 bd d0 d9 76 3c
       -0.014487617 0.027986325 -0.039659142 0.015066579
000020 87 93 3c bd 80 2d ec 3c 03 e8 ce bc 0d df af bc
       -0.04603913 0.02883029 -0.025257116 -0.021468664
000030 00 e2 96 ba 28 d8 80 bc 82 86 2f bd 7a c6 38 3d
       -0.0011511445 -0.015728071 -0.042852886 0.045111157
000040 00 1c 4c bd 2d 63 fc bc 17 ea 3c bd a4 33 e0 bc
       -0.04983139 -0.03080901 -0.046121683 -0.027368374
000050 8c d9 a4 3c dc 83 44 bd 00 39 7c ba f4 89 13 3c
       0.020123266 -0.047977313 -0.0009621531 0.009005059
000060 ce cb 12 3d 07 f7 42 bd 8e 97 4c bd e0 06 06 bc
       0.035838895 -0.047598865 -0.04994922 -0.00818035
000070 91 94 d1 bc 7e 5b 31 3d 60 9f de bc 4d 2c d4 bc
       -0.025583537 0.043300144 -0.027175605 -0.02590003
000080 08 94 c8 bb c4 d1 9d 3c a4 47 8f bc f4 42 4a 3d
       -0.0061211623 0.019265063 -0.017490216 0.049380258
000090 3c 13 4c 3d 9c 95 50 bc 2e 99 50 bd 28 57 1b bd
       0.04982303 -0.012730982 -0.050927334 -0.037924916
0000a0 08 d6 4b 3d c0 fd 7c ba 10 64 5d 3c db 62 1a bd
       0.049764663 -0.0009650849 0.013512626 -0.037691932
0000b0 cf 2e 42 bd be c3 1c 3d 30 f5 9a bb 36 2a 01 bd
       -0.04740792 0.03827261 -0.0047289357 -0.031534396
0000c0 1c 60 92 3c a4 e2 1f 3d 50 97 6a bc e4 40 3a 3d
       0.017868094 0.0390345 -0.014318302 0.04547204
0000d0 50 db 29 bc 98 10 c2 3b d5 27 2a bd 67 e0 20 bd
       -0.01036723 0.0059223883 -0.041541893 -0.039276507
0000e0 00 73 3d bd 09 44 d2 bc d0 cd 21 bb 58 13 23 3d
       -0.04625225 -0.025667207 -0.0024689324 0.03981337
0000f0 ba 6f 2f bd e4 e5 8f 3c 8c f7 da 3c de ed 2e bd
       -0.04283116 0.017565675 0.026729368 -0.042707317
000100 17 5b fb bc 28 c8 7b 3c ec 44 1a 3d dd 05 31 bd
       -0.030683083 0.015367545 0.037663385 -0.043218482
000110 c1 e0 2d bd 3c 73 8a 3c 00 28 ca 3b 2c 93 f9 3c
       -0.04245067 0.016900651 0.006169319 0.030465685
000120 2c af 4a 3d 00 5b fd 3c 30 d6 a7 3c fc a0 23 3d
       0.049483463 0.030927181 0.020487875 0.03994845
000130 4b db ce bc 62 ac 2f bd 5c dc 0e 3d 70 97 28 3d
       -0.025251051 -0.042889006 0.03487812 0.041160047
000140 28 27 8f 3c b0 cd ff 3c 78 87 0f bd 58 23 61 3c
       0.017474726 0.03122601 -0.035041302 0.013741337
000150 7c c1 1d bd c8 fe 5d 3c 00 48 96 b7 08 ac 42 3d
       -0.0385146 0.013549514 -1.7914921e-05 0.047527343
000160 d3 cf d2 bc a8 c1 d5 bb 08 ed 4f 3c 3e d3 1c bd
       -0.025733864 -0.0065233298 0.01269079 -0.038287394
000170 1e 14 4b bd 4d 34 bd bc 90 bf 01 3d 5c 52 e3 3c
       -0.049579732 -0.023096228 0.03167683 0.027749233
000180 e8 46 be bb 40 85 2b 3b b4 3b 1e 3d a0 9f bb ba
       -0.0058067925 0.0026171952 0.038631156 -0.001431454
000190 10 16 35 3d 68 56 1c bd 65 49 a4 bc 40 97 91 ba
       0.044210494 -0.03816834 -0.020054528 -0.0011107698
0001a0 49 f6 0a bd 14 c0 85 bc f8 18 ec 3c 8e 7f 9a bc
       -0.033926282 -0.016326942 0.0288205 -0.018859651
0001b0 7e 21 4b 3d 78 a1 9a bc 6c c2 24 bd b3 48 24 bd
       0.049592488 -0.018875822 -0.040224478 -0.040108394
0001c0 de 15 a0 bc d9 72 ff bc 1a dc 39 bd 48 00 01 bd
       -0.019541677 -0.031182693 -0.04537592 -0.03149441
0001d0 aa 9c 8a bc d8 97 e4 3c 00 4d 3a 39 7a a2 3b bd
       -0.016920406 0.027904436 0.00017767027 -0.045809247
0001e0 30 f2 54 bb 04 f7 c6 3c 4c b5 0f bc 4e 94 8b bc
       -0.0032492988 0.024287708 -0.008771252 -0.01703849
0001f0 e4 cf 09 3d 20 7c a2 3b c0 43 2f ba 3a 4e b4 bc
       0.033645526 0.0049586445 -0.0006685816 -0.022009958
000200 a5 27 ef bc b5 9b 37 bd 8a 32 4c 3d 88 e8 3f 3d
       -0.029193709 -0.04482623 0.049852885 0.04685262
000210 03 05 25 bd fa 1e 11 bd 91 bb df bc 00 e2 09 3a
       -0.040287983 -0.035429932 -0.027311118 0.0005259812
000220 70 78 b2 3b b6 08 33 bd 9b 09 ed bc da 4d 09 3d
       0.005446486 -0.04370948 -0.028935244 0.03352151
000230 b0 24 df 3c 8b f1 bb bc a8 b1 37 bc d4 d3 3e bd
       0.027239174 -0.022942325 -0.01121179 -0.046588734
000240 8c 34 2c 3d f4 9f 91 3c 43 cb 0e bd 74 72 43 3d
       0.0420423 0.017776467 -0.034861814 0.047716573
000250 d0 50 36 3c d4 f0 ec 3c ce 0e 1d bd 58 0a 91 3c
       0.011127666 0.02892343 -0.038344197 0.017705128
000260 89 58 11 bd 80 ac ee 3a 27 59 06 bd 88 5b 27 3d
       -0.035484824 0.0018209368 -0.032799866 0.040858775
000270 30 4a c9 3b dc 39 af 3c 90 ef 81 3b 56 7e 24 3d
       0.006142877 0.021389894 0.0039653257 0.040159546
000280 a2 c3 0e 3d 60 73 e1 3c bc 32 48 3d a0 cf d9 3b
       0.03485454 0.027520835 0.04887651 0.0066470653
000290 38 af 68 3c a8 6e eb bb 20 cf 01 3c 32 8c 02 bd
       0.014201932 -0.007184822 0.007922918 -0.031871982
0002a0 e0 b4 19 bd 46 25 18 3d c0 99 3a bb 29 d8 42 bd
       -0.03752601 0.03714492 -0.002847299 -0.047569428
0002b0 f0 cc 1c bc 0c 31 c9 3c a0 c3 da 3c 7d 85 0a bd
       -0.009570345 0.02455952 0.02670461 -0.03381871
0002c0 cc eb 46 bd 18 65 f5 3c b6 3f 33 bd 90 21 26 bb
       -0.048564717 0.029955432 -0.04376193 -0.0025349595
0002d0 4d 34 f9 bc 98 12 dd bc 70 9f 00 3d c4 26 21 bc
       -0.030420447 -0.026986405 0.03140205 -0.009835903
0002e0 a8 79 33 3d 30 28 1f bb 98 00 1e bd a4 c4 42 bd
       0.043817192 -0.0024285428 -0.038574785 -0.047550812
0002f0 00 d5 7c 3c f6 c3 3a bd f4 1c 92 3c 3f 31 e8 bc
       0.0154316425 -0.04559704 0.017836072 -0.028343795
000300 81 dc 37 bd 5c 4e 3e 3d d0 00 0f 3d 20 01 ba bb
       -0.044888023 0.046461448 0.034912884 -0.0056764036
000310 a4 f7 37 bd 48 df d7 3c f0 c5 2a 3c 18 68 15 bd
       -0.044913903 0.026351586 0.010423169 -0.036476225
000320 6c de 30 3d 1e ef 05 bd 50 0d 03 bb 6b 6f b5 bc
       0.043180868 -0.032698743 -0.0019996949 -0.022147855
000330 38 eb 97 3c 30 27 69 3c 64 26 9a bc 8d f1 cb bc
       0.018544778 0.014230534 -0.018817134 -0.024895454
000340 08 85 ee 3c e2 26 44 3d f0 35 35 3d 2a e8 35 3d
       0.029116169 0.047888644 0.044240892 0.044410862
000350 54 ba 83 3c e3 87 b1 bc 84 f7 a1 3c 66 56 4e bd
       0.01608006 -0.021671241 0.019771345 -0.050375365
000360 07 8f a9 bc 64 21 84 3c 00 d8 81 bc dc d4 d2 3c
       -0.020698084 0.016129203 -0.015850067 0.025736265
000370 88 74 d9 3b ed dd c2 bc bb 63 47 bd 14 e6 ec 3c
       0.006636206 -0.023787463 -0.048679095 0.028918304
000380 00 c1 77 b9 80 a5 da bb 9c 91 0b bd b0 4b 1d bb
       -0.00023627654 -0.006672561 -0.03407441 -0.0024001412
000390 78 4b 0c 3c 40 6c e6 3c b0 65 71 3b fc a9 f7 bc
       0.008562915 0.02812779 0.0036834292 -0.030232422
0003a0 d0 ee 70 bc 90 96 88 bb 20 45 3e bc 00 c0 e9 3c
       -0.014705375 -0.004168339 -0.01161316 0.028533936
0003b0 fa c4 8e bc fe 3d 1f bd 74 f3 89 bc e8 ec 9a 3c
       -0.01742791 -0.03887748 -0.01683972 0.018911794
0003c0 14 0d 18 3d 7e e6 34 3d 50 b7 35 3c 24 64 31 3d
       0.037121847 0.044165127 0.011091068 0.043308392
0003d0 0b 96 f6 bc aa 61 0e bd d0 9a 23 bb 28 65 49 bd
       -0.030100843 -0.03476111 -0.0024964102 -0.049168736
0003e0 08 fd 30 bd 98 ff 59 bc 73 95 b0 bc 80 19 1f 3d
       -0.04321006 -0.013305567 -0.021555638 0.038842678
0003f0 be c0 a9 bc a8 f0 80 3c c9 1f 42 bd 24 cd 12 3c
       -0.02072179 0.015739754 -0.047393594 0.008960042

fc1_layer.bias f4 [256]
000000 96 23 0a bd c5 e4 3b 3c b8 99 96 3c 4c d5 b1 3c
       -0.033725344 0.011468117 0.018383846 0.021708153
000010 dc 52 a0 bc 54 a2 26 bd 53 e7 85 bc ae 33 d8 3c
       -0.01957076 -0.040682152 -0.016345656 0.02639183
000020 92 ae 6a bc a2 bb bf bc f8 27 36 3d 24 33 13 3d
       -0.014323847 -0.0234049 0.04447171 0.035937443
000030 d8 30 76 bd 3d 80 d8 bc c5 0b 5a bc ab 8c 8c 3c
       -0.060105175 -0.026428336 -0.01330847 0.01715692
000040 ce 2d 29 3c a4 bd 26 bd 75 ea 29 bd ff e8 4c 3d
       0.010325862 -0.0407082 -0.04148336 0.05002689
000050 8a a5 d8 3b 47 1f c6 3c ea 90 79 bd e6 67 15 3d
       0.0066115307 0.024184836 -0.060929216 0.03647604
000060 ef b8 ef 3c 71 da 2c bd ad 88 91 3c 16 d2 0d bc
       0.029262988 -0.04220051 0.017765367 -0.008656045
000070 62 80 88 bc e2 f4 3c bd 42 14 c6 3c b5 aa 10 bd
       -0.01666278 -0.046131976 0.024179582 -0.03531905
000080 b8 6e 04 bc 54 cd 8a bc 98 1e 58 3d ae 67 82 bd
       -0.008083038 -0.016943611 0.05276355 -0.063674316
000090 75 3e 99 bc 1e 63 61 bc f4 22 18 bc 7c 0f ba bc
       -0.01870654 -0.013756542 -0.009285677 -0.022712462
0000a0 9d fc f8 3c de 3d 1d 3d 01 54 96 bb 30 e7 08 bd
       0.030393893 0.03838908 -0.0045876508 -0.033423603
0000b0 b9 b0 32 bd a1 cd 96 3d a1 ec 07 bd 1c 04 b9 bc
       -0.043625567 0.07363439 -0.03318465 -0.022584967
0000c0 cf b2 6d bd e7 99 ef bb 65 6e d2 bc b7 8a 8a b9
       -0.058031853 -0.0073120478 -0.025687406 -0.00026424762
0000d0 e0 dd 99 3d 8e c5 2a bd 68 df 10 bd d2 fb 0a bd
       0.075130224 -0.04169231 -0.035369307 -0.03393156
0000e0 e5 2e 2f 3d f4 f6 76 bc 5f 41 89 3d 4f f3 47 3c
       0.04276933 -0.015073527 0.06701922 0.012204005
0000f0 64 ab 2d bc 03 ad 8e bc ca dc 49 3d 59 54 7e 3c
       -0.010599945 -0.017416483 0.049282826 0.01552304
000100 3c e7 d6 3c 77 f2 32 bd 55 c8 0a 3c 34 c7 d9 3b
       0.026233308 -0.043688264 0.008470614 0.0066460613
000110 d0 ac 67 3d 44 fd a7 3c 20 46 fd bc 21 1c 49 3d
       0.05656129 0.020506509 -0.030917227 0.04909909
000120 01 c7 bc 3b a4 9e b5 bc c0 be 28 bd cd 4d ef bb
       0.005761028 -0.022170372 -0.04119754 -0.0073029757
000130 95 f6 e0 bc d0 34 1f 3c 22 3e e2 bb 38 df 24 3c
       -0.02746133 0.009717181 -0.0069043795 0.010062985
000140 6a 5b ab 3b 64 67 16 bd eb f9 b3 bc 8c cf eb bb
       0.0052294033 -0.036719695 -0.021969756 -0.0071963724
000150 00 d1 a1 3c 2a ba 89 3c a9 97 9c 3c 64 48 40 bd
       0.01975298 0.016812403 0.019115286 -0.046944037
000160 f9 70 d9 bb c9 90 aa 3c 81 e5 a0 bc 0e 62 89 bc
       -0.006635782 0.020820992 -0.019640686 -0.016770389
000170 63 54 ab 3b c1 86 46 3d 05 d8 1c bd e9 4c 89 bc
       0.0052285655 0.048468355 -0.03829195 -0.016760306
000180 62 d7 0a 3c d0 4d 65 bd 4e 34 0a bd a6 74 4e bd
       0.008474203 -0.05598241 -0.033741288 -0.050404213
000190 31 e6 58 3d 4c 2a ab bb 4f bf 36 3d a3 d2 90 bc
       0.052953903 -0.005223548 0.04461604 -0.017678564
0001a0 10 73 ca bb 18 3c 90 3d 01 72 d1 bc fd fb 1b 3c
       -0.0061782673 0.07042712 -0.025567057 0.009520528
0001b0 33 d7 02 3d f9 7b 30 bd db 47 a7 3c cb 22 eb bb
       0.03194351 -0.04308698 0.020420006 -0.0071757785
0001c0 e7 f4 7d 3c 71 c2 c2 3c c5 5c 84 3d 5d 68 d6 bb
       0.015500284 0.023774358 0.06463007 -0.006543203
0001d0 aa ce af 3c e7 29 85 3d ad d7 3d bd a3 26 f1 bc
       0.02146085 0.06502133 -0.046348263 -0.029437369
0001e0 c2 34 4d bc c4 62 22 3d 1b ff e7 bc 89 fe 1d 3d
       -0.0125247855 0.03964497 -0.028319886 0.03857282
0001f0 df 09 35 3d 8b 2d 9e 3c 4c ed c8 bc 9b 8c 3c bc
       0.044198867 0.019308826 -0.024527214 -0.011508132
000200 64 0b 28 3d 80 1e a1 bc 8c bb 90 3c 5b 93 41 3c
       0.041026488 -0.019667864 0.017667554 0.011814917
000210 26 a9 44 bd f7 c6 78 bd 7f 85 f9 bb ec bf 8e 3d
       -0.048012875 -0.060736623 -0.007614791 0.069702
000220 b5 21 af bb dc 54 09 bd e2 e2 38 bd 62 fa ea bc
       -0.0053445944 -0.033528194 -0.045138247 -0.028683845
000230 6e 0a 01 3d 15 16 92 3d e5 06 fb 3c 3a a1 98 3b
       0.031504087 0.07133118 0.030642936 0.0046578916
000240 da d9 01 3d 45 9f 0e bc 17 56 3a bd 9e 2a 0d bd
       0.0317019 -0.008704965 -0.045492258 -0.03446447
000250 7a b8 90 bc 1a 65 9c bb d7 1b 9e bc 87 8e f0 bb
       -0.01766609 -0.0047727944 -0.019300384 -0.0073412093
000260 0f 78 8b 3c d6 d2 4b 3d 30 05 8e bc a9 1b b9 3b
       0.017025022 0.049761616 -0.017336458 0.0056490493
000270 6c a3 81 3d 81 23 ae bc 97 8e b7 bb fc 19 2e bd
       0.063299984 -0.021257164 -0.005601715 -0.04250525
000280 01 7c 11 bd 68 31 8b 3b 66 21 27 3d f1 4a 86 bc
       -0.03551865 0.004247833 0.040803336 -0.016393157
000290 47 c0 04 bd 3e b8 6e 3d 69 0d 0d bc af c6 d5 bc
       -0.032409932 0.058281176 -0.008609154 -0.026095716
0002a0 61 b5 6c bd 39 5b 42 bc 47 23 d2 3c fe db 3e bd
       -0.057790164 -0.0118625695 0.025651587 -0.04659652
0002b0 1a d9 48 bd 76 67 fe bb 7b 25 9f 3d d3 3e bd bc
       -0.04903517 -0.0077637983 0.07770821 -0.023101246
0002c0 58 3c 4c bd 5d b8 0c 3d ec 19 53 bd a1 de f5 3c
       -0.049862236 0.03435551 -0.051538393 0.030013384
0002d0 fa fe f1 bb 88 b0 a9 3c 13 19 8f bc af 22 00 bd
       -0.007385132 0.02071406 -0.017468011 -0.031283077
0002e0 6a 13 14 3d 8c a6 57 bd 29 c1 50 3c 8f b7 57 39
       0.036151327 -0.052649066 0.0127413655 0.00020572379
0002f0 f7 ca e8 bc 88 7b dc bc 88 d8 70 bc cc d0 f1 bb
       -0.028417094 -0.026914373 -0.014700063 -0.007379627
000300 77 80 27 bd c5 4d c4 3d cf d7 94 bb f8 22 9f 3c
       -0.040893998 0.09585146 -0.004542328 0.019425854
000310 9f 0a 30 bd b4 be 50 bc 68 95 52 bd 45 29 ab 3c
       -0.04297888 -0.01274078 -0.051412016 0.020893702
000320 28 b4 31 bd 22 06 49 bd eb 96 61 bb c1 d3 5b bd
       -0.0433847 -0.049078114 -0.003442223 -0.05366874
000330 2d 5f 8b bc 06 b5 af bc 9f d8 96 3d 22 ea 66 bb
       -0.017013157 -0.021448623 0.07365536 -0.003523477
000340 ac 1c 4b 3b 30 b8 81 bc fa 16 2d 3d 21 83 02 3d
       0.0030992432 -0.015834898 0.04225824 0.031863336
000350 1b 83 3e bc 76 0c dc 3c dc 32 6f 3c 7b 48 68 bc
       -0.011627938 0.02686141 0.014599528 -0.014177437
000360 f5 ea af bc 90 45 fc 3c 0e af 98 3c e4 d3 ba 3c
       -0.02147434 0.030794889 0.01863816 0.022806115
000370 18 2c 2b 3d ff 88 af bc ef 4d 02 3d 3e 2e 73 bb
       0.041790098 -0.02142763 0.031812605 -0.003710642
000380 d2 b0 48 3c ca 32 51 3d 54 44 c3 bc 15 ac 03 bc
       0.0122491885 0.051073827 -0.023836292 -0.008036633
000390 69 8b 25 bd f7 24 59 bd b8 2f 5f bd 5a 61 63 bd
       -0.040416155 -0.053013768 -0.054488868 -0.055512764
0003a0 a9 fe 9d bc fb 30 38 3c 54 5a 9a 3c f3 64 0d 3d
       -0.01928647 0.011242147 0.0188419 0.0345201
0003b0 68 7f 22 bd 5f 85 98 bc f7 f1 46 bd 43 4b d8 3c
       -0.039672285 -0.018618284 -0.0485706 0.026403075
0003c0 7f 8d ca bc da 9a e5 3c 7e d4 f6 3b 7a cf 24 bc
       -0.024725674 0.02802794 0.0075326553 -0.010059232
0003d0 ec 6d bd bb 02 30 55 3d 1e d1 81 bd 2d 05 ac 3d
       -0.005780926 0.052047737 -0.06338714 0.08399425
0003e0 11 7f df 3a 83 6c 4e bd a8 5d 09 3d 39 ac 46 bc
       0.0017051419 -0.050396454 0.033536583 -0.012126022
0003f0 0f 97 19 bd 3d 7a 31 bd be 69 00 bb 38 6f 63 3d
       -0.037497576 -0.043329466 -0.0019594277 0.05552599

fc2_layer.weight f4 [256, 256]
000000 60 91 dc 3b 86 ab 85 bd bf 2a ff bc 3c 70 89 bc
       0.0067311972 -0.06526856 -0.031148313 -0.01677715
000010 78 7b cb bc ee d0 f4 3b df ae d9 3b 3e c0 07 bd
       -0.024839148 0.0074711954 0.0066431607 -0.03314232
000020 66 4f 61 3c 8b 65 58 bc d6 82 1a 3d 46 ab 70 bc
       0.01375184 -0.0132078035 0.03772243 -0.014689272
000030 86 d9 2e 3d a9 b7 b9 bc 13 a0 dd bc 04 f4 c4 bc
       0.042687915 -0.022670584 -0.027053868 -0.024042137
000040 92 04 8a 3d 2e a5 9b bd ff 56 92 bd 02 72 5a bd
       0.06739153 -0.07599865 -0.071454994 -0.053331383
000050 10 f5 79 bb 28 32 6c bc b0 81 13 bd c2 ab a4 bd
       -0.0038140453 -0.014416255 -0.03601235 -0.08040573
000060 ef 4b 63 3d 88 88 c3 bc f2 4a 0b 3d 9b 3d 59 3d
       0.055492338 -0.023868814 0.03400702 0.053037267
000070 14 40 6e 3d eb 7d 30 bd 7e d3 17 ba e2 a7 0a 3d
       0.05816658 -0.043088835 -0.00057917077 0.03385151
000080 30 a4 0b bc 7d 35 60 bd ee 02 23 3d d7 26 c3 3c
       -0.008523032 -0.05473851 0.039797716 0.023822231
000090 69 0b 0c 3d 52 3f 96 bc de 82 81 bc 56 d3 e7 bc
       0.03419057 -0.01834074 -0.015809473 -0.028299015
0000a0 9a 01 24 bd 33 08 92 bd ba 78 d2 3c 15 06 d2 3c
       -0.04004059 -0.0713047 0.025692333 0.025637666
0000b0 f0 88 53 3c ab 47 01 3d 5b e4 16 3c 11 5b 3f bd
       0.012911066 0.03156249 0.009209718 -0.046717707
0000c0 a1 3c ae bc 6d 0f 8c bc 62 0b 16 bd b2 a2 15 3d
       -0.021269144 -0.0170972 -0.03663195 0.03653211
0000d0 a1 f7 11 3d ec 0a 2d 3d f0 24 4a bc b6 d4 15 3d
       0.035636548 0.042246744 -0.012337908 0.03657981
0000e0 0f 96 ad bc b0 8e e9 3c 05 f9 64 bc 2d 0a dc 3c
       -0.021189718 0.028510422 -0.0139753865 0.026860321
0000f0 8f b3 38 bd 4b 4d 8c bc 32 e2 f2 3b 30 c0 0c 3c
       -0.045093115 -0.0171267 0.0074122185 0.008590743
000100 94 fc cc bb ff 7a 7c bd 23 08 a1 bb bb c4 9c 3b
       -0.0062556956 -0.061640736 -0.0049143 0.0047841943
000110 71 28 e4 3c 04 67 b5 bc 09 8f 2d 3d 32 29 ac bd
       0.027851315 -0.022143848 0.042372737 -0.08406295
000120 7b 87 92 3b 59 3c 8c 3c 48 1f 28 3c b1 96 9d 3c
       0.004471717 0.01711862 0.010261364 0.019236894
000130 1a c3 1f bd 9a 94 12 3d aa 7f 6a bd 02 92 d9 3c
       -0.039004423 0.03578625 -0.057250656 0.02655888
000140 60 2a 11 bc 17 db df 3c 4a a7 b7 bd bf 1a 1e bd
       -0.008860201 0.02732615 -0.08967455 -0.038599726
000150 44 18 91 bd af eb 5b 3d 35 62 fb bc 14 3f 08 bd
       -0.070847064 0.053691562 -0.030686477 -0.03326328
000160 b8 ee 00 bd 5d b1 37 bc b8 11 26 bd bd 42 6c bd
       -0.03147766 -0.01121172 -0.04054424 -0.057680834
000170 1c f7 58 3d c9 4e 39 3d b0 54 ab 3c 86 f2 8e 3b
       0.052970037 0.04524115 0.020914406 0.004362407
000180 28 50 28 bc 6c 1a 85 bd 43 7e 5d bc 44 d7 12 3c
       -0.010273017 -0.0649918 -0.013518873 0.008962456
000190 ce d9 d4 3c 3e c5 9d bb c6 89 41 3d a9 bb 7b bd
       0.025982764 -0.004814773 0.04725053 -0.061458264
0001a0 ba e2 24 3d 12 a2 e6 bc e8 82 9d 3c a7 a2 1f 3d
       0.040255286 -0.028153453 0.01922746 0.038973477
0001b0 ba d7 7c 3c 5a 86 1a 3d 4c 49 37 3d c3 8a bd bc
       0.015432293 0.037725784 0.044747636 -0.023137456
0001c0 47 b2 8e bd a6 c2 79 bb 41 bc 88 bd a2 62 5f bd
       -0.069675975 -0.0038110404 -0.066765316 -0.054537423
0001d0 31 0d 48 bd 56 78 4d 3c 35 01 31 3d 34 43 8e 3c
       -0.048840705 0.012540897 0.04321404 0.01736603
0001e0 dc 7d 3e 3d f0 c8 6b bc 5a 2e 83 bd 47 b9 22 bc
       0.046506748 -0.014391169 -0.06405325 -0.009931869
0001f0 d0 f0 74 bc d4 51 8c bd 88 4a 11 3d 14 e6 ec bc
       -0.014949992 -0.06851545 0.03547147 -0.028918304
000200 de b0 3d bd 4e 34 2a bd 06 8c 1e 3d 4b 8c 0e 3d
       -0.04631125 -0.041553788 0.038707756 0.034801763
000210 88 55 4f bc a0 7c 96 3c 57 75 89 3d ea 70 5f 3c
       -0.01265467 0.018369973 0.06711834 0.013637761
000220 09 a3 e0 3c be de 0c bd 7f d7 37 3d 30 69 06 bd
       0.027421491 -0.03439211 0.044883247 -0.03281516
000230 46 dd 42 bd 10 fb 2e 3d cb de 2b bd dd bc 3d bd
       -0.047574304 0.0427199 -0.04196052 -0.046322692
000240 fa 5e 82 bc bd fb 75 bd 12 5c 24 3d 00 41 74 3a
       -0.015914429 -0.06005453 0.040126868 0.0009317547
000250 37 f8 00 3d 8f 0c 24 bd 7f 0f 1d bc c0 30 11 bb
       0.031486716 -0.04005104 -0.009586214 -0.0022154301
000260 21 f5 39 3c 02 f3 a7 bd 7c 0a 10 bd 9f f8 65 bd
       0.011349947 -0.08200647 -0.03516625 -0.056145307
000270 3f 7f 22 bd 4a 37 72 3d 99 cd 22 3d 31 3b 27 3d
       -0.039672133 0.05913476 0.039746854 0.040827934
000280 1b ee 7d bc 06 3d 60 3d 76 98 b3 3c 15 10 0d bd
       -0.015498663 0.054745696 0.021923285 -0.034439165
000290 b6 11 27 bd aa 62 d9 bc cf 0a 17 3c 00 c1 6c bd
       -0.040788375 -0.026536305 0.009218886 -0.057801247
0002a0 78 d8 2a 3d 6a 3e 02 3c aa 16 93 bb 33 f3 1b 3c
       0.041710347 0.007949451 -0.0044887858 0.009518432
0002b0 88 d8 41 3d 0a c9 28 bd b2 c8 9e bc f5 b6 e3 bc
       0.04732564 -0.04120735 -0.019382808 -0.027797202
0002c0 f8 0b 30 ba 56 1e 91 bc 02 19 2e bd 94 6c 46 bd
       -0.00067156507 -0.01771466 -0.042504318 -0.048443392
0002d0 4c 58 f6 3b 55 06 66 3b 9e 10 28 bd 3c 8b cf bc
       0.00751785 0.003509899 -0.041031472 -0.025334947
0002e0 2d 18 87 3d bc 7a ff 3c 89 a9 9e bc 7e 63 fb bc
       0.06596408 0.031186454 -0.01936795 -0.03068709
0002f0 35 38 ab bc f8 b6 0b bc cf 43 77 3c 76 b5 07 bd
       -0.020900825 -0.00852751 0.01509185 -0.03313204
000300 5e 2f 6c 3d f8 e5 03 bd 54 a6 09 bd 58 a5 92 3c
       0.05766236 -0.032201737 -0.03360589 0.017901108
000310 56 c2 a6 3c 61 27 3e 3d 32 88 32 ba 76 7c b4 3c
       0.020356338 0.046424273 -0.0006810456 0.022032004
000320 6c f7 d0 3c f2 38 45 3d a4 31 42 bd e6 45 51 3d
       0.025508605 0.04815001 -0.047410622 0.05109205
000330 d4 ca 41 3d cb 62 34 bc dc 44 96 3c b8 b5 30 bd
       0.047312573 -0.011009882 0.018343382 -0.04314205
000340 c7 fe 56 bc 28 0b cb bb b8 70 ea bc ae 3e 98 3c
       -0.013122267 -0.0061963983 -0.028618202 0.018584576
000350 78 9e 5f 3d e5 26 15 bd d5 00 7b 3d 57 cb cc 3c
       0.054594487 -0.036414046 0.06128009 0.024999304
000360 dd 48 28 bd 5d c8 50 3d d1 46 9f 3b f2 da 50 bd
       -0.041085113 0.05097233 0.004860737 -0.050990053
000370 b6 50 1b bd 68 47 20 3d ad 41 ac bc 53 2c 9e 3c
       -0.03791877 0.0391306 -0.02102741 0.019308245
000380 d8 1a ff bc 90 ca 95 bd 6e e5 63 3d 8e bb 82 3c
       -0.03114073 -0.07314026 0.055638723 0.015958574
000390 32 97 11 bd ab 26 7a bb 7d ee b9 3c 8c 18 7d 3d
       -0.03554458 -0.003817002 0.022696728 0.061790988
0003a0 2a fd 19 3d 4a af 13 bd f7 30 80 bd db cc 72 bb
       0.03759495 -0.03605584 -0.06259339 -0.0037048373
0003b0 7c d2 12 3d 7a 38 98 bc 70 fa 27 3d b8 2e 42 bd
       0.035845265 -0.018581618 0.04101032 -0.047407836
0003c0 d4 f9 98 3c 6f 6c 9e 3b e8 a5 29 3d 7a 99 29 3d
       0.018673815 0.0048347036 0.041417986 0.041406132
0003d0 9c a3 ba 3c a2 92 44 3b 72 67 74 3d 3b 49 3b bd
       0.022783093 0.0029994627 0.059668966 -0.045724135
0003e0 9c c0 5c 3d fc 4c 79 ba 48 6a cd 3c 06 bd 82 3c
       0.053894624 -0.0009510068 0.025075093 0.015959274
0003f0 b8 5a 60 3c 4a aa 18 b8 d1 1d 0c bd 85 b1 29 3d
       0.013693504 -3.6398218e-05 -0.034208123 0.04142906

fc2_layer.bias f4 [256]
000000 a0 05 14 3d 24 90 31 bd 61 db e1 bc 84 30 a7 39
       0.036138177 -0.043350354 -0.027570428 0.0003188887
000010 d0 b8 b0 bc 38 fd 43 bc 03 55 88 3d 1b 72 46 bd
       -0.0215725 -0.0119622275 0.0665684 -0.048448663
000020 7b 5a 35 3d d6 95 90 3c 41 14 a0 bd 3e 15 1d bd
       0.044275742 0.017649572 -0.07816363 -0.038350336
000030 3b 04 a3 3d 26 ed 5d bd 26 73 1e bc bd fb 28 3d
       0.07959791 -0.05418124 -0.009671008 0.0412557
000040 6a 23 63 bd 1a 0f c2 bc 4e 6e 85 3c 8c b0 bf 3b
       -0.055453695 -0.023688842 0.016287949 0.0058499034
000050 e0 79 29 bd 7f 70 c1 bb aa 6a 11 3d 00 f7 2e 3c
       -0.041375995 -0.005903303 0.035502113 0.010679007
000060 68 6a 54 3d b8 43 8a 3d 92 1d 73 3d a6 a6 98 bb
       0.05185929 0.067511976 0.059354372 -0.004658538
000070 40 3d e2 3b 63 02 b0 3d 3e df 5e bd 2a f0 35 3d
       0.006904274 0.08594205 -0.05441212 0.04441849
000080 18 f4 1e 3d ce f5 54 bd e9 bb 38 3c a6 09 40 bd
       0.038807005 -0.05199223 0.01127527 -0.0468842
000090 5c fe ed 3c 27 05 41 bd 40 50 c7 3c bf 19 ad 3d
       0.029051952 -0.047124054 0.024330258 0.08452176
0000a0 4f e9 8a 3d cf ee 86 3d 65 e9 97 b9 e0 ed 75 bd
       0.06782781 0.06588518 -0.00028974857 -0.06004131
0000b0 b1 09 c0 3d 47 37 94 3b df 9f b1 3d 8d ec 8b bb
       0.093768485 0.004523191 0.08673071 -0.0042701424
0000c0 83 62 95 3c c8 e8 2e 3d df 02 46 3d 94 66 29 3d
       0.01823545 0.042702466 0.04834258 0.04135759
0000d0 be ed 80 3d da 26 08 bd 7a 1a 4e 3c 34 74 6d bd
       0.06295346 -0.033240177 0.012579555 -0.057972148
0000e0 f1 45 1d bd 2e c3 b7 bc 1e c4 aa 3c 26 36 86 3c
       -0.03839678 -0.022431936 0.02084547 0.016383242
0000f0 2a 9c b0 3d d5 eb 09 bc 69 5c 90 3b 03 d1 14 bd
       0.08623536 -0.008418043 0.0044055474 -0.03633214
000100 09 f8 09 bd 1e a7 f3 3c 49 9b 17 bd 7a 3b 70 bd
       -0.03368381 0.029742774 -0.037013326 -0.05865047
000110 8d 49 97 bc a9 e5 eb 3a 02 27 9a bd 20 92 fa bb
       -0.018467689 0.0017997521 -0.075269714 -0.007646814
000120 1b f3 1a 3d 01 c8 c8 3c c0 89 ce bc 90 32 9b 3d
       0.0378295 0.024509432 -0.025212169 0.075780034
000130 73 46 4e 3d 52 75 93 bc b4 de 6f 3d 15 53 2b 3d
       0.050360154 -0.018000279 0.058561996 0.04182728
000140 b6 2e 7c bd 20 22 26 3c d1 71 e1 3c b9 fc 6f 3d
       -0.061567985 0.010139972 0.027520092 0.058590624
000150 fc 15 d4 bc 41 f5 61 bc 20 5c 4f bd 8c cd 22 bd
       -0.02588939 -0.013791383 -0.050624967 -0.039746806
000160 32 e5 a6 3c 73 46 8d bb be 15 d0 bc 53 30 90 3d
       0.02037296 -0.0043113767 -0.025400992 0.07040467
000170 69 53 d2 bc 58 79 c4 bc 9e 80 e7 3c de 71 f2 bb
       -0.025674539 -0.023983642 0.028259572 -0.007398828
000180 fa f1 22 3d 6d 0f 1c 3d 20 d6 e3 bb 45 23 4e bc
       0.039781548 0.03810065 -0.006953016 -0.012581651
000190 48 a6 fc bc 93 80 61 bd df e6 47 bd bc e9 9e bc
       -0.030841008 -0.05505426 -0.04880416 -0.019398563
0001a0 5a bf 78 bd 36 92 9f bb 26 fd 1d bd 26 a1 83 bc
       -0.060729362 -0.0048697246 -0.0385715 -0.016068053
0001b0 e0 3c 06 bd 97 12 91 bd 11 a0 dd 3c 37 dc 51 3d
       -0.0327729 -0.07083624 0.027053865 0.051235404
0001c0 0b c2 34 3d 18 3f 91 3c 1e 0d d9 3b 44 19 b7 bc
       0.044130366 0.01773028 0.006623878 -0.022350915
0001d0 29 ec f0 bb d6 4d 11 3c 0f 96 bb bc e9 54 44 3d
       -0.0073523712 0.008868655 -0.022898702 0.04793254
0001e0 9a f8 db 3c 40 dc b5 3d 19 aa 27 bd 7d 3d 4e 3d
       0.02685194 0.088799 -0.040933702 0.05035161
0001f0 0c 74 b2 3c 56 c3 88 3a d1 f6 d4 3c 03 8f c6 bc
       0.021783851 0.0010434191 0.025996597 -0.024238115
000200 d3 62 17 3d 79 4a 52 bc fe d7 4f bd b6 74 f1 bc
       0.03695948 -0.0128351385 -0.050743096 -0.029474597
000210 d4 93 d2 bc e5 a5 37 bd ee 19 ef bc 1d a9 36 bd
       -0.025705256 -0.044835944 -0.029187169 -0.044594873
000220 43 04 97 bb 63 d8 51 3d 4d c0 50 bd 6e b4 7e bd
       -0.0046086623 0.051231753 -0.050964642 -0.06218379
000230 0c 72 00 bd 4c 0d 6a bd 20 5d df 3c 10 14 88 bd
       -0.031358764 -0.057141587 0.027266085 -0.066444516
000240 2c 03 0a bd fe 01 4c bd f6 11 82 3c 77 36 7b bd
       -0.03369443 -0.049806587 0.015877705 -0.06133124
000250 16 dc 84 bb cb 31 aa bb 2f a1 88 bd 02 ea 17 bd
       -0.0040545566 -0.005193924 -0.06671368 -0.0370884
000260 be 1f 04 bd e4 de b4 3c 8b 21 79 3d f4 15 48 3d
       -0.032256834 0.022078939 0.060823005 0.04884906
000270 f1 07 b6 3b 08 8a 8c bd 0b de 2d 3c 96 d6 2d bd
       0.005555146 -0.06862265 0.010612021 -0.042440973
000280 97 d1 20 3b b5 72 41 bd 17 38 47 3a ae 5a a9 3c
       0.0024538988 -0.047228534 0.00075996056 0.020673122
000290 b7 52 17 bc d2 ca cf bb 3a e3 8b 3d e1 2f ab 3d
       -0.009236029 -0.0063413167 0.068304494 0.083587416
0002a0 47 83 44 bc d5 bf 63 bc 8e 73 65 bd cd c0 dd bc
       -0.01199419 -0.013900717 -0.056018405 -0.027069474
0002b0 cf a2 95 bd 4a db 12 bd 00 db ae 3d 38 d8 8a 3d
       -0.07306444 -0.03585366 0.08537865 0.06779522
0002c0 43 b5 64 bc a0 f9 6b 3d bd 1e 84 bd ba 13 bd 3b
       -0.013959232 0.057611108 -0.06451175 0.005770174
0002d0 5a 7d 62 bd dd 8d 27 bc 18 73 b6 bb 34 d7 eb bc
       -0.055295326 -0.010226694 -0.0055679195 -0.02878914
0002e0 c4 54 5a 3d 18 dc db 3c c4 b9 0d 3d f8 c7 44 bd
       0.053303495 0.026838347 0.034600988 -0.048042268
0002f0 ef 17 a8 bb 9e ad 6a bc ed e9 b5 bc 38 19 52 bc
       -0.005129806 -0.01432362 -0.022206271 -0.012823395
000300 4b e0 92 3d cc 7e a6 bc dd 19 85 3d 83 c4 a1 bc
       0.07171687 -0.020324133 0.06499074 -0.019747024
000310 81 41 9e bd 64 81 aa 3d 78 d9 58 ba fb 28 41 3c
       -0.07727338 0.083254606 -0.00082721515 0.011789556
000320 dc 2d 6a 3c 17 4b 39 3d c6 3b 33 bd 43 36 86 bc
       0.01429316 0.045237627 -0.043758176 -0.016383296
000330 ac 48 4e bd 2a 0b e0 3c 9f f5 06 3d 10 4d 5b 3d
       -0.050362274 0.027349073 0.032949086 0.05354029
000340 cd fc 8f 3c fa da a0 3c 8c 22 55 3d 3e b9 fc bc
       0.0175766 0.019635666 0.0520349 -0.03085005
000350 cd 51 36 3c 64 d1 c3 bc 10 bd 2b bc 9c a1 15 3d
       0.011127901 -0.023903556 -0.010482088 0.036531076
000360 c2 25 1f bc c9 14 9d 3c 9f 21 f4 3b 9e 51 a0 3b
       -0.009713592 0.01917495 0.007450297 0.004892542
000370 06 db 5e bd a9 ca 17 bd 50 9f 98 3c e8 19 3c 3d
       -0.054408096 -0.037058506 0.018630654 0.045923144
000380 2b de 9a bc a2 f7 3d bd 78 ac 6d 3d 2a 1d 3a 3d
       -0.018904766 -0.04637874 0.058025807 0.04543797
000390 c0 bc 38 bc 80 a2 3b 3b cb e8 27 3c 55 0f ab 3c
       -0.01127547 0.0028630793 0.010248373 0.020881334
0003a0 85 5b 81 bc 98 4f c2 bb 09 da 2f 3d 52 65 86 3d
       -0.01579071 -0.0059298985 0.042932544 0.06562294
0003b0 1d b5 0e bd 8a 6e 13 bd c9 e6 0d bc b6 97 91 bc
       -0.03484069 -0.03599409 -0.0086609805 -0.017772537
0003c0 cf ed 83 3d f9 c7 41 bc 3f c2 c7 3c 6b 32 e9 bc
       0.06441843 -0.011827462 0.024384616 -0.028466424
0003d0 96 f1 02 3d 10 20 aa bc 5a 1b a8 3d 5a 56 a8 3c
       0.031968676 -0.020767242 0.08208342 0.020548988
0003e0 51 fb 01 bc c2 a3 36 3d 2f da 7c 38 b1 fb b0 3c
       -0.007933454 0.044589765 6.028468e-05 0.02160439
0003f0 5b f8 aa ba 2b e5 89 bc c9 30 04 bd c8 97 dc 3c
       -0.0013043986 -0.016832909 -0.032273088 0.026927844
