projet/models/actor_critic/conv_player_0_critic.pth (torch, 737251 bytes, 9 tensors)

conv_1.weight f4 [32, 1, 3, 3]
0.11281511 -0.28339767 0.48803815 -0.051970556 -0.01224395 0.040661585 -0.027397038 -0.12929045
-0.0007813799 0.03371263 0.1828522 0.11888096 -0.0029492795 0.10495663 -0.044772405 -0.14224224
-0.1438166 -0.007847634 -0.015991474 -0.003969702 -0.117365606 -0.14553668 0.010726136 -0.102177516
0.035467934 -0.052248366 0.045041658 -0.20515326 -0.12081135 0.004109869 -0.22611696 -0.021767303
-0.18241976 -0.15338178 -0.031413775 -0.23402503 0.055346355 0.04941528 -0.017533984 0.059236426
0.026556937 -0.013024277 0.002175027 -0.002276501 0.009765136 0.008776827 0.13296077 0.14727212
-0.11447555 -0.0032728657 -0.03588952 0.015340259 -0.08671052 -0.10845925 0.14471245 0.19297558
0.02237704 -0.10170857 0.0660548 -0.0079287505 0.051038664 0.0142571805 -0.062217318 -0.04667216
0.011073593 -0.4830075 -0.057434294 -0.016139288 0.2580125 -0.06689441 -0.06342752 0.034650266
0.040520485 -0.045623627 -0.051304497 0.024621163 0.055081625 -0.009479777 0.028199783 -0.010160845
0.010672077 -0.03520399 -0.012121686 -0.0323811 0.00526732 0.027574902 0.006917874 -0.01112004
0.02580356 -0.02818601 0.08590587 -0.007104732 0.118380286 -0.07147969 0.03254611 0.055380695
0.11987251 0.028533133 0.045140013 0.0934452 0.07034898 0.008909385 0.033623464 -0.032160934
0.110716246 0.11403401 0.049731314 0.060593516 -0.020940127 -0.09129667 0.012944255 -0.02169751
-0.0150408605 0.049224693 -0.015200348 -0.022775754 0.02777346 -0.031536724 -0.07938829 -0.5474157
0.035564557 0.076615065 -0.05164227 0.0435295 -0.06287021 0.20024881 0.17267066 -0.10064542
0.08427838 0.12800777 -0.31471908 0.032404818 0.19384399 -0.05122261 0.12697001 -0.04315504
0.11782888 0.36326215 0.058871076 -0.09744964 -0.15102728 -0.026068943 0.045538843 -0.20057301
-0.121841975 0.024432492 -0.09546634 0.05728263 0.0047762687 -0.049048368 -0.004272228 -0.021897249
0.021228721 0.0073845373 -0.04328762 -0.01245537 0.07316012 0.040355872 0.040013704 0.00679852
0.01113894 0.014472229 0.03739608 -0.044168048 0.44690716 0.03147411 0.025967786 -0.23929201
0.022408005 0.012270806 -0.033330005 -0.08785267 0.025843993 -0.1447831 0.06668955 -0.1358264
0.12420518 0.07210269 -0.06518922 0.06659474 0.02641069 -0.05033836 0.17664683 -0.16418417
0.06141457 0.11462183 -0.100699306 -0.12434159 0.045962796 -0.036578674 -0.0089193685 -0.4454816
0.0006838331 -0.10222478 0.0957799 -0.008017473 0.10500814 0.23494893 0.190242 0.07248458
0.0056511606 0.03553228 0.037627287 0.17538714 0.105119385 0.061705858 -0.004989526 -0.074677594
0.0883924 0.46044284 0.13806382 0.0008560642 0.08690147 -0.0039205123 -0.026582783 0.18974048
0.10204405 -0.0011755554 -0.122414626 -0.050115604 -0.00701998 -0.03386344 -0.025390308 0.0032675667
0.0025065513 0.009309885 -0.023955008 0.03490269 0.046641763 0.046851344 -0.08333763 0.06747231
0.010566759 0.0675649 -0.03815974 0.04041634 0.033124465 0.040212896 0.069504485 0.027238308
0.019813552 -0.015389539 -0.016073592 0.06875921 -0.05425337 0.35230142 0.010384715 -0.058875892
0.21753725 0.024560332 -0.022494422 -0.091771066 -0.07143529 -0.058644716 -0.03549588 -0.058125127
00000000: 9c0b e73d 8019 91be 23e0 f93e 14df 54bd
00000010: d99a 48bc c38c 263d c16f e0bc b764 04be
00000020: 84d5 4cba 4116 0a3d 9b3d 3b3e dc77 f33d
00000030: b348 41bb 80f3 d63d 4563 37bd f3a7 11be
00000040: a944 13be 5d93 00bc 8d00 83bc 4614 82bb
00000050: 615d f0bd 9107 15be adbc 2f3c 7242 d1bd
00000060: d346 113d 6202 56bd 9a7d 383d b213 52be
00000070: f16b f7bd 14ac 863b 348b 67be 5851 b2bc
00000080: 3fcc 3abe 1d10 1dbe bbab 00bd 42a4 6fbe
00000090: dcb2 623d ad67 4a3d 6ea3 8fbc e5a1 723d
000000a0: ef8d d93c c763 55bc e68a 0e3b 5931 15bb
000000b0: f3fd 1f3c aecc 0f3c de26 083e 81ce 163e
000000c0: 2872 eabd 937d 56bb e400 13bd b655 7b3c
000000d0: 4995 b1bd e21f debd 802f 143e 649b 453e
000000e0: 0e50 b73c 954c d0bd bd47 873d 97e7 01bc
000000f0: eb0d 513d f396 693c 96d7 7ebd 4f2b 3fbd
00000100: 046e 353c c24c f7be 3940 6bbd 8a36 84bc
00000110: 371a 843e f0ff 88bd 4ae6 81bd 70ed 0d3d
00000120: cff8 253d d7df 3abd aa24 52bd 52b2 c93c
00000130: 459d 613d 1151 1bbc 3b03 e73c ac79 26bc
00000140: efd9 2e3c 0f32 10bd 099a 46bc 0ba2 04bd
00000150: 7c99 ac3b c3e4 e13c 55af e23b d430 36bc
00000160: fd61 d33c 59e6 e6bc 6bef af3d d0ce e8bb
00000170: 5d71 f23d f263 92bd 124f 053d ded6 623d
00000180: b87f f53d 51be e93c bce4 383d 3260 bf3d
00000190: 2013 903d abf8 113c c2b8 093d 2fbb 03bd
000001a0: 33bf e23d aa8a e93d 10b3 4b3d e830 783d
000001b0: a18a abbc c0f9 babd 2414 543c fabe b1bc
000001c0: f16d 76bc d59f 493d e10a 79bc 3894 babc
000001d0: 2b85 e33c a72c 01bd 5496 a2bd 6f23 0cbf
000001e0: 24ac 113d 5ce8 9c3d d886 53bd fd4b 323d
000001f0: 19c2 80bd 060e 4d3e 94d0 303e 301f cebd
00000200: 259a ac3d 7814 033e dc22 a1be eaba 043d
00000210: 0a7f 463e cdce 51bd 6d04 023e 57c3 30bd
00000220: 4550 f13d 7ffd b93e cc22 713d ad93 c7bd
00000230: e5a6 1abe 898e d5bc f086 3a3d 0363 4dbe
00000240: 4988 f9bd a626 c83c db83 c3bd 31a1 6a3d
00000250: 3f82 9c3b f1e6 48bd 0cfe 8bbb dc61 b3bc
00000260: dbe7 ad3c fdf9 f13b 5c4e 31bd 9c11 4cbc
00000270: f9d4 953d 334c 253d 69e5 233d 1fc6 de3b
00000280: 1a80 363c ee1c 6d3c a22c 193d 8ee9 34bd
00000290: 04d1 e43e ffea 003d 65ba d43c f708 75be
000002a0: fe90 b73c 7e0b 493c 0b85 08bd 1aec b3bd
000002b0: c8b6 d33c 0542 14be 8894 883d 1316 0bbe
000002c0: 495f fe3d 93aa 933d ed81 85bd d362 883d
000002d0: 3b5b d83c 992f 4ebd e8e2 343e e51f 28be
000002e0: d88d 7b3d dabe ea3d 703b cebd cea6 febd
000002f0: 7c43 3c3d 85d3 15bd 8b22 12bc 2a16 e4be
00000300: 4343 333a 3a5b d1bd 4128 c43d b85b 03bc
00000310: 820e d73d 7496 703e cdce 423e cc72 943d
00000320: 5f2d b93b 4c8a 113d 121f 1a3d b098 333e
00000330: d548 d73d 48bf 7c3d 2d7f a3bb 91f0 98bd
00000340: 1307 b53d 2abf eb3e 9a60 0d3e 7f69 603a
00000350: 66f9 b13d a477 80bb 23c4 d9bc 544b 423e
00000360: 79fc d03d 1815 9aba 85b4 fabd 0546 4dbd
00000370: dc07 e6bb 64b4 0abd 56ff cfbc ac24 563b
00000380: f444 243b 7d88 183c 4b3d c4bc 20f6 0e3d
00000390: 6f0b 3f3d 32e7 3f3d ebac aabd ec2e 8a3d
000003a0: 3320 2d3c 775f 8a3d 634d 1cbd 9b8b 253d
000003b0: 85ad 073d 47b6 243d 5e58 8e3d df22 df3c
000003c0: 0850 a23c 6824 7cbc c4ac 83bc a1d1 8c3d
000003d0: c838 5ebd da60 b43e a724 2a3c d927 71bd
000003e0: 16c2 5e3e c032 c93c 3946 b8bc 78f2 bbbd
000003f0: aa4c 92bd 7135 70bd 2164 11bd 9d14 6ebd

conv_1.bias f4 [32]
-0.18811026 -0.43591908 -0.5437778 -0.59421325 -0.2340372 -0.42405492 -0.6512817 -0.42330572
-0.2948801 -0.27034166 -0.58089805 -0.32604954 -0.3390253 -0.3594291 -0.52376336 -0.40613464
-0.5586895 -0.35439453 -0.3629645 -0.6500888 -0.3927073 -0.3641949 -0.6153647 -0.4768575
-0.5663228 -0.54364693 -0.4256435 -0.40725908 -0.34252587 -0.33681983 -0.18464306 -0.4962025
00000000: fa9f 40be c930 dfbe 0635 0bbf 5c1e 18bf
00000010: 73a7 6fbe ba1d d9be 66ba 26bf 87bb d8be
00000020: 86fa 96be 396a 8abe bcb5 14bf f7ef a6be
00000030: b994 adbe 1707 b8be 5b15 06bf e1f0 cfbe
00000040: 4606 0fbf 3373 b5be 7cd6 b9be 386c 26bf
00000050: ee10 c9be c177 babe 8a88 1dbf ab26 f4be
00000060: 88fa 10bf 722c 0bbf f2ed d9be 4384 d0be
00000070: 8d5f afbe a673 acbe 1213 3dbe 410e febe

conv_2.weight f4 [64, 32, 3, 3]
-0.06489898 -0.037051447 0.02797472 0.071591765 -0.04781509 0.00090954424 -0.10420587 -0.042565733
-0.063138925 -0.07988456 -0.0066587483 0.0042434507 -0.036780085 -0.11024449 0.01971429 -0.09600756
-0.103928134 -0.0275951 -0.039350815 0.0038572554 -0.07144308 -0.059767928 0.041091442 -0.08278636
-0.013670059 -0.05728927 -0.036353923 -0.057561513 -0.030179193 -0.02502921 -0.013103456 -0.012098418
-0.0019734246 -0.04071945 -0.006711149 -0.08754621 -0.048040286 -0.07172123 -0.17850082 0.009454585
-0.0043363906 -0.06388853 -0.0648661 -0.06884866 0.007904718 -0.09256111 -0.060313698 -0.03540644
-0.053558286 -0.012994827 0.076384015 -0.14841406 -0.046293236 -0.0065791495 -0.0717144 -0.015210955
-0.061068866 -0.08145397 -0.08595868 -0.107532345 -0.084089175 -0.084627934 -0.005666441 -0.03369792
-0.08163865 -0.017458662 -0.04903263 0.043266993 0.06072621 -0.09432488 -0.041645717 0.004592089
0.0012407955 -0.038299497 -0.07625351 -0.054575175 0.0061675487 -0.081397116 0.009332153 -0.053316686
-0.07572274 -0.07852054 -0.058939073 0.006201655 -0.007231073 -0.046281975 -0.0715296 0.004904778
-0.058817185 -0.066727035 -0.050473176 0.03879122 -0.04597589 0.03948526 -0.09766863 -0.02421817
-0.0664354 0.016043374 -0.014643705 0.09606308 -0.093345106 -0.04904177 -0.080841824 -0.050282415
-0.004555478 -0.038876705 0.027762864 -0.05725755 -0.08629706 0.03250795 -0.07027797 -0.021056341
0.04583501 0.061205983 -0.07434186 0.00433944 0.004359514 -0.014497614 -0.016188074 -0.097725436
-0.008836391 0.04243039 0.05920276 -0.047030047 -0.04620961 -0.09197739 0.011560007 -0.11324146
-0.001900877 0.041785102 -0.011593341 -0.06453815 -0.06383228 0.061274987 -0.088009536 -0.044660114
0.060338933 -0.06878847 -0.09357653 -0.036608763 -0.03679961 -0.061561685 -0.12773381 -0.08083979
0.013548017 0.039393213 -0.0972947 -0.08409949 0.03100129 0.0132929385 -0.06984734 0.031688984
-0.07913493 -0.0006406866 -0.0085903555 0.046238735 -0.030409591 -0.06817919 0.0227904 -0.06366425
-0.009325374 0.015972009 -0.041052587 -0.024167288 0.0014561563 0.013794368 -0.08986629 -0.020380003
-0.013758113 -0.0019436585 -0.16699569 -0.0054432736 -0.0048544407 0.0040509077 -0.040134247 0.011740572
-0.076248705 -0.028414825 0.006892101 -0.0652242 0.04068487 0.09759236 -0.16510624 0.038048804
-0.054229893 -0.074962705 -0.16472335 -0.065960065 0.016563851 0.12796043 -0.09589015 -0.06510373
0.04159993 -0.0037016221 -0.06568303 -0.05577001 -0.009358589 0.021670755 0.008771364 -0.11824913
0.010066606 -0.11342994 -0.0041992078 -0.08003612 0.020005334 0.013643816 0.05526393 -0.09973922
0.012216607 -0.017119316 -0.103935674 -0.050688013 0.016678791 -0.016158273 -0.1248416 -0.047140867
0.04097812 -0.062378388 -0.037377357 -0.016148541 0.03711328 -0.06068273 0.02040032 0.011208751
-0.080019265 -0.058808785 -0.053166427 -0.008854342 0.01859118 -0.044422492 -0.06921068 -0.060968015
-0.048354175 -0.095704965 0.0059851985 0.09761349 -0.075082794 -0.083550096 0.09203747 0.01713715
0.010762433 -0.026304098 -0.11252508 0.008019394 -0.09095153 -0.10222721 -0.0073771337 -0.034465764
0.029209781 -0.10604568 -0.06405517 -0.05352445 -0.10916615 -0.055898704 -0.01621351 0.09082249
00000000: c2e9 84bd 42c3 17bd 3d2b e53c b49e 923d
00000010: c1d9 43bd 7b6e 6e3a e369 d5bd 6859 2ebd
00000020: fb4e 81bd 849a a3bd a131 dabb a50c 8b3b
00000030: b7a6 16bd ddc7 e1bd dd7f a13c 9d9f c4bd
00000040: 46d8 d4bd 1f0f e2bc 522e 21bd 02ca 7c3b
00000050: c050 92bd 37cf 74bd 804f 283d e58b a9bd
00000060: 62f8 5fbc 27a8 6abd dae7 14bd 9fc5 6bbd
00000070: 5b3a f7bc 0f0a cdbc e1af 56bc 7138 46bc
00000080: 9254 01bb 70c9 26bd 33e9 dbbb 6d4b b3bd
00000090: e4c5 44bd 95e2 92bd ebc8 36be 67e7 1a3c
000000a0: 4818 8ebb fdd7 82bd 85d8 84bd 8700 8dbd
000000b0: ca82 013c ae90 bdbd 7f0b 77bd 5806 11bd
000000c0: ef5f 5bbd 41e8 54bc 396f 9c3d dbf9 17be
000000d0: fa9d 3dbd e895 d7bb 00df 92bd 5f37 79bc
000000e0: 5923 7abd 57d1 a6bd 1b0b b0bd eb39 dcbd
000000f0: f236 acbd 6951 adbd 8dad b9bb d506 0abd
00000100: 2a32 a7bd 7805 8fbc 70d6 48bd bb38 313d
00000110: 0cbc 783d 672d c1bd b394 2abd 3c79 963b
00000120: 30a2 a23a efdf 1cbd cd2a 9cbd 388a 5fbd
00000130: 2619 ca3b 88b3 a6bd e3e5 183c 9962 5abd
00000140: 8614 9bbd 60cf a0bd 196a 71bd 4137 cb3b
00000150: a3f2 ecbb 2b92 3dbd 1c7e 92bd 43b8 a03b
00000160: 4aea 70bd 2fa8 88bd f6bc 4ebd 8be3 1e3d
00000170: 3751 3cbd 4cbb 213d 7e06 c8bd 2f65 c6bc
00000180: 480f 88bd 656d 833c 27ec 6fbc b8bc c43d
00000190: b82b bfbd 06e0 48bd 6690 a5bd eff4 4dbd
000001a0: 1f46 95bb 2e3d 1fbd f26e e33c e586 6abd
000001b0: 83bc b0bd 0e27 053d e5ed 8fbd 597e acbc
000001c0: 7ebd 3b3d 20b3 7a3d 8c40 98bd dc31 8e3b
000001d0: 41da 8e3b 6787 6dbc da9c 84bc 4624 c8bd
000001e0: 83c6 10bc 7dcb 2d3d 987e 723d 94a2 40bd
000001f0: 4a46 3dbd a45e bcbd 2f66 3d3c 23eb e7bd
00000200: d926 f9ba db26 2b3d fff1 3dbc 942c 84bd
00000210: 80ba 82bd 7bfb 7a3d 583e b4bd 86ed 36bd
00000220: f525 773d f8e0 8cbd 0da5 bfbd 12f3 15bd
00000230: 30bb 16bd 1b28 7cbd a7cc 02be 558f a5bd
00000240: 80f8 5d3c c75a 213d 7242 c7bd 5a3c acbd
00000250: 6bf6 fd3c a0ca 593c 1f0c 8fbd 4fcc 013d
00000260: 7f11 a2bd c0f3 27ba 90be 0cbc d464 3d3d
00000270: 891d f9bc 88a1 8bbd efb2 ba3c 6762 82bd
00000280: 74c9 18bc bbd7 823c c226 28bd 7afa c5bc
00000290: 7fdc be3a c601 623c d10b b8bd f7f3 a6bc
000002a0: b569 61bc 5bc2 feba eb00 2bbe 7d5d b2bb
000002b0: 0012 9fbb 7abd 843b cf63 24bd 875b 403c
000002c0: 4828 9cbd 35c6 e8bc 22d7 e13b 4494 85bd
000002d0: 2ea5 263d 81de c73d 9c11 29be 10d9 1b3d
000002e0: 2a20 5ebd 0c86 99bd 3dad 28be 1216 87bd
000002f0: eab0 873c 0f08 033e 0e62 c4bd 1b55 85bd
00000300: b064 2a3d ea96 72bb d384 86bd 186f 64bd
00000310: c454 19bc de86 b13c c4b5 0f3c 9a2c f2bd
00000320: 68ee 243c f54d e8bd 8299 89bb fae9 a3bd
00000330: 3ae2 a33c 508a 5f3c 6e5c 623d 1444 ccbd
00000340: 2a28 483c cf3d 8cbc 3adc d4bd 3c9e 4fbd
00000350: f6a1 883c 5b5e 84bc f4ac ffbd c816 41bd
00000360: acd8 273d 7b80 7fbd 0019 19bd f249 84bc
00000370: 1804 183d 748e 78bd 921e a73c e9a4 373c
00000380: 24e1 a3bd 7be1 70bd 0ac5 59bd cd11 11bc
00000390: 884c 983c 5cf4 35bd 54be 8dbd 99b9 79bd
000003a0: 070f 46bd f700 c4bd 7c1f c43b 95e9 c73d
000003b0: 02c5 99bd 501c abbd 247e bc3d 3563 8c3c
000003c0: ea54 303c b17b d7bc 8d73 e6bd c763 033c
000003d0: cc44 babd 805c d1bd e2bb f1bb f92b 0dbd
000003e0: 5a49 ef3c 7a2e d9bd 5b2f 83bd 743c 5bbd
000003f0: 8192 dfbd 0af6 64bd 32d2 84bc 2401 ba3d

conv_2.bias f4 [64]
-0.07019533 -0.12211272 -0.099429615 -0.08594149 -0.056058012 -0.09209356 0.075519554 -0.09958998
-0.124921724 -0.08277789 -0.056495756 -0.08450354 -0.047015253 -0.04546232 -0.106621 -0.08487769
-0.117732815 -0.14520405 -0.1032818 -0.112492725 -0.07917568 -0.0832146 -0.0806511 -0.12505715
-0.05985585 -0.08181147 -0.072939076 -0.0739869 -0.062183414 -0.11179972 -0.18787587 0.15132692
-0.04247465 -0.08012451 0.07812505 0.09583158 -0.16367641 -0.14023589 0.04893998 -0.050045867
-0.09577032 -0.07697519 -0.08535362 -0.12379291 -0.14110866 -0.081857696 -0.12127625 -0.07520362
-0.06978266 -0.15948683 -0.05385156 -0.058656108 -0.09341441 -0.08296172 -0.07586113 -0.091658
-0.06969837 -0.07466396 -0.063146405 -0.07351229 -0.10473139 -0.12665688 -0.1641514 -0.06329751
00000000: 92c2 8fbd 3c16 fabd c1a1 cbbd 1802 b0bd
00000010: 169d 65bd 8c9b bcbd ffa9 9a3d d5f5 cbbd
00000020: f6d6 ffbd 7487 a9bd 1868 67bd 3110 adbd
00000030: 1193 40bd b336 3abd 1c5c dabd 5bd4 adbd
00000040: e71d f1bd 5fb0 14be 6985 d3bd 9662 e6bd
00000050: dc26 a2bd 6b6c aabd 672c a5bd fb0e 00be
00000060: 682b 75bd c68c a7bd 1561 95bd 7286 97bd
00000070: 09b4 7ebd 40f7 e4bd 8862 40be 72f5 1a3e
00000080: e6f9 2dbd 5218 a4bd 0700 a03d 5943 c43d
00000090: ca9a 27be ff99 0fbe 4a75 483d e5fc 4cbd
000000a0: 3b23 c4bd 2ba5 9dbd e1cd aebd 2387 fdbd
000000b0: ca7e 10be 02a5 a7bd af5f f8bd 5b04 9abd
000000c0: 36ea 8ebd 8450 23be 7493 5cbd 6341 70bd
000000d0: 0e50 bfbd d6e7 a9bd 155d 9bbd 31b7 bbbd
000000e0: 05be 8ebd 6be9 98bd e752 81bd 9d8d 96bd
000000f0: 697d d6bd 57b2 01be 4e17 28be 20a2 81bd

fc1_layer.weight f4 [256, 384]
0.04246159 0.038968492 -0.028999865 0.036873072 -0.022899525 -0.033523817 0.07913863 0.040432118
0.034209225 0.056937154 -0.024965625 -0.007796415 -0.045539413 -0.068720326 -0.0759316 0.11428498
0.00014546454 0.011660307 -0.0054956144 0.055460997 -0.015125552 0.019826598 0.06549256 -0.08220642
0.044494785 0.04793407 -0.07274133 -0.015374001 0.0015075579 0.013838304 0.0291408 0.03383691
0.02681638 -0.06138199 -0.02521989 -0.02039584 0.19541581 0.1900594 0.21656436 0.184224
0.07650987 -0.12857611 0.04469287 0.096080646 -0.031720303 0.018223226 -0.01706397 0.006544348
-0.00010754639 -0.021022609 -0.02068987 0.0329215 0.033365972 0.07883427 -0.03874593 -0.026666556
-0.03168232 0.012888601 0.039708175 -0.046078924 0.041957803 -0.05913016 0.026029361 -0.03566366
-0.11592254 -0.03909292 -0.004676715 0.0099844355 0.04890808 -0.04089549 -0.07730616 0.0995171
-0.014833368 0.003915753 -0.028334828 0.017320618 0.034949183 0.02893152 -0.017174544 0.0026554225
0.0068943165 -0.025010554 -0.034847423 0.03327546 0.08672137 0.032874912 -0.18955128 -0.04514492
-0.023174178 -0.016545726 0.06081429 2.1106093e-06 0.03420002 0.037906524 0.010345473 0.027870035
-0.038088247 -0.057815593 -0.008900631 0.015379889 -0.061790586 -0.016520511 0.0153659005 -0.11387107
-0.10599867 -0.021248922 0.014939486 -0.122925594 0.13728428 0.031841602 0.115866154 -0.04508475
0.0046460954 -0.049726058 0.029387273 0.014297638 0.0620554 -0.0066057066 -0.08190678 0.050550904
0.002820793 3.4317633e-05 0.010497873 -0.026088687 0.035659898 0.0059778546 -0.032622516 -0.01746648
0.0188102 0.027947923 -0.04270619 -0.041869372 -0.03765425 0.015327972 0.008171914 0.0105820885
-0.017115837 -0.013253078 -0.022865327 0.055620227 0.07537291 -0.03916384 -0.058299556 -0.016550334
0.01736139 -0.041256327 0.112206385 -0.078963816 0.052643985 0.07932452 -0.003217571 0.0100580035
0.01292125 0.05203686 0.09129762 0.052564345 0.0274172 0.03203872 -0.005687707 -0.11820344
-0.038296197 -0.046819206 0.0032621878 0.015808605 0.0551621 -0.0076128016 -0.048638295 -0.019615829
-0.03536089 0.026764534 -0.051167443 0.0034121615 0.048827007 0.022069402 -0.0033121526 -0.032469574
-0.039060455 -0.016386664 0.0024965561 0.0013586093 0.06289626 0.07772822 -0.108207665 0.021097442
0.026188873 -0.05424848 0.07251659 0.03647131 0.36551386 0.07962508 0.022778817 -0.035905536
-0.011837067 0.016910002 -0.018514868 -0.031834733 -0.012430307 0.005677353 0.021347104 -0.0721939
-0.015130055 -0.016751627 -0.03445269 0.0019975596 0.1398272 0.31319216 0.50913924 -0.05465621
-0.070172966 -0.03902372 -0.008940077 0.37265494 0.35837588 -0.0530804 0.009788312 0.14800319
0.047470063 0.017553553 -0.027135955 0.051983897 -0.09219853 0.09624802 -0.028688641 0.0352982
-0.0680634 -0.08910405 0.06370455 -0.03641293 0.044234596 0.28267622 0.16208449 0.12873971
0.0033328307 -0.039798893 -0.0058370447 -0.06681537 0.044185966 0.025226822 0.09019025 0.012305552
-0.034502424 0.067660645 -0.046535503 -0.0130381165 -0.0014928171 0.06982061 0.0011643752 -0.024841258
0.07606041 -0.0041749687 -0.050379016 -0.040452793 -0.0007009441 -0.026937814 0.028946264 -0.05849196
00000000: 34ec 2d3d 6d9d 1f3d 2091 edbc 3808 173d
00000010: c997 bbbc 4550 09bd 6f13 a23d 269c 253d
00000020: f91e 0c3d ef36 693d b684 ccbc 1279 ffbb
00000030: 8987 3abd 3ebd 8cbd 0782 9bbd 3e0e ea3d
00000040: d787 1839 df0a 3f3c 8e14 b4bb 122b 633d
00000050: 2ad1 77bc 646b a23c f720 863d d75b a8bd
00000060: 2a40 363d 8456 443d 68f9 94bd 3ce3 7bbc
00000070: 4099 c53a 0eba 623c b0b8 ee3c 9298 0a3d
00000080: 06ae db3c ae6b 7bbd f199 cebc 2d15 a7bc
00000090: 151b 483e ee9e 423e 0cc3 5d3e 37a5 3c3e
000000a0: 35b1 9c3d 75a9 03be df0f 373d eec5 c43d
000000b0: 26ed 01bd e048 953c bdc9 8bbc f871 d63b
000000c0: 878a e1b8 9b37 acbc cd7d a9bc b2d8 063d
000000d0: c2aa 083d dd73 a13d 0db4 1ebd d273 dabc
000000e0: 52c5 01bd b62a 533c 0aa5 223d 41bd 3cbd
000000f0: f2db 2b3d 7732 72bd 873b d53c 0f14 12bd
00000100: cc68 edbd e61f 20bd 213f 99bb c295 233c
00000110: d753 483d 0882 27bd b152 9ebd 9fcf cb3d
00000120: a807 73bc b84f 803b 711e e8bc f8e3 8d3c
00000130: e026 0f3d cc01 ed3c a1b1 8cbc 9906 2e3b
00000140: b8e9 e13b efe2 ccbc 2cbc 0ebd d94b 083d
00000150: f99a b13d d8a7 063d bb19 42be e1e9 38bd
00000160: c6d7 bdbc e78a 87bc 6818 793d fea3 0d36
00000170: 5215 0c3d df43 1b3d 0f80 293c b34f e43c
00000180: 6c02 1cbd 0bd0 6cbd f4d3 11bc eefb 7b3c
00000190: 2018 7dbd 0656 87bc 42c1 7b3c 3c35 e9bd
000001a0: d515 d9bd 3812 aebc bfc4 743c 6ac0 fbbd
000001b0: 4094 0c3e 576c 023d 3c4b ed3d c9aa 38bd
000001c0: 463e 983b 8dad 4bbd 94bd f03c a440 6a3c
000001d0: ce2d 7e3d af74 d8bb bebe a7bd 770e 4f3d
000001e0: 0edd 383b 47f0 0f38 45ff 2b3c f1b7 d5bc
000001f0: 1d10 123d e1e1 c33b 309f 05bd dd15 8fbc
00000200: d917 9a3c 0bf3 e43c b0ec 2ebd 387f 2bbd
00000210: 583b 1abd 2d22 7b3c 7ee3 053c 7f60 2d3c
00000220: 8336 8cbc 7023 59bc 1150 bbbc 09d2 633d
00000230: 1d5d 9a3d 436a 20bd 84cb 6ebd 9194 87bc
00000240: 7939 8e3c 65fc 28bd 76cc e53d c8b7 a1bd
00000250: 38a1 573d e574 a23d e2dd 52bb 53ca 243c
00000260: a7b3 533c 9a24 553d 3ffa ba3d b64d 573d
00000270: 099a e03c 083b 033d f25f babb a514 f2bd
00000280: 79dc 1cbd 7fc5 3fbd 6eca 553b 0c81 813c
00000290: a7f1 613d cf74 f9bb f338 47bd 60b1 a0bc
000002a0: 95d6 10bd 4c41 db3c f494 51bd 929e 5f3b
000002b0: d4fe 473d e4ca b43c b310 59bb d1fe 04bd
000002c0: dbfd 1fbd 533d 86bc 439d 233b 5d13 b23a
000002d0: c1cf 803d f92f 9f3d fb9b ddbd 8bd4 ac3c
000002e0: 0c8a d63c a733 5ebd 9483 943d f162 153d
000002f0: a224 bb3e 7912 a33d a49a ba3c af11 13bd
00000300: 42f0 41bc d886 8a3c 7eac 97bc 2365 02bd
00000310: 7da8 4bbc 1709 ba3b 1fe0 ae3c 65da 93bd
00000320: 0de4 77bc b53a 89bc 441e 0dbd 7de9 023b
00000330: dd2e 0f3e b95a a03e f356 023f 31df 5fbd
00000340: d8b6 8fbd 56d7 1fbd 6779 12bc a1cc be3e
00000350: 0b7d b73e d56a 59bd 285f 203c 268e 173e
00000360: f86f 423d 78cc 8f3c 394c debc 11ed 543d
00000370: 95d2 bcbd af1d c53d 7104 ebbc d894 103d
00000380: d364 8bbd 2f7c b6bd 8877 823d b925 15bd
00000390: 562f 353d f0ba 903e 7af9 253e 58d4 033e
000003a0: 9f6b 5a3b 2a04 23bd ae44 bfbb 7fd6 88bd
000003b0: 58fc 343d 7ba8 ce3c aab5 b83d 3a9d 493c
000003c0: 6a52 0dbd aa91 8a3d 039c 3ebd d39d 55bc
000003d0: a1aa c3ba 1cfe 8e3d f39d 983a e57f cbbc
000003e0: 8fc5 9b3d 2dce 88bb 3a5a 4ebd d4b1 25bd
000003f0: 90bf 37ba b1ac dcbc b720 ed3c 4495 6fbd

fc1_layer.bias f4 [256]
-0.17301422 0.03723071 -0.19651732 0.028688425 0.0073675415 -0.0058583603 0.0060832826 -0.005159759
0.031850025 -0.027107332 -0.023504378 -0.06839509 -0.045360267 -0.18538761 -0.037524384 -0.14250845
-0.07620618 0.011242348 0.016842443 -0.110576 -0.02236278 -0.042368878 -0.11843006 0.0027481008
-0.005620333 -0.012953157 -0.020539818 -0.009508312 -0.032308795 0.16726556 0.0076142303 -0.019912165
-0.095345855 0.08952812 -0.030472284 -0.03190535 -0.026620816 0.002429471 0.10741209 -0.021846583
0.0994262 0.0048735756 0.019860024 -0.037396867 0.029287854 -0.044729996 -0.05519684 -0.14563379
0.03929329 -0.017905794 -0.032673012 0.009148132 -0.015194077 -0.009879346 -0.0076836036 0.024411235
-0.00024681995 -0.05034695 0.1414509 -0.1203911 0.0068805967 -0.0051350705 -0.12369137 0.051829845
-0.11273547 0.054477837 0.0027267556 0.02326496 0.05099858 0.01377305 0.13734217 0.018317485
-0.01375632 -0.014064779 0.09748133 0.040504973 -0.18909197 0.014090879 -0.03597112 0.032819588
0.12828483 -0.19592218 0.096338876 0.00964654 0.067115515 0.049321696 -0.0076464433 -0.14717166
0.11387334 -0.013026268 0.007327942 0.11688805 -0.05823094 -0.009638422 0.038194247 0.023892252
0.045136057 0.0067292126 0.031544805 -0.046769127 0.030402321 -0.009373115 -0.10083532 -0.010080334
-0.03156989 0.0012019522 0.04798777 -0.080205694 -0.052311778 0.0030650569 0.001661526 0.020578923
-0.012666964 0.016165104 0.010467765 0.025982324 -0.0041529485 0.027480315 -0.18006457 0.016493158
0.0075583025 -0.011805156 -0.022565106 0.17474861 0.023766963 0.000400491 -0.031502992 -0.0151449125
0.12077417 0.0014116204 -0.027470328 0.108583234 0.069404036 -0.03589979 -0.028965106 -0.053597327
0.02881256 0.03817372 -0.124654636 -0.064425066 0.03191902 -0.004183362 -0.043705124 -0.033505972
0.116290174 0.009803508 -0.024095837 -0.05329357 -0.014124688 -0.008813383 0.03982438 0.023414012
0.007227372 0.011695507 0.002069542 -0.041810635 -0.008051851 -0.02646227 0.017366828 0.015361009
0.027046716 0.037987243 0.028774736 0.021270845 -0.0027789017 0.023225136 -0.110342585 -0.03273096
-0.011763853 -0.020405244 -0.018988978 0.0073084454 -0.035979703 -0.007998212 -0.031601027 -0.07643757
0.06593509 -0.10638189 -0.0067254244 -0.023070367 0.034180988 -0.0411787 -0.005589814 -0.04573184
-0.01113069 0.0077233184 -0.021559587 0.07339051 -0.004464068 0.09109763 -0.025279801 0.022688756
0.0007099316 -0.14840356 -0.021185068 0.0060310885 0.15629676 0.007094516 -0.025085691 0.11911153
-0.030011218 -0.029510967 -0.020028306 -0.02985237 0.013885925 0.008327138 -0.012668777 0.024326712
-0.13353403 0.026228804 0.0072684926 0.13979894 0.14626557 0.0072586685 0.0017451098 -0.08050547
-0.09821611 0.0059495233 -0.042785283 0.010378913 0.026833104 -0.0011120881 0.1774598 -0.026436055
0.009949007 -0.02224315 0.10347133 0.108385906 -0.09019865 0.018721057 -0.07309437 -0.04838675
0.01161314 -0.04112277 -0.0036535442 -0.03726495 -0.0020822445 0.046927854 -0.094678685 0.014871898
0.008379971 -0.020462036 0.015211448 0.08724296 0.007409342 0.030978898 0.006148485 -0.0029350182
-0.00557382 0.033422034 -0.040292375 0.113665655 0.023488764 0.031631276 0.0054682354 -0.107895926
00000000: a42a 31be 3b7f 183d d63b 49be fd03 eb3c
00000010: 6b6b f13b 7df7 bfbb 4656 c73b 3213 a9bb
00000020: 2c75 023d 3210 debc 418c c0bc ba12 8cbd
00000030: b0cb 39bd 40d6 3dbe 2bb3 19bd bced 11be
00000040: fc11 9cbd d331 383c 2af9 893c ab75 e2bd
00000050: 2632 b7bc fd8a 2dbd 768b f2bd 7b19 343b
00000060: c52a b8bb 7a39 54bc 1f43 a8bc c0c8 1bbc
00000070: 3a56 04bd aa47 2b3e cb80 f93b d61e a3bc
00000080: b044 c3bd 855a b73d 03a1 f9bc 2faf 02bd
00000090: e613 dabc c237 1f3b dffa db3d 9bf7 b2bc
000000a0: f79f cb3d 84b2 9f3b 7db1 a23c 752d 19bd
000000b0: 15ed ef3c cd36 37bd 1516 62bd 0621 15be
000000c0: 00f2 203d 2caf 92bc 23d4 05bd 0ce2 153c
000000d0: 94f0 78bc fbdc 21bc bdc6 fbbb 12fa c73c
000000e0: 9d67 81b9 9a38 4ebd 81d8 103e 9c8f f6bd
000000f0: a176 e13b 1844 a8bb e751 fdbd 884b 543d
00000100: dbe1 e6bd 2724 5f3d 5eb3 323b 2896 be3c
00000110: e3e3 503d 5ca8 613c 6da3 0c3e 8d0e 963c
00000120: 3062 61bc f56f 66bc 4ba4 c73d 8be8 253d
00000130: 53a1 41be 6edd 663c 7456 13bd d56d 063d
00000140: 195d 033e d39f 48be 514d c53d 850c 1e3c
00000150: dc73 893d 8c05 4a3d 048f fabb 2bb4 16be
00000160: 6d36 e93d 216c 55bc 3c1f f03b 0163 ef3d
00000170: 9183 6ebd 79ea 1dbc 9271 1c3d afb9 c33c
00000180: 96e0 383d ba80 dc3b 2035 013d fc90 3fbd
00000190: 4a0e f93c b291 19bc c082 cebd fc27 25bc
000001a0: 6e4f 01bd d38a 9d3a d38e 443d e242 a4bd
000001b0: e044 56bd 1fdf 483b 90c7 d93a 2195 a83c
000001c0: 1989 4fbc ae6c 843c fd80 2b3c e2d8 d43c
000001d0: 7515 88bb 661e e13c d962 38be a91c 873c
000001e0: a3ab f73b 6a6a 41bc 75da b8bc 4df1 323e
000001f0: efb2 c23c fef8 d139 4809 01bd 5e22 78bc
00000200: 7358 f73d 1f06 b93a 7409 e1bc e360 de3d
00000210: b423 8e3d a80b 13bd 3b48 edbc df88 5bbd
00000220: 5108 ec3c 0c5c 1c3d ee4a ffbd 4af1 83bd
00000230: 85bd 023d 9514 89bb 2504 33bd 8f3d 09bd
00000240: 8b29 ee3d e59e 203c a264 c5bc 5c4a 5abd
00000250: 3c6b 67bc 0266 10bc e41e 233d bece bf3c
00000260: 97d3 ec3b 839e 3f3c 27a1 073b a141 2bbd
00000270: e9eb 03bc 67c7 d8bc e144 8e3c beac 7b3c
00000280: 1391 dd3c 8398 1b3d ffb8 eb3c 3240 ae3c
00000290: 3c1e 36bb a442 be3c 4bfb e1bd e610 06bd
000002a0: 2dbd 40bc e628 a7bc c68e 9bbc af7b ef3b
000002b0: 745f 13bd ef0a 03bc 1470 01bd 4d8b 9cbd
000002c0: fa08 873d c0de d9bd f360 dcbb 11fe bcbc
000002d0: 5d01 0c3d ffaa 28bd c22a b7bb 4f51 3bbd
000002e0: 7f5d 36bc e413 fd3b bb9d b0bc c44d 963d
000002f0: 5147 92bb 6591 ba3d 9617 cfbc c5dd b93c
00000300: b41a 3a3a 1af7 17be 4f8c adbc 70a0 c53b
00000310: 420c 203e 1d79 e83b 8280 cdbc bff0 f33d
00000320: 16da f5bc fcc0 f1bc 6712 a4bc f58c f4bc
00000330: ca81 633c 8c6e 083c b490 4fbc d048 c73c
00000340: 25bd 08be cadd d63c 892c ee3b 7427 0f3e
00000350: a4c6 153e 20da ed3b 2bbc e43a 0de0 a4bd
00000360: 8725 c9bd 38f4 c23b 9f3f 2fbd 510c 2a3c
00000370: 19d1 db3c 7cc3 91ba 06b8 353e 6d90 d8bc
00000380: 2901 233c 4437 b6bc c7e8 d33d 6ef9 dd3d
00000390: 12ba b8bd e75c 993c 80b2 95bd 2f31 46bd
000003a0: 0a45 3e3c 5a70 28bd 4d70 6fbb 22a3 18bd
000003b0: 4476 08bb 6c37 403d e6e6 c1bd 43a9 733c
000003c0: 254c 093c 00a0 a7bc 7039 793c 70ac b23d
000003d0: 11ca f23b 75c7 fd3c 3b79 c93b 6f59 40bb
000003e0: 97a4 b6bb 8be5 083d 9e09 25bd 8ac9 e83d
000003f0: 826b c03c cc8f 013d e22e b33b 8af8 dcbd

fc2_layer.weight f4 [256, 256]
-0.015873136 -0.0030755464 -0.04897238 0.0067196153 0.017079478 -0.047663435 0.07642969 -0.012176072
-0.061497808 0.016999444 -0.01908386 0.05285605 0.032147765 -0.0010071907 0.0058461986 -0.03588747
0.020070525 0.03941212 0.077122025 0.039298236 -0.036659975 -0.026539996 -0.013969385 -0.049367163
-0.07220641 0.052650034 0.013182246 -0.05456915 0.0224587 0.10510814 -0.0073617753 -0.020194499
-0.021737231 0.04755301 0.15491207 -0.026895836 0.019259255 0.008814449 0.0009336516 0.020815376
0.02608216 -0.19016542 0.0505382 -0.030375173 0.07348871 0.016966367 0.0035187136 -0.014064473
0.092113644 0.12123905 -0.010395953 0.0040642493 0.019173387 -0.037805665 -0.032036163 0.030529458
-0.027093094 0.018940672 0.023626706 -0.057653863 0.008930153 -0.029550785 0.011055302 0.012573022
0.08363822 0.04136015 -0.051105507 -0.09916226 -0.10547987 0.06931675 -0.09636774 0.05853322
0.032812264 -0.044253875 -0.015275724 -0.06568248 -0.05914006 -0.034082685 -0.087222576 -0.03938277
-0.10322752 0.065200046 -0.090127476 0.033313032 0.0050791395 -0.037434645 -0.02925303 -0.018707335
-0.031758357 -0.12795591 0.06324207 -0.035666443 -0.0735872 0.07157952 0.028662758 0.0625763
-0.072430365 -0.018549994 0.015028125 -0.044031497 -0.044176444 -0.044209935 0.02445788 0.04733865
0.040136624 0.03248711 0.0787036 0.009359753 0.037079707 0.035219897 -0.051240206 0.09304567
0.033607453 -0.037766885 -0.031210592 -0.01290555 -0.035538655 0.10622808 -0.08228376 0.040734027
-0.015364695 0.025639694 0.0096665565 0.00808976 0.010039065 -0.041778136 -0.044511735 0.012174709
-0.028215922 -0.011491042 -0.025399048 -0.026946126 -0.030825913 0.057601195 0.044076964 -0.043698557
0.0874386 0.04578425 0.030001221 0.0058438354 -0.06254741 -0.033872053 0.05444581 -0.06839771
-0.08272374 0.060366802 0.012642344 -0.01681768 -0.08159515 -0.035169777 0.014615403 0.090501435
0.015142492 0.0375939 0.016724724 0.021763591 0.074518695 0.05699167 0.015522127 0.046487223
-0.046152975 -0.021666925 0.092072986 0.004554165 0.020836996 -0.03758448 -0.0037962226 -0.03040794
-0.014305827 -0.033182055 0.072931625 0.073573336 -0.046828534 0.011009759 -0.00923437 0.060508102
-0.021511784 -0.05851198 0.033751193 -0.025139952 -0.0021533412 -0.029030554 0.10770483 0.016913673
-0.031327922 -0.013470648 -0.104981236 -0.072845526 0.12203807 0.0015660538 -0.0719297 -0.031062007
-0.015809897 -0.039150957 -0.08950492 -0.001566543 -0.055910423 -0.03961418 0.030929934 0.03945172
-0.026277274 0.0037596677 0.03011186 0.0022620372 0.07675059 -0.056759425 -0.015512814 -0.07000564
0.028565707 0.070430644 -0.032838944 -0.014803506 -0.021356145 -0.0046006073 -0.028469803 -0.013262332
0.029869651 0.025063047 0.11170579 0.013611063 0.018120455 -0.0754762 -0.034126095 -0.090321824
-0.05671343 0.07929161 0.04787953 0.029635398 0.05972616 0.022902146 0.10011374 -0.08223975
-0.028596748 -0.09418598 0.021913541 -0.033231955 -0.056293692 0.030420946 -0.01127729 -0.09991522
0.021832285 -0.09843438 -0.04784631 -0.042450693 0.019744927 -0.0052422634 0.04291409 -0.0346831
-0.044597253 0.021600844 -0.03923537 -0.034602407 -0.00026544233 0.014010828 0.13221754 -0.13559508
00000000: 6108 82bc 1b8f 49bb 4397 48bd 3830 dc3b
00000010: 43ea 8b3c bc3a 43bd 2b87 9c3d 267e 47bc
00000020: 20e5 7bbd 6b42 8b3c c155 9cbc 967f 583d
00000030: 60ad 033d b603 84ba 7891 bf3b bdfe 12bd
00000040: f16a a43c 9a6e 213d 27f2 9d3d 30f7 203d
00000050: c528 16bd 686a d9bc d9df 64bc 3935 4abd
00000060: f4e0 93bd 90a7 573d 59fa 573c e783 5fbd
00000070: 4ffb b73c f042 d73d 0c3b f1bb ef6e a5bc
00000080: 4712 b2bc f2c6 423d 45a1 1e3e a854 dcbc
00000090: 96c5 9d3c 7b6a 103c 4cc0 743a 0285 aa3c
000000a0: 41aa d53c b9ba 42be 2501 4f3d 5bd5 f8bc
000000b0: 4081 963d 0dfd 8a3c 389a 663b ad6e 66bc
000000c0: 14a6 bc3d 2e4c f83d ca53 2abc 652d 853b
000000d0: 8211 9d3c 1dda 1abd 5a38 03bd ea18 fa3c
000000e0: 56f2 ddbc 7829 9b3c cb8c c13c 7526 6cbd
000000f0: c74f 123c 7d14 f2bc 4c21 353c 14ff 4d3c
00000100: 844a ab3d 4369 293d 0254 51bd 9515 cbbd
00000110: d505 d8bd f1f5 8d3d 735c c5bd 88c0 6f3d
00000120: 2766 063d 8d43 35bd 0847 7abc 8984 86bd
00000130: d93c 72bd 499a 0bbd c0a1 b2bd d44f 21bd
00000140: f368 d3bd 9a87 853d c194 b8bd 3f73 083d
00000150: e96e a63b 1255 19bd 0da4 efbc 2040 99bc
00000160: 0d15 02bd e006 03be 0f85 813d fa16 12bd
00000170: e3b4 96bd 4998 923d 29ce ea3c 0128 803d
00000180: 5f56 94bd 28f6 97bc 8638 763c 5f5a 34bd
00000190: 5cf2 34bd 7a15 35bd e45b c83c 2ce6 413d
000001a0: 4d66 243d 3411 053d 5a2f a13d a659 193c
000001b0: e4e0 173d bd42 103d 40e1 51bd ba8e be3d
000001c0: f8a7 093d 73b1 1abd 5bad ffbc cd71 53bc
000001d0: fb90 11bd 1c8e d93d 6384 a8bd b9d8 263d
000001e0: 34bc 7bbc 560a d23c 7a60 1e3c ea8a 043c
000001f0: e47a 243c 8d1f 2bbd f051 36bd 6e78 473c
00000200: 1425 e7bc ec44 3cbc aa11 d0bc 1fbe dcbc
00000210: a086 fcbc 3bef 6b3d 0c8a 343d 42fd 32bd
00000220: 0213 b33d 4488 3b3d 1fc5 f53c a57d bf3b
00000230: db18 80bd 6cbd 0abd 9202 5f3d 1914 8cbd
00000240: 106b a9bd 2e43 773d d621 4f3c 3bc5 89bc
00000250: 5c1b a7bd 2f0e 10bd 7175 6f3c d158 b93d
00000260: 3718 783c 10fc 193d 4a02 893c 8f49 b23c
00000270: 429d 983d 1970 693d 8550 7e3c 6369 3e3d
00000280: e70a 3dbd d67e b1bc c390 bc3d 1b3b 953b
00000290: 59b2 aa3c 2ff2 19bd 0cca 78bb 121a f9bc
000002a0: fd62 6abc e8e9 07bd 2d5d 953d 9ead 963d
000002b0: 47cf 3fbd 4762 343c c14b 17bc 58d7 773d
000002c0: 7b39 b0bc 42aa 6fbd b13e 0a3d 4df2 cdbc
000002d0: 121f 0dbb 7cd1 edbc 5a94 dc3d 8b8e 8a3c
000002e0: b551 00bd feb3 5cbc 6700 d7bd 0930 95bd
000002f0: 18ef f93d 0c44 cd3a e14f 93bd c075 febc
00000300: c283 81bc c15c 20bd 5b4e b7bd 7654 cdba
00000310: 5402 65bd 7a42 22bd c660 fd3c 2098 213d
00000320: 7043 d7bc c264 763b 26ad f63c b03e 143b
00000330: 6a2f 9d3d 927c 68bd 7529 7ebc 1e5f 8fbd
00000340: a102 ea3c f13d 903d 2182 06bd 688a 72bc
00000350: 15f3 aebc b1c0 96bb 8139 e9bc 414a 59bc
00000360: 33b1 f43c 0551 cd3c 01c6 e43d f000 5f3c
00000370: 5971 943c 4493 9abd cec7 0bbd a6fa b8bd
00000380: 574c 68bd a463 a23d 531d 443d efc5 f23c
00000390: 6ba3 743d 489d bb3c 6f08 cd3d 506d a8bd
000003a0: ba43 eabc 94e4 c0bd 0784 b33c 3b1e 08bd
000003b0: 3794 66bd 5935 f93c 62c4 38bc 5aa0 ccbd
000003c0: 9fd9 b23c f797 c9bd 7efa 43bd c7e0 2dbd
000003d0: 1dc0 a13c 4bc7 abbb afc6 2f3d de0f 0ebd
000003e0: 9cab 36bd 41f4 b03c 44b5 20bd 41bb 0dbd
000003f0: 112b 8bb9 ac8d 653c 0964 073e 70d9 0abe

fc2_layer.bias f4 [256]
-0.024693986 -0.009132963 0.020131331 0.03544048 -0.0020981207 0.020036714 0.00010031094 -0.00855343
-0.0053635687 0.17307903 0.0019340067 -0.04014786 -0.020578403 0.027381027 -0.025673514 0.0017468868
-0.013838139 -0.0014652361 -0.012536165 0.024842005 -0.017825415 -0.002663273 -0.018513491 0.026309751
-0.030654257 0.013050914 -0.025479319 -0.022173926 -0.0047185738 -0.027341178 -0.037008002 -0.015748655
-0.020924684 0.0047969716 -0.042676713 -0.043881238 -0.06672774 -0.03267245 0.006955008 0.108241364
0.002802349 -0.011642914 -0.0019224897 0.045277726 -0.011489804 0.011750969 -0.05082959 -0.021695718
-0.020338394 -0.028383035 -0.0443243 0.0080294665 -0.068620905 -0.09942292 -0.043220825 0.12146545
0.0631613 0.014795096 0.021212187 -0.030692982 0.025011955 0.03733999 -0.0033548549 -0.046528917
-0.036700603 0.034469083 0.0060758786 -0.004892296 -0.004530092 -0.032532703 0.017187808 -0.030800847
0.020648604 0.048883963 -0.038427643 -0.019367121 -0.00907596 0.27456936 0.025573354 -0.0023453357
0.029905973 -0.076803595 -0.026546188 0.014786797 -0.0033094971 0.042504296 0.0022533236 -0.021708678
0.0061344947 0.1568367 -0.055415444 0.019524097 -0.04268016 -0.03389091 -0.03814108 0.05349768
0.051989052 -0.02697673 -0.016128382 0.0023454186 -0.26167247 -0.0070028636 -0.050026238 0.0044850856
0.02125021 0.009803183 -0.029561596 -0.009761999 -0.007318267 0.0039425013 0.2813716 -0.05277047
0.013415234 0.008122137 0.014069578 -0.006169487 -0.01927537 0.14396253 -0.0793301 -0.02444801
0.033224992 0.070391715 0.011958823 0.04811674 -0.03989774 -0.010056875 -0.06169192 -0.013162904
0.025466984 0.040288217 -0.0025756028 -0.011289838 -0.02077331 -0.031220198 -0.036761634 -0.015460645
-0.0321152 -0.059727907 -0.042554043 0.05924073 -0.020860735 0.03745499 0.04018131 -0.018722894
0.034980904 0.010820196 0.030279547 -0.011801142 0.085552424 -0.028418345 -0.0559867 -0.005963007
-0.005544481 0.015079426 0.019497942 -0.022283006 0.028355604 -0.0056097545 0.13634321 -0.019882055
-0.061726473 -0.027361803 -0.09799863 -0.03812927 -0.058356088 -0.011094862 0.058218908 0.02852984
-0.016601125 0.00029920007 -0.056418024 0.0034347936 0.03825255 -0.04027734 -0.03792497 -0.03925368
0.03502027 0.010421565 -0.03107326 0.037560064 0.085871056 0.00850539 0.0024233386 0.004495748
-0.009624168 0.026218627 0.043800324 -0.016938426 0.011586839 0.01788176 0.11505697 -0.12258862
0.007420618 0.033755396 0.028142853 -0.05433397 -0.036279593 0.00058606046 -0.03176256 0.013946306
-0.06918683 -0.010541834 -0.00090274075 0.005784785 0.008510017 -0.016033482 -0.008154579 -0.0095831165
-0.036402926 0.0042831223 -0.028513076 -0.00470828 0.0029197354 0.010655257 -0.03718732 0.10054357
-0.053077515 -0.020470954 -0.03357084 0.02486361 -0.010891139 0.013592928 -0.029009448 -0.041755643
-0.00904807 -0.09878756 -0.042023875 0.04111662 0.051642705 -0.021238893 0.033982664 0.04508416
-0.053665247 0.032437675 0.019752532 0.0018413168 -0.0062299166 0.037965417 -0.009577934 0.028740006
0.030682176 0.00026435353 -0.06821238 0.0051533785 -0.0085331965 0.016529426 -0.0037934 0.03159984
-0.042085886 -0.05352079 0.14808248 -0.047288254 -0.016464641 0.020342752 0.00470436 -0.03133029
00000000: 0b4b cabc 6ca2 15bc 76ea a43c 092a 113d
00000010: a080 09bb 0924 a43c 075e d238 b023 0cbc
00000020: e0c0 afbb a13b 313e 7f7e fd3a 1572 24bd
00000030: 0a94 a8bc 2d4e e03c 4351 d2bc cbf7 e43a
00000040: 5db9 62bc 2a0d c0ba 7d64 4dbc 7681 cb3c
00000050: 9b06 92bc 4e8a 2ebb 9ba9 97bc 8c87 d73c
00000060: a31e fbbc 80d3 553c 01ba d0bc 18a6 b5bc
00000070: 449e 9abb 9bfa dfbc b495 17bd 5303 81bc
00000080: 3e6a abbc ea2f 9d3b c7cd 2ebd d0bc 33bd
00000090: 8ea8 88bd 8cd3 05bd d6e6 e33b a6ad dd3d
000000a0: 9da7 373b ecc1 3ebc 0dfc fbba 2375 393d
000000b0: bb3f 3cbc 2387 403c b032 50bd 38bb b1bc
000000c0: b49c a6bc 8a83 e8bc 668d 35bd 068e 033c
000000d0: 1e89 8cbd 3e9e cbbd 5208 31bd e1c2 f83d
000000e0: b65a 813d 2167 723c 2ec5 ad3c d96f fbbc
000000f0: dfe5 cc3c d1f1 183d 20dd 5bbb 1b95 3ebd
00000100: 5f53 16bd 742f 0d3d 2a18 c73b 8e4f a0bb
00000110: 2a71 94bb 0341 05bd 72cd 8c3c 0f52 fcbc
00000120: 4327 a93c 8d3a 483d 4e66 1dbd cca7 9ebc
00000130: 56b3 14bc 5b94 8c3e 367f d13c 34b4 19bb
00000140: 5ffd f43c 344b 9dbd 6477 d9bc 5244 723c
00000150: 26e4 58bb fc18 2e3d 7fac 133b 66d6 b1bc
00000160: df03 c93b cd99 203e 4efb 62bd 00f1 9f3c
00000170: 64d1 2ebd 32d1 0abd d239 1cbd 6220 5b3d
00000180: 79f2 543d 4efe dcbc ab1f 84bc 98b5 193b
00000190: eff9 85be 4778 e5bb 50e8 4cbd a0f7 923b
000001a0: ec14 ae3c 889d 203c 292b f2bc cbf0 1fbc
000001b0: 13ce efbb 1930 813b f00f 903e d925 58bd
000001c0: 92cb 5b3c b612 053c 1684 663c 6829 cabb
000001d0: 61e7 9dbc ea6a 133e d277 a2bd 3147 c8bc
000001e0: ee16 083d 8829 903d f0ee 433c 0f16 453d
000001f0: d06b 23bd 97c5 24bc abb0 7cbd 39a9 57bc
00000200: 23a0 d03c 4205 253d 72cb 28bb 03f9 38bc
00000210: ca2c aabc 80c1 ffbc 5e93 16bd a54e 7dbc
00000220: 3a8b 03bd 40a5 74bd 264d 2ebd 68a6 723d
00000230: 22e4 aabc 676a 193d 2895 243d c160 99bc
00000240: 2348 0f3d 3147 313c d00c f83c 9459 41bc
00000250: 1c36 af3d 97cd e8bc 4f52 65bd 5465 c3bb
00000260: 7aae b5bb b20f 773c 26ba 9f3c da8a b6bc
00000270: 034a e83c 08d2 b7bb 8e9d 0b3e b1df a2bc
00000280: e6d4 7cbd dc25 e0bc 81b3 c8bd 702d 1cbd
00000290: cb06 6fbd 39c7 35bc f376 6e3d 69b7 e93c
000002a0: 15ff 87bc f4dd 9c39 9616 67bd 461a 613b
000002b0: b5ae 1c3d daf9 24bd 3757 1bbd 77c8 20bd
000002c0: 6a71 0f3d 36bf 2a3c 598d febc 95d8 193d
000002d0: 2add af3d 315a 0b3c e0d0 1e3b 1151 933b
000002e0: b0ae 1dbc 72c8 d63c f867 333d 74c2 8abc
000002f0: bad6 3d3c c57c 923c fda2 eb3d be0f fbbd
00000300: a828 f33b 1943 0a3d d78b e63c 4c8d 5ebd
00000310: e999 14bd daa1 193a 7519 02bd 0c7f 643c
00000320: d3b1 8dbd a8b7 2cbc e8a5 6cba 4b8e bd3b
00000330: 996d 0b3c a658 83bc c99a 05bc 8102 1dbc
00000340: 3c1b 15bd 6f59 8c3b 4194 e9bc ea47 9abb
00000350: 0859 3f3b 6393 2e3c bb51 18bd cae9 cd3d
00000360: cf67 59bd b4b2 a7bc 9481 09bd c5ae cb3c
00000370: bf70 32bc dfb4 5e3c 39a5 edbc f707 2bbd
00000380: 5b3e 14bc 2251 cabd 3a21 2cbd e769 283d
00000390: 4d87 533d 30fd adbc 6831 0b3d 2baa 383d
000003a0: 17d0 5bbd 5edd 043d 10d0 a13c 5758 f13a
000003b0: 5424 ccbb a081 1b3d c4ec 1cbc 2970 eb3c
000003c0: 3059 fb3c ee98 8a39 efb2 8bbd acdd a83b
000003d0: d2ce 0bbc b868 873c b19a 78bb d56e 013d
000003e0: 4062 2cbd 9e38 5bbd efa2 173e 54b1 41bd
000003f0: dbe0 86bc d8a5 a63c 0827 9a3b 3154 00bd

critic_out_layer.weight f4 [1, 256]
0.009417863 -0.0072812866 -0.0010069655 -0.004805691 -0.0010457422 -0.0007522599 -0.0053730826 -0.0020780927
0.00085170165 -0.0009072791 0.0021027913 -0.00087105675 0.0040975194 -0.008151388 0.0013154882 -5.2404706e-05
0.0056085824 -0.0034026343 -0.00923864 0.0041027023 -0.04448464 0.0028291442 0.0008961767 0.0028544748
0.0083531635 -0.0061824145 0.007887811 0.00017428448 -0.001624437 -0.0013157637 0.009684423 -0.048944637
-0.0008926266 0.0022536628 0.006638551 0.013682364 0.0027895658 0.0023730358 -0.00011537201 -0.006985207
-0.0031591458 -0.008145876 -0.0007099105 0.002176323 0.00031888028 -0.0059185075 0.0076696407 0.0042068167
-0.0004260803 0.0021961646 0.0019331643 -0.0011070509 0.00606962 0.070743226 -0.0022092108 -0.047627565
-0.011107977 0.0030009178 -0.0017623322 0.002404228 -2.0965728e-05 -0.011937944 -0.0019359997 0.0014246457
0.0049885586 -0.001646707 0.0025335369 0.00542875 0.0015085166 0.00351724 -0.010019801 0.0037486346
0.035393313 -0.004100027 0.0014394817 0.007748244 0.0033128134 0.054887515 0.00024784953 0.0030118716
-0.00038182738 0.0041845352 -0.00089147355 5.2584757e-05 -0.00755955 0.00036716554 0.0014053092 -0.00041924743
-0.003571974 -0.072138295 0.0041995854 0.0018819282 0.0137195755 0.011002273 0.002660482 -0.0029195074
-0.007868074 -0.0036678044 0.005010343 -0.008121543 -0.030770648 0.0039208704 0.0064397925 -0.0054750964
-0.0059930496 -0.0005021469 0.0010731797 0.0019413065 0.00027581785 0.008759937 0.03826484 0.004592857
0.0012542995 -0.00080754654 -0.0026075884 0.0022412357 0.0027956925 -0.047728013 0.005032006 0.0010125989
-0.0034131417 -0.011443082 -0.002375676 -0.0030892622 0.0067549758 0.0033782688 0.0091677075 -0.0019101062
-0.0007549033 -0.009980623 0.0017671569 -0.002016355 -0.0028014479 0.0033740364 0.0025914488 -2.6636035e-05
0.00032596302 0.08627844 -0.0017707457 0.0015802648 0.0038858515 -0.007788712 -0.0014718795 0.0037023737
0.0018306128 0.0036082761 -0.0015184302 0.00237803 0.0014354557 5.3328018e-05 0.00573838 0.0013470321
-0.006636937 0.004279299 0.0017798324 0.007046596 0.0072387103 0.004968002 -0.06926087 0.0018294839
0.00929639 0.006561015 0.048392653 -0.0041432637 0.010020649 0.0010639561 -0.00045023783 -0.00093064294
0.0059500365 -0.0050442764 -0.0008389375 -0.0003080658 -0.007293136 0.0028230883 -0.0043263794 0.006644959
0.0063522127 -0.0037070166 0.009788175 0.0013517092 -0.03150885 0.00045713765 0.020526735 0.006006046
-0.0003822598 -0.0060993717 0.0066630803 -0.0032271254 0.000108185646 -0.008154968 -0.048466906 0.0018119371
0.004049266 -0.0054913806 -0.005148058 0.008232909 -0.0007462307 -0.00082034944 -0.0002879377 -0.0004916469
0.00991469 -0.0080423495 0.0018354446 9.719681e-06 0.00413269 -0.0025840905 -0.0031285877 0.0030165417
0.007720011 -0.0013808705 0.010772971 0.0029675718 0.0030885113 -0.0009906514 0.002931368 -0.021637036
0.012684018 0.0027962194 0.0069668847 0.0020683098 0.011264587 0.0008153769 0.0050262106 -0.006866221
-0.0060036313 0.00078210956 0.0023607134 -0.0056194454 -0.0027178333 0.0021011648 -0.0027989163 -0.005516509
0.0026066042 -0.0028320686 0.0010262881 -0.0026503738 -0.035859298 -0.005274694 0.0009504748 0.00045530676
0.0014830097 0.00042086467 -0.0040413337 0.004416083 0.003990962 0.00319029 0.009681168 -0.007577525
0.0067298356 0.0018961789 -0.03856423 0.004803384 -0.0041341763 -6.267135e-05 0.0009682578 0.012833627
00000000: 614d 1a3c dc97 eebb 28fc 83ba 0f79 9dbb
00000010: 4911 89ba 4f33 45ba af10 b0bb 9c30 08bb
00000020: bb44 5f3a 78d6 6dba fcce 093b a157 64ba
00000030: 7c44 863b 668d 05bc 766c ac3a 20cd 5bb8
00000040: 33c8 b73b bbfe 5ebb aa5d 17bc f66f 863b
00000050: 8735 36bd 2a69 393b 66ed 6a3a 2412 3b3b
00000060: b5db 083c da95 cabb e13b 013c 22c0 3639
00000070: 10eb d4ba b475 acba 6aab 1e3c 2c7a 48bd
00000080: 28ff 69ba 30b2 133b 3488 d93b fe2b 603c
00000090: 26d1 363b ef84 1b3b e0f3 f1b8 2ae4 e4bb
000000a0: ac09 4fbb 4876 05bc 4a19 3aba a4a0 0e3b
000000b0: 632f a739 0af0 c1bb 9c51 fb3b 56d9 893b
000000c0: 8863 dfb9 87ed 0f3b 3b62 fd3a 771a 91ba
000000d0: aae3 c63b d3e1 903d 68c8 10bb 1f15 43bd
000000e0: 3bfe 35bc 0cab 443b 0efe e6ba 4190 1d3b
000000f0: 8fdf afb7 5e97 43bc 5fc1 fdba 2dbb ba3a
00000100: 1077 a33b 51d6 d7ba b209 263b a8e3 b13b
00000110: 6bb9 c53a 7f81 663b 172a 24bc a7ab 753b
00000120: 94f8 103d 8559 86bb feac bc3a fbe4 fd3b
00000130: c91b 593b bbd1 603d cdf1 8139 d262 453b
00000140: 0130 c8b9 6d1e 893b c7b1 69ba 748e 5c38
00000150: 1ab6 f7bb 2080 c039 5a32 b83a 70ce dbb9
00000160: c817 6abb 3ebd 93bd ad9c 893b 08ab f63a
00000170: 12c8 603c e142 343c 7b5b 2e3b 3555 3fbb
00000180: 18e9 00bc 8c5f 70bb ce2d a43b 3810 05bc
00000190: ba12 fcbc a57a 803b e504 d33b 7068 b3bb
000001a0: 5861 c4bb 82a2 03ba efa9 8c3a 7073 fe3a
000001b0: a59b 9039 d785 0f3c 98bb 1c3d ad7f 963b
000001c0: 4f67 a43a 88b1 53ba 13e4 2abb b2e1 123b
000001d0: f037 373b 737e 43bd 87e3 a43b 2eb9 843a
000001e0: 04af 5fbb c47b 3bbc 3bb1 1bbb 3875 4abb
000001f0: d858 dd3b f265 5d3b 2734 163c 875c faba
00000200: b4e4 45ba c485 23bc f29f e73a d324 04bb
00000210: 7f98 37bb f01e 5d3b 4cd5 293b 7370 dfb7
00000220: 04e6 aa39 c0b2 b03d 5e18 e8ba e320 cf3a
00000230: c5a9 7e3b 7438 ffbb 15ec c0ba 86a3 723b
00000240: 2cf1 ef3a d478 6c3b 1006 c7ba b9d8 1b3b
00000250: e725 bc3a 86ac 5f38 0509 bc3b e68e b03a
00000260: aa7a d9bb 5d39 8c3b 4449 e93a 22e7 e63b
00000270: b432 ed3b 9fca a23b a5d8 8dbd 4bcb ef3a
00000280: e34f 183c c8fd d63b 6037 463d 37c4 87bb
00000290: a62d 243c 7174 8b3a e60d ecb9 64f6 73ba
000002a0: 86f8 c23b 754a a5bb 25ec 5bba e483 a1b9
000002b0: 42fb eebb 9003 393b 4dc4 8dbb f5bd d93b
000002c0: 3926 d03b 6bf1 72bb 955e 203c d62b b13a
000002d0: 6d0f 01bd faab ef39 af27 a83c 5ece c43b
000002e0: 0b6a c8b9 3ddd c7bb f855 da3b 2e7e 53bb
000002f0: bae1 e238 6a9c 05bc 3c85 46bd 857e ed3a
00000300: b5af 843b 0af1 b3bb 0ab1 a8bb 53e3 063c
00000310: b29e 43ba b80c 57ba 58f6 96b9 dde1 00ba
00000320: 3971 223c 0fc4 03bc 4d93 f03a b611 2337
00000330: 846b 873b d859 29bb fe08 4dbb 2cb1 453b
00000340: 25f8 fc3b 53fe b4ba 1e81 303c 987b 423b
00000350: 9f68 4a3b bfd8 81ba 321c 403b 2740 b1bc
00000360: a1d0 4f3c c740 373b 774a e43b 7b8c 073b
00000370: 1a8f 383c 04bf 553a e9b2 a43b 09fe e0bb
00000380: 1cba c4bb 7c06 4d3a 33b6 1a3b 5323 b8bb
00000390: ad1d 32bb b2b3 093b 066e 37bb d5c3 b4bb
000003a0: 90d3 2a3b 3a9a 39bb 8484 863a e5b1 2dbb
000003b0: 33e1 12bd 57d7 acbb 4929 793a 3db6 ee39
000003c0: 8c61 c23a 80a7 dc39 2a6d 84bb cab4 903b
000003d0: 9ec6 823b 2f14 513b c39d 1e3c e34c f8bb
000003e0: f485 dc3b 3589 f83a 87f5 1dbd b565 9d3b
000003f0: fc77 87bb 6d6e 83b8 aed2 7d3a 2244 523c
