projet/models/actor_critic/conv_player_1_critic.pth (torch, 737251 bytes, 9 tensors)

conv_1.weight f4 [32, 1, 3, 3]
0.21685798 -0.30803195 -0.16054465 0.058574755 -0.2258263 -0.09622617 -0.0020263405 -0.23560096
-0.041906893 -0.10546215 0.55381685 -0.34772748 0.033108316 -0.16590163 0.14202267 -0.044204045
0.042281322 0.01103864 0.11181984 0.18220384 -0.034780953 -0.07283462 0.15925886 -0.06781185
-0.012016912 0.08639731 -0.024703506 -0.1250665 0.07340384 0.04468228 0.013620274 -0.013885711
0.08232528 0.027066229 -0.0034487846 0.03855459 -0.5378222 -0.072903454 -0.039706238 0.09064716
0.087835975 0.009121512 0.2366514 -0.033674207 -0.014546464 0.038298048 0.22174793 0.048941534
0.08377103 -0.03674084 0.046205238 -0.0042359983 -0.00264906 -0.033112917 -0.06307735 -0.062078163
-0.19464417 0.042462584 0.0494667 -0.056545924 -0.08186449 -0.06889551 -0.072315805 0.116086625
0.01727209 -0.076130465 -0.07319919 0.03302993 -0.039125707 -0.031392854 0.032443527 0.021124605
0.16871697 0.054910902 -0.22972259 -0.019990217 0.026294297 -0.106187135 -0.048944693 -0.013068066
0.11447224 0.32362118 -0.44449985 -0.23215884 0.04879422 -0.030490119 -0.10303345 0.04037839
-0.030345228 -0.028216884 -0.403608 0.00196268 -0.025558418 0.17071891 0.03688747 -0.104176
0.1211572 0.044734985 -0.0872315 -0.06404788 -0.06477754 0.0006465977 -0.12059088 -0.0021641946
-0.0076478706 -0.09011049 0.05047284 0.053719014 0.05254929 0.40508178 -0.39322722 0.006363435
0.30291963 0.19062446 -0.03275912 0.21644932 0.09149613 -0.21662146 0.11310979 0.11601501
-0.09489338 0.12769093 0.13509774 0.049681 0.029588474 0.12305961 -0.087226436 0.5108512
-0.15671252 -0.029352315 -0.041846976 -0.110171825 -0.07907404 -0.20548907 0.030005971 0.5917332
-0.24921255 0.252383 0.022717359 -0.025727417 -0.17585127 -0.028583497 0.025356539 0.03409426
-0.3716038 -0.0039444664 -0.13602081 0.14827377 -0.036645334 -0.11695541 0.11485017 0.071636565
-0.04163976 0.077323586 0.24646343 -0.6012662 -0.21178794 0.091120996 0.08032992 -0.014086673
-0.20424394 0.18884401 0.3319688 0.48580667 0.01876164 -0.11160301 0.07341552 -0.10326235
0.13395995 -0.033693492 0.120492026 -0.58223224 -0.017674351 -0.06790531 -0.06999586 -0.10324472
0.055719674 0.045714654 0.10224393 -0.045748703 0.06964387 0.0117872665 0.08089673 0.00057726866
-0.022482563 0.04291861 0.0010612184 -0.026160419 -0.041064464 0.27146864 0.27300322 0.07943735
0.17852826 -0.19362052 -0.022972493 0.18655953 -0.1329033 0.082330294 0.08357802 -0.21204782
0.36905348 0.10755792 -0.034113664 -0.21573715 -0.041103393 0.04233286 -0.24939246 0.021286225
0.00047532673 -0.05245683 0.0004732717 0.02027049 -0.08876777 -0.031657778 0.048137072 0.005952009
-0.1740667 -0.6041818 -0.1850417 0.06374715 0.3582197 -0.086870305 -0.055841926 0.00076189847
-0.005833768 0.38926682 -0.06491918 -0.26741976 0.33596763 0.019795647 0.05160301 0.24081433
-0.12791811 -0.09637047 -0.0067255506 0.1112459 0.119013675 0.08974787 -0.0019834747 0.05089098
0.0018532529 -0.064940155 -0.008077528 0.20492998 -0.20526774 0.36421457 -0.07144071 -0.207407
-0.05196584 0.09494364 0.11478683 -0.15061843 0.46582446 0.29983184 -0.011480699 -0.162162
00000000: 0510 5e3e 5db6 9dbe d165 24be 15ec 6f3d
00000010: 023f 67be 3a12 c5bd 5acc 04bb 6141 71be
00000020: 90a6 2bbd 8afc d7bd f1c6 0d3f 5609 b2be
00000030: 969c 073d 1ee2 29be 646e 113e 4d0f 35bd
00000040: 2e2f 2d3d 69db 343c cd01 e53d a593 3a3e
00000050: 7976 0ebd 512a 95bd c114 233e f0e0 8abd
00000060: 95e2 44bc 13f1 b03d 025f cabc 6f11 00be
00000070: c154 963d c404 373d 9227 5f3c e580 63bc
00000080: 289a a83d ffb9 dd3c 0105 62bb 6beb 1d3d
00000090: b7ae 09bf 684e 95bd 02a3 22bd 38a5 b93d
000000a0: 59e3 b33d 6572 153c bf54 723e f7ed 09bd
000000b0: 4b54 6ebc 6ade 1c3d e411 633e eb76 483d
000000c0: 2590 ab3d 907d 16bd b441 3d3d 21ce 8abb
000000d0: da9b 2dbb 69a1 07bd b32e 81bd ac45 7ebd
000000e0: cd50 47be 3fed 2d3d 989d 4a3d b39c 67bd
000000f0: 92a8 a7bd 1719 8dbd 4f1a 94bd d3be ed3d
00000100: 337e 8d3c 4aea 9bbd 75e9 95bd 644a 073d
00000110: 4742 20bd cb95 00bd 81e3 043d 820d ad3c
00000120: 24c4 2c3e 41ea 603d 663c 6bbe 86c2 a3bc
00000130: 2367 d73c a478 d9bd 3b7a 48bd 711b 56bc
00000140: 6c70 ea3d adb1 a53e 7c95 e3be 0cbb 6dbe
00000150: 73dc 473d 6ac6 f9bc 3403 d3bd d063 253d
00000160: 8e96 f8bc 1827 e7bc b5a5 cebe 4ea0 003b
00000170: e35f d1bc f0d0 2e3e 5117 173d 3a5a d5bd
00000180: 4421 f83d 083c 373d 6ea6 b2bd 892b 83bd
00000190: 16aa 84bd 7080 293a 5af8 f6bd 29d5 0dbb
000001a0: fd9a fabb d98b b8bd 9cbc 4e3d 7808 5c3d
000001b0: ed3d 573d e166 cf3e 1455 c9be 5d84 d03b
000001c0: 4818 9b3e 0f33 433e 6d2e 06bd e4a4 5d3e
000001d0: 5362 bb3d 04d2 5dbe 1ba6 e73d 4799 ed3d
000001e0: 7657 c2bd 69c1 023e 1057 0a3e 4e7e 4b3d
000001f0: 8763 f23c ad06 fc3d c6a3 b2bd 25c7 023f
00000200: 3f79 20be 4474 f0bc bc67 2bbd c4a1 e1bd
00000210: 92f1 a1bd ba6b 52be 15cf f53c d47b 173f
00000220: 9331 7fbe 5838 813e c119 ba3c 4ec2 d2bc
00000230: 5b12 34be f027 eabc 84b8 cf3c 6ca6 0b3d
00000240: da42 bebe 9540 81bb 0a49 0bbe 14d5 173e
00000250: 6b19 16bd 5186 efbd 9136 eb3d 31b6 923d
00000260: 748e 2abd d45b 9e3d e960 7c3e 95ec 19bf
00000270: f0de 58be a59d ba3d 0384 a43d cacb 66bc
00000280: 5325 51be 5360 413e d1f7 a93e a7bb f83e
00000290: 03b2 993c 1e90 e4bd e05a 963d 367b d3bd
000002a0: cc2c 093e 3002 0abd 86c4 f63d 2c0d 15bf
000002b0: cdc9 90bc f011 8bbd fd59 8fbd f871 d3bd
000002c0: 503a 643d 4a3f 3b3d 4465 d13d fe62 3bbd
000002d0: 72a1 8e3d 611f 413c 2fad a53d d853 173a
000002e0: 5a2d b8bc 6dcb 2f3d 9518 8b3a 604e d6bc
000002f0: 3633 28bd f0fd 8a3e 14c7 8b3e 0db0 a23d
00000300: 1dd0 363e 7544 46be cf30 bcbc 7609 3f3e
00000310: cd17 08be c99c a83d f42a ab3d 1023 59be
00000320: 94f4 bc3e 5447 dc3d c5ba 0bbd 33ea 5cbe
00000330: 085c 28bd 3965 2d3d bd60 7fbe 7360 ae3c
00000340: 4635 f939 f9dc 56bd 7421 f839 4c0e a63c
00000350: e0cb b5bd 96ab 01bd 612b 453d 1209 c33b
00000360: 8a3e 32be a9ab 1abf 927b 3dbe de8d 823d
00000370: 9368 b73e 0fe9 b1bd 81ba 64bd 24ba 473a
00000380: 3129 bfbb fb4d c73e 59f4 84bd 3eeb 88be
00000390: f303 ac3e 7b2a a23c ae5d 533d 0898 763e
000003a0: f7fc 02be e25d c5bd 0262 dcbb e4d4 e33d
000003b0: 71bd f33d bbcd b73d 2ffd 01bb 0f73 503d
000003c0: d9e8 f23a 58ff 84bd 9c57 04bc 2ad9 513e
000003d0: b531 52be 557a ba3e 824f 92bd 8062 54be
000003e0: 22da 54bd d071 c23d 5c15 eb3d b83b 1abe
000003f0: 8b80 ee3e 8f83 993e 8b19 3cbc cc0d 26be

conv_1.bias f4 [32]
-0.37755105 -0.29758605 -0.48506874 -0.4276621 -0.4068095 -0.4640113 -0.67426616 -0.44245553
-0.35815746 -0.18578677 -0.45177385 0.24071665 -0.37381646 -0.27165356 -0.38141254 -0.12239279
-0.3796238 -0.3494363 -0.16101196 -0.21941386 -0.17286888 -0.37478504 -0.5947278 -0.27468297
-0.3818896 -0.37634224 -0.47473416 -0.35478294 -0.27564704 -0.56730944 -0.40389568 -0.32941145
00000000: 5f4e c1be 335d 98be ee5a f8be 87f6 dabe
00000010: 5649 d0be e492 edbe b59c 2cbf 8889 e2be
00000020: 6a60 b7be e33e 3ebe e74e e7be 6d7e 763e
00000030: df64 bfbe 2d16 8bbe 8148 c3be 12a9 fabd
00000040: 0d5e c2be 51e9 b2be 52e0 24be 07ae 60be
00000050: 8a04 31be d3e3 bfbe 1540 18bf 3fa3 8cbe
00000060: 0987 c3be eeaf c0be 5b10 f3be 1ca6 b5be
00000070: 9c21 8dbe 313b 11bf 6acb cebe 9ea8 a8be

conv_2.weight f4 [64, 32, 3, 3]
-0.042460695 0.026624633 0.028565217 -0.078522295 -0.09158248 -0.14931187 -0.02462912 0.035078824
-0.06590609 -0.039885122 0.003484916 0.0016807828 -0.05253762 0.0005075742 -0.041921396 -0.023525497
-0.09121953 0.07286414 -0.010946611 -0.05863129 0.014286266 -0.0144363055 0.06632255 -0.05300054
-0.07452045 -0.024643237 -0.0048412397 -0.021472838 0.022676298 0.028418949 -0.08211419 -0.016735202
0.06334318 -0.041456938 0.04238958 -0.040653657 -0.008205129 -0.13415998 0.011731071 -0.050899643
-0.09278972 0.07943051 -0.05023692 -0.0024283417 -0.041103072 0.014268289 -0.0045379205 -0.046727713
-0.02483228 -0.0043362295 0.009139204 -0.0023487976 -0.01961735 -0.020106955 -0.035670117 -0.058671847
0.025375089 0.00281472 -0.064097576 -0.035749782 0.031880446 -0.030294841 -0.033063028 -0.07785883
-0.087948404 0.051318824 -0.0009781375 -0.068200946 -0.06091586 -0.027718939 0.05973668 0.029127838
-0.0553695 -0.10836746 -0.029093204 -0.0026471613 0.01164858 0.0017920418 -0.03778174 -0.06392012
0.022408945 -0.07882813 -0.0224496 -0.04014851 -0.08325437 -0.030190306 0.08806073 -0.0088183945
0.0626367 0.010463498 0.0062447046 0.023944536 -0.0021882176 -0.077355035 -0.05534415 -0.0750305
-0.018410068 -0.02009446 -0.04167733 -0.030399743 -0.06792088 -0.12867874 -0.025882332 -0.033672385
-0.027730536 0.00014828386 -0.037858486 -0.0074529853 -0.09710116 -0.028535025 -0.027596828 -0.07350621
0.047102563 -0.010153665 -0.041039195 -0.0351125 -0.006755405 0.042250816 0.03353901 -0.019588528
-0.048230316 -0.0043674894 -0.03443555 -0.120446555 -0.022314122 -0.034236528 -0.040109206 0.04770317
0.041232947 0.043525185 0.003807433 -0.044764817 -0.028953206 -0.07275784 -0.025826113 -0.039065037
-0.009690642 0.01910187 -0.07039664 0.024255157 -0.009403742 -0.041670192 0.03329889 -0.03739694
-0.11329125 0.029366344 -0.07550978 -0.0733677 -0.17037225 -0.024313755 0.019273968 -0.032898486
-0.0133132795 -0.02734493 -0.08658135 0.009788054 0.071742326 -0.014646138 -0.1343122 -0.15817638
0.048000284 0.037672505 -0.025094215 0.020083206 -0.025863387 -0.043098416 -0.04928442 -0.03219493
-0.02174696 -0.11763588 -0.095541626 -0.09159805 -0.0136602335 -0.013050718 -0.076194145 -0.14198682
0.0029308393 -0.0029392748 -0.117017254 0.022408368 -0.03216575 -0.13059421 -0.07369505 -0.15018733
-0.044863023 -0.046387956 -0.06522303 -0.09147697 -0.061494168 -2.585653e-06 0.036120016 -0.034038432
0.042612378 -0.012801692 -0.015247516 -0.07635332 -0.078295894 -0.015462604 -0.033030726 -0.07873442
0.026560623 -0.019441579 -0.058081757 -0.05488721 -0.051698662 0.12865186 0.021798877 -0.03778954
-0.043956764 0.007247417 -0.02702052 0.0011288304 0.03451946 0.04257474 -0.027797973 -0.0016587636
-0.026562007 0.0043407227 0.007997982 0.0043926877 -0.058060795 -0.06897662 0.0054829624 0.018789688
-0.10503015 -0.015065942 0.07103557 -0.015626265 -0.045288347 -0.08952284 0.010888907 -0.017550774
-0.12959813 0.036764853 0.018475637 -0.04992357 0.041572686 -0.055309933 -0.06933603 -0.047161322
-0.011499415 -0.031926956 0.06345984 -0.027019989 -0.021517629 -0.017171074 0.03759243 0.005339257
-0.019941784 -0.03304965 -0.047080215 0.05831665 -0.08091071 0.018145714 -0.09326848 0.021835996
00000000: 44eb 2dbd e71b da3c 9a01 ea3c 4cd0 a0bd
00000010: 988f bbbd 36e5 18be 02c3 c9bc d0ae 0f3d
00000020: c6f9 86bd 955e 23bd 3063 643b b64d dc3a
00000030: b031 57bd ba0e 053a c5b5 2bbd 8bb8 c0bc
00000040: 4ed1 babd cb39 953d 6a59 33bc 5d27 70bd
00000050: f110 6a3c 4186 6cbc 1ed4 873d 1817 59bd
00000060: 2d9e 98bd 9de0 c9bc 43a3 9ebb cee7 afbc
00000070: a5c3 b93c dbce e83c 7c2b a8bd 4318 89bc
00000080: 12ba 813d c0ce 29bd b2a0 2d3d 7384 26bd
00000090: ce6e 06bc 3c61 09be ae33 403c 257c 50bd
000000a0: 8908 bebd 77ac a23d 3bc5 4dbd d024 1fbb
000000b0: b25b 28bd 8bc5 693c d6b2 94bb 8f65 3fbd
000000c0: 116d cbbc ee16 8ebb 9abc 153c 49ee 19bb
000000d0: 91b4 a0bc 57b7 a4bc d41a 12bd e451 70bd
000000e0: 6bdf cf3c 2a77 383b 9745 83bd 5d6e 12bd
000000f0: 1295 023d e32c f8bc 196d 07bd 7374 9fbd
00000100: 4b1e b4bd b033 523d d934 80ba f0ac 8bbd
00000110: e982 79bd d412 e3bc 73ae 743d 819d ee3c
00000120: 21cb 62bd c2ef ddbd df54 eebc ff7b 2dbb
00000130: b0d9 3e3c f2e2 ea3a 07c1 1abd 8de8 82bd
00000140: f792 b73c a570 a1bd 39e8 b7bc c472 24bd
00000150: 4481 aabd a951 f7bc 2f59 b43d 077b 10bc
00000160: ac47 803d 176f 2b3c 61a0 cc3b 5527 c43c
00000170: 3368 0fbb 516c 9ebd 8cb0 62bd 97a9 99bd
00000180: b6d0 96bc 239d a4bc d9b5 2abd e208 f9bc
00000190: 1a1a 8bbd 5cc4 03be 2f07 d4bc 0eec 09bd
000001a0: 262b e3bc a57c 1b39 8011 1bbd 2c38 f4bb
000001b0: f9dc c6bd 49c2 e9bc be12 e2bc 6d8a 96bd
000001c0: 9eee 403d 8f5b 26bc b718 28bd 20d2 0fbd
000001d0: 725c ddbb 310f 2d3d 3360 093d 1f78 a0bc
000001e0: 278d 45bd 281d 8fbb 4b0c 0dbd afac f6bd
000001f0: 1bcc b6bc 9a3b 0cbd 8d49 24bd 6664 433d
00000200: e1e3 283d 7747 323d 2086 793b 505b 37bd
00000210: 462f edbc 1002 95bd 4991 d3bc a902 20bd
00000220: 80c5 1ebc 867b 9c3c 1d2c 90bd c0b2 c63c
00000230: 2712 1abc 5dae 2abd 6b64 083d 892d 19bd
00000240: 3e05 e8bd b091 f03c dfa4 9abd ce41 96bd
00000250: 1076 2ebe a42d c7bc 71e4 9d3c 90c0 06bd
00000260: f11f 5abc 7a02 e0bc 9051 b1bd 135e 203c
00000270: a4ed 923d 5bf6 6fbc 2389 09be fdf8 21be
00000280: f29b 443d 7c4e 1a3d 6292 cdbc 8985 a43c
00000290: 74df d3bc f787 30bd 76de 49bd d5de 03bd
000002a0: ae26 b2bc 15eb f0bd 54ab c3bd c297 bbbd
000002b0: 2ccf 5fbc aed2 55bc ad0b 9cbd fe64 11be
000002c0: 5313 403b d9a0 40bb bea6 efbd c191 b73c
000002d0: 3cc0 03bd 7dba 05be 6eed 96bd b5ca 19be
000002e0: 4ac2 37bd 4c01 3ebd a793 85bd 4758 bbbd
000002f0: 4fe1 7bbd 2e85 2db6 95f2 133d e26b 0bbd
00000300: 518a 2e3d 30be 51bc b8d0 79bc 215f 9cbd
00000310: 9959 a0bd dd56 7dbc 3a4b 07bd 833f a1bd
00000320: aa95 d93c f243 9fbc 23e7 6dbd 69d1 60bd
00000330: fac1 53bd 50bd 033e 8f93 b23c 34c9 1abd
00000340: 020c 34bd bd7b ed3b 235a ddbc 43f5 933a
00000350: 4764 0d3d da62 2e3d 93b8 e3bc df6a d9ba
00000360: 9198 d9bc 9f3c 8e3b f809 033c 89f0 8f3b
00000370: 28d1 6dbd 9d43 8dbd 6caa b33b d5ec 993c
00000380: 0c1a d7bd 24d7 76bc 197b 913d a702 80bc
00000390: 4680 39bd c057 b7bd 6367 323c a4c6 8fbc
000003a0: 5fb5 04be be96 163d 385a 973c a87c 4cbd
000003b0: 1f48 2a3d ab8c 62bd 0c00 8ebd 3b2c 41bd
000003c0: 0b68 3cbc d7c5 02bd 3cf7 813d 0659 ddbc
000003d0: bd45 b0bc 5aaa 8cbc 85fa 193d eff4 ae3b
000003e0: f45c a3bc 125f 07bd 2fd7 40bd 71dd 6e3d
000003f0: 84b4 a5bd 52a6 943c 8b03 bfbd 67e1 b23c

conv_2.bias f4 [64]
-0.037613437 -0.10833804 -0.033199698 0.017918212 -0.066449046 -0.038913123 -0.009637829 -0.1225905
0.002594024 -0.06902253 -0.087161325 -0.005393859 -0.07546353 0.0965431 -0.024475683 0.0030839432
-0.013069391 -0.10569688 -0.06275718 -0.041325733 -0.16312853 -0.05958734 -0.13308312 0.014911247
-0.02726985 -0.049259152 -0.1089235 -0.002106209 -0.011363864 -0.08243487 -0.05083866 -0.04716194
-0.032956526 -0.020466324 -0.08147099 0.25403357 -0.052700557 -0.04971629 -0.037306115 -0.018854264
-0.0648229 -0.042180873 -0.061029144 -0.04534661 -0.02092282 -0.051324498 -0.031423654 -0.12342352
-0.027649174 -0.058759093 -0.046295617 -0.03750304 -0.03151331 -0.06378054 -0.08638883 -0.08027529
-0.057224832 -0.035983905 -0.033073932 -0.031822387 -0.06821955 -0.031307902 -0.089241214 -0.055657543
00000000: 8c10 1abd 56e0 ddbd 68fc 07bd 37c9 923c
00000010: 7016 88bd 5e63 1fbd fce7 1dbc ba10 fbbd
00000020: 8000 2a3b af5b 8dbd a381 b2bd f8be b0bb
00000030: a08c 9abd 64b8 c53d 3a81 c8bc fb1b 4a3b
00000040: 0021 56bc 9b77 d8bd d686 80bd 2c45 29bd
00000050: 2a0b 27be db11 74bd f146 08be 4e4e 743c
00000060: 0565 dfbc f7c3 49bd 4913 dfbd 5308 0abb
00000070: 802f 3abc 9dd3 a8bd 333c 50bd e12c 41bd
00000080: 6cfd 06bd fea8 a7bc 43da a6bd b010 823e
00000090: 8adc 57bd 4fa3 4bbd 4cce 18bd 4274 9abc
000000a0: dec1 84bd dac5 2cbd b2f9 79bd 5ebd 39bd
000000b0: 5566 abbc a339 52bd 17b6 00bd 78c5 fcbd
000000c0: 8580 e2bc 60ad 70bd 79a0 3dbd ca9c 19bd
000000d0: 1a14 01bd 5f9f 82bd a0ec b0bd 5f67 a4bd
000000e0: 9664 6abd dc63 13bd 8878 07bd 3158 02bd
000000f0: b1b6 8bbd b73c 00bd 19c4 b6bd 2af9 63bd

fc1_layer.weight f4 [256, 384]
-0.08112134 0.04709927 -0.07838741 -0.0034827408 -0.025519948 -0.03181558 0.033083715 0.017787615
0.028388232 -0.017829815 -0.106291935 -0.029913245 0.044493403 -0.013877979 0.02582071 -0.028501952
0.062138487 -0.079065666 -0.041437667 0.04486377 0.06178875 -0.02287872 -0.027667297 0.05090957
0.034484293 0.0038003817 0.007342947 -0.009908869 0.040234104 0.036286317 -0.018586636 -0.035465304
0.042837355 0.06940493 0.028210258 -0.030246994 -0.020970186 0.025456173 -0.0027106318 -0.039962847
0.030197645 0.025469903 -0.12992793 0.06795737 -0.06564264 -0.061907507 0.08803716 0.0037728152
-0.00710988 -0.101036415 0.015161916 0.078294314 0.004189339 0.032992437 -0.043370835 0.019770231
-0.025342306 0.0109112505 -0.041667346 -0.0201846 -0.04345975 0.030351736 -0.014220398 0.04782962
0.0026616894 -0.0048565883 0.021876518 0.030638425 -0.0010571536 0.0114170555 0.036287397 0.039249074
-0.0071955184 -0.014137779 -0.02850673 -0.018553361 -0.01892135 0.027276728 0.08063578 0.03743166
-0.04538194 0.10366358 0.10153694 -0.024867395 0.0031137052 0.04083467 -0.04439023 0.06132015
-0.006998105 -0.028197266 -0.068578415 0.025893657 -0.029286513 0.03903212 0.038334325 -0.0007128762
-0.0027003896 0.031398356 0.042667422 0.017977698 0.0477562 0.035923474 0.060478043 -0.018886942
0.0145622315 0.008609516 -0.10265767 0.0042925947 -0.011469052 -0.02526436 -0.040600438 0.020501502
-0.020182064 -0.006181773 -0.018642856 -0.013157229 0.08001989 -0.022040632 -0.017063744 0.009581586
0.044156488 -0.07151095 0.021429375 -0.04359027 -0.08923088 -0.063455515 -0.022868728 0.04432952
0.076227315 0.06888172 -0.039728913 -0.048185837 0.015032464 0.034911066 -0.10636768 -0.037801642
-0.0054584322 -0.023671683 0.029282622 0.02883338 -0.023613205 -0.023383332 0.0004370075 -0.04252196
0.004918067 0.058283046 -0.032308638 0.03535938 -0.014240216 -0.047198735 0.031563934 0.024804957
-0.03709535 -0.035978492 0.008766063 -0.024166707 -0.07462464 0.025082605 0.034477543 0.009520535
-0.03792036 -0.04203719 0.001519186 -0.010132617 -0.028487166 0.009238335 -0.007059377 0.012111633
0.05942752 -0.00015175855 0.000619931 0.034951825 0.03897356 -0.014018608 0.03690017 -0.049464162
-0.01866855 -0.018989025 0.018170806 -0.04040239 0.007840921 0.013446519 0.03864705 -0.008450585
-0.017957631 0.031144783 0.007931357 0.0010363288 0.03518598 -0.05401827 0.017132256 0.026479624
-0.04327567 0.02952426 0.022810658 0.039589413 -0.00086822064 0.020725166 0.0072318525 0.024991954
-0.037749305 -0.05246137 -0.086860605 -0.06510156 0.036642436 -0.03170124 0.04976179 0.015049182
-0.0029409796 -0.008159677 -0.095377445 -0.054888286 -0.11354729 0.07320625 0.07722457 0.022892565
-0.010862854 -0.09491367 -0.014308478 -0.011661053 -0.024690473 0.082388476 -0.041381903 0.06880363
0.04919808 0.026343131 0.0037403817 0.030624645 0.0411698 0.015203111 -0.04949363 0.08094349
0.002974867 0.063838735 0.040542543 0.009979452 0.07263315 0.007107793 -0.12452396 0.06619617
-0.03470641 0.05456542 0.035455715 -0.00633983 0.04507466 -0.04468043 -0.0016251418 -0.043679304
0.02026879 0.023957673 -0.009477805 0.022919226 -0.024511462 0.017496478 0.0039829956 0.015552755
00000000: f222 a6bd 2aeb 403d 9489 a0bd b23e 64bb
00000010: 360f d1bc 0e51 02bd ca82 073d 55b7 913c
00000020: 708e e83c d50f 92bc 96af d9bd 9f0c f5bc
00000030: b73e 363d 7660 63bc f485 d33c ed7c e9bc
00000040: ed84 7e3d 2eed a1bd 8bba 29bd 13c3 373d
00000050: 3316 7d3d 276c bbbc 87a6 e2bc 8e86 503d
00000060: 673f 0d3d d30f 793b 1b9d f03b cf58 22bc
00000070: 84cc 243d f6a0 143d 0043 98bc 1144 11bd
00000080: 3976 2f3d 2c24 8e3d 3319 e73c 8bc8 f7bc
00000090: abc9 abbc 7789 d03c dba4 31bb 15b0 23bd
000000a0: 0d61 f73c 42a6 d03c d40b 05be 3c2d 8b3d
000000b0: a66f 86bd ba92 7dbd d44c b43d 5641 773b
000000c0: fff9 e8bb 2eec cebd af69 783c c558 a03d
000000d0: b946 893b 1423 073d 9ea5 31bd 2ef5 a13c
000000e0: ab9a cfbc 1ac5 323c 61ab 2abd 2d5a a5bc
000000f0: da02 32bd 34a4 f83c acfc 68bc fee8 433d
00000100: bd6f 2e3b 0424 9fbb 6236 b33c 6ffd fa3c
00000110: 3090 8aba 9a0e 3b3c 18a2 143d a3c3 203d
00000120: 62c8 ebbb 25a2 67bc f286 e9bc 38fd 97bc
00000130: f200 9bbc 7273 df3c 5f24 a53d f151 193d
00000140: 6ae2 39bd 924d d43d 99f2 cf3d b5b6 cbbc
00000150: 4e0f 4c3b 4142 273d 88d2 35bd d62a 7b3d
00000160: 5c50 e5bb f4fd e6bc d772 8cbd ef1e d43c
00000170: 45ea efbc 25e0 1f3d 7404 1d3d 50e0 3aba
00000180: 05f9 30bb 909b 003d 09c4 2e3d f745 933c
00000190: 019c 433d 7e24 133d d3b7 773d cab8 9abc
000001a0: 6d96 6e3c ed0e 0d3c 2f3e d2bd e5a8 8c3b
000001b0: b1e8 3bbc 34f7 cebc a54c 26bd c4f2 a73c
000001c0: db54 a5bc 7890 cabb e7b8 98bc 6b91 57bc
000001d0: 78e1 a33d 8e8e b4bc 44c9 8bbc 16fc 1c3c
000001e0: 6fdd 343d 5574 92bd a88c af3c b68b 32bd
000001f0: aebe b6bd f7f4 81bd 3357 bbbc df92 353d
00000200: 111d 9c3d dc11 8d3d c9ba 22bd 835e 45bd
00000210: b94a 763c e8fe 0e3d 4cd7 d9bd e5d5 1abd
00000220: a6dc b2bb 1eeb c1bc 1ce2 ef3c fb33 ec3c
00000230: 7b70 c1bc 678e bfbc 271e e539 822b 2ebd
00000240: bc27 a13b 34ba 6e3d 1056 04bd ffd4 103d
00000250: cc4f 69bc 7653 41bd 2f49 013d c433 cb3c
00000260: 4bf1 17bd 2f5e 13bd 889f 0f3c 42f9 c5bc
00000270: ced4 98bd 097a cd3c 5338 0d3d 05fc 1b3c
00000280: 6152 1bbd 302f 2cbd 6c1f c73a 4703 26bc
00000290: eb5d e9bc 635c 173c 5952 e7bb df6f 463c
000002a0: 456a 733d 6021 1fb9 dd82 223a a529 0f3d
000002b0: bda2 1f3d 4eae 65bc a224 173d ef9a 4abd
000002c0: c9ee 98bc df8e 9bbc f1da 943c fa7c 25bd
000002d0: 3577 003c ca4e 5c3c 5e4c 1e3d 5374 0abc
000002e0: e21b 93bc 5823 ff3c 86f2 013c 6dd5 873a
000002f0: 2d1f 103d 4342 5dbd f258 8c3c cceb d83c
00000300: d441 31bd dcdc f13c 6bdd ba3c 8228 223d
00000310: 4d99 63ba d3c7 a93c 2df9 ec3b edbb cc3c
00000320: 049f 1abd bce1 56bd f9e3 b1bd f753 85bd
00000330: 6116 163d 29d9 01bd 05d3 4b3d d890 763c
00000340: 73bd 40bb 2ab0 05bc 4055 c3bd 8ad2 60bd
00000350: 7b8b e8bd 29ed 953d ea27 9e3d 3089 bb3c
00000360: 1dfa 31bc 1962 c2bd 1b6e 6abc 000e 3fbc
00000370: ad43 cabc 4abb a83d 1280 29bd ebe8 8c3d
00000380: ed83 493d 8dcd d73c 3121 753b 89e0 fa3c
00000390: aaa1 283d 7816 793c d5b9 4abd b3c5 a53d
000003a0: fcf5 423b e2bd 823d f00f 263d db80 233c
000003b0: b0c0 943d 7de8 e83b 6b06 ffbd dc91 873d
000003c0: 4f28 0ebd fd7f 5f3d 033a 113d 59be cfbb
000003d0: 35a0 383d d402 37bd b602 d5ba 12e9 32bd
000003e0: bc0a a63c e242 c43c cc48 1bbc 1ac1 bb3c
000003f0: 43cc c8bc c654 8f3c ca83 823b fcd0 7e3c

fc1_layer.bias f4 [256]
-0.009647637 0.02833899 0.06281262 0.021533083 0.080648676 0.028708596 0.025559012 0.017564021
0.0025461095 0.02299605 -0.013291054 -0.020729618 0.016199261 0.026693888 -0.02548598 -0.010533531
-0.004219796 -0.016679976 0.0068605687 -0.017223725 -0.024930514 0.023100637 -0.0055548185 -0.0077725165
-0.02373299 -0.0072636534 0.027329387 0.01605888 0.019953433 -0.009629674 0.010396853 -0.0076468387
0.035344213 -0.0031699603 0.015195506 -0.035833485 0.015452682 -0.023122258 0.013334916 -0.0058200723
-0.012902659 0.021149715 0.009960081 -0.0044957967 -0.0008500341 -0.0062278695 -0.008654597 -0.024313308
0.018965641 -0.030910527 -0.017089348 0.03166878 0.0045424807 0.027082184 0.01003006 -0.007923209
0.0067076036 -0.015973756 -0.02645698 0.014612642 -0.014085979 0.018013012 0.019047767 0.023794064
-0.018537963 0.009948372 0.02407685 0.019930292 -0.009462025 -0.08673387 -0.0005467682 0.00163739
-0.015753273 -0.017934222 0.012590185 -0.027736902 0.021195376 0.034070455 0.0238038 0.008232757
-0.02291043 -0.0150229735 0.008494326 -0.018116247 0.013062471 -0.03357726 -0.032883924 -0.013459743
0.0032271217 0.013337005 -0.026764361 -0.036743697 0.01573943 -0.022930348 0.022055864 0.011778088
0.028807363 0.023250204 -0.019595277 -0.023551956 0.000990562 0.019882618 0.0049686013 -0.007786462
-0.014809764 -0.025335092 0.0040969644 0.0070221215 0.025057113 -0.06306757 0.004622368 -0.078149185
0.022353925 0.019002754 -0.021714216 -0.021090811 0.030113218 -0.022398913 -0.01420515 0.011765931
0.032480564 -0.017030615 -0.014819964 0.01008312 -0.019155735 0.0065972926 -0.027189415 -0.010122349
-0.010507208 0.0269962 0.032609563 -0.0056088236 -0.026002593 0.011494804 -0.020430533 -0.016421543
0.024737714 0.0097044725 0.021463277 0.0038430302 0.08019044 0.026779264 0.0056644864 0.03078182
-0.016382843 -0.0002719619 -0.07232215 -0.02472948 0.0030865674 -0.0039221225 -0.01666306 -0.029164275
0.012647396 -0.0060601057 0.025936566 0.03657238 0.023039745 0.095325805 0.035992913 -0.024937224
0.028014576 0.018108282 0.023741253 0.018363127 0.028112017 0.024834683 -0.031454228 -0.009635391
-0.004490977 0.0058238115 -0.02006995 0.029734833 -0.022812791 -0.027222902 -0.0041452753 0.026212947
-0.024967778 -0.036820844 0.021299247 -0.020070883 0.023836883 0.011851956 -0.02732416 0.015302078
0.018493284 0.009110166 -0.028273538 0.004231107 -0.014914605 0.01817316 0.0012436423 -0.018673318
-0.020143308 -0.003772554 -0.0036119055 0.012665376 -0.012504305 -0.0141033055 0.0020833788 0.0029130813
-0.02085389 0.0076701585 -0.0019648059 -0.03965312 -0.018911542 0.01277242 -0.025708865 -0.09089524
0.008863336 0.01701793 0.017141985 0.023425868 -0.007781532 -0.01695981 -0.009486911 0.013194036
-0.009191089 0.040934734 0.020829136 -0.024490753 -0.017797446 0.0158387 -0.022030642 -0.030527182
-0.013866173 -0.02185077 -0.021156972 0.026015425 -0.0022329926 -0.026899185 -0.022820543 0.0020351969
0.025880767 0.00017805834 -0.020824824 0.008773067 -0.015877826 0.022727251 -0.012044075 0.02569555
0.034623068 0.017607622 -0.02469294 -0.024540251 -0.018499373 -0.019253412 0.01926988 0.026614534
0.009827309 0.004846703 -0.0083855875 -0.0076797428 -0.033154853 -0.00015237744 0.028873513 -0.0038867798
00000000: 1f11 1ebc 2b27 e83c e7a3 803d 2666 b03c
00000010: 222b a53d 4a2e eb3c 2261 d13c 6ce2 8f3c
00000020: a1dc 263b 3662 bc3c b9c2 59bc 29d1 a9bc
00000030: 50b4 843c 24ad da3c f9c7 d0bc d594 2cbc
00000040: 3746 8abb 72a4 88bc 9fce e03b c518 8dbc
00000050: 143b ccbc 8c3d bd3c 3205 b6bb 98b0 febb
00000060: b06b c2bc f103 eebb e1e1 df3c ea8d 833c
00000070: 6275 a33c c8c5 1dbc 9057 2a3c 5592 fabb
00000080: 18c5 103d 1cbf 4fbb 92f6 783c 22c6 12bd
00000090: 3f2d 7d3c e46a bdbc b17a 5a3c 4eb6 bebb
000000a0: ad65 53bc 2b42 ad3c 9c2f 233c 7a51 93bb
000000b0: d3d4 5eba 2813 ccbb 03cc 0dbc b42c c7bc
000000c0: d55d 9b3c 1338 fdbc f6fe 8bbc 1fb7 013d
000000d0: 17d9 943b 75db dd3c 1f55 243c 59d0 01bc
000000e0: 75cb db3b 65db 82bc 4fbc d8bc dd69 6f3c
000000f0: e1c8 66bc 0690 933c 100a 9c3c c5eb c23c
00000100: eddc 97bc 7ffe 223c d03c c53c da44 a33c
00000110: 9c06 1bbc 87a1 b1bd fe54 0fba b19d d63a
00000120: 020d 81bc caea 92bc 1047 4e3c 8038 e3bc
00000130: eda1 ad3c 768d 0b3d 3000 c33c b0e2 063c
00000140: a7ae bbbc eb22 76bc c92b 0b3c 8668 94bc
00000150: f903 563c 4f88 09bd 4bb1 06bd 4186 5cbc
00000160: 1e7e 533b 7483 5a3c ef40 dbbc 8f80 16bd
00000170: faef 803c 6dd8 bbbc 80ae b43c e2f8 403c
00000180: 6bfd eb3c 3677 be3c 4686 a0bc 08f0 c0bc
00000190: bfd5 813a dfe0 a23c a6cf a23b 9425 ffbb
000001a0: a7a4 72bc 8a8b cfbc d43f 863b d319 e63b
000001b0: 9344 cd3c 9229 81bd 3c77 973b ae0c a0bd
000001c0: 941f b73c aaab 9b3c 03e2 b1bc a3c6 acbc
000001d0: ffaf f63c ed7d b7bc b8bc 68bc e4c5 403c
000001e0: 570a 053d ca83 8bbc 6fcf 72bc ac33 253c
000001f0: 7dec 9cbc 1a2e d83b 56bc debc 35d8 25bc
00000200: 6d26 2cbc 2327 dd3c 9b91 053d 39ca b7bb
00000210: 6403 d5bc b454 3c3c ef5d a7bc 7986 86bc
00000220: bfa6 ca3c 82ff 1e3c c1d3 af3c 59db 7b3b
00000230: e33a a43d 3060 db3c 289d b93b 282a fc3c
00000240: 5035 86bc 1c96 8eb9 a31d 94bd 7a95 cabc
00000250: 0248 4a3b 2685 80bb f880 88bc ebe9 eebc
00000260: 0637 4f3c da93 c6bb ec78 d43c eccc 153d
00000270: d9bd bc3c 2d3a c33d 4e6d 133d 2649 ccbc
00000280: d37e e53c d257 943c 047d c23c 456e 963c
00000290: 2c4b e63c 1b72 cb3c 26d6 00bd c2dd 1dbc
000002a0: 0c29 93bb acd5 be3b bc69 a4bc 7796 f33c
000002b0: e4e1 babc 9002 dfbc 17d5 87bb 89bc d63c
000002c0: 3a89 ccbc 74d1 16bd c27b ae3c b16b a4bc
000002d0: 9145 c33c b52e 423c ebd6 dfbc 91b5 7a3c
000002e0: 3a7f 973c ce42 153c e89d e7bc 19a5 8a3b
000002f0: 635c 74bc e1df 943c b601 a33a c9f8 98bc
00000300: 9403 a5bc f43c 77bb b8b5 6cbb 7082 4f3c
00000310: dbde 4cbc 8d11 67bc 4c89 083b 65e9 3e3b
00000320: c7d5 aabc f455 fb3b f9c3 00bb 4f6b 22bd
00000330: 61ec 9abc 6a43 513c 669b d2bc 4927 babd
00000340: 8737 113c 3069 8b3c 596d 8c3c 9be7 bf3c
00000350: 39fc febb 4def 8abc fd6e 1bbc cc2b 583c
00000360: 3996 16bc 2eab 273d dda1 aa3c d5a0 c8bc
00000370: f3cb 91bc 29c0 813c 9b79 b4bc 2414 fabc
00000380: f22e 63bc 6300 b3bc 6351 adbc 4d1e d53c
00000390: 6657 12bb ae5b dcbc 26f2 babc f060 053b
000003a0: e703 d43c 2cb5 3a39 d298 aabc e9bc 0f3c
000003b0: 3712 82bc 802e ba3c 8354 45bc 797f d23c
000003c0: ebd0 0d3d dc3d 903c d948 cabc a308 c9bc
000003d0: ff8b 97bc 55b9 9dbc dedb 9d3c b906 da3c
000003e0: b902 213c 17d1 9e3b b463 09bc 5aa6 fbbb
000003f0: 62cd 07bd 82c7 1fb9 2588 ec3c 58b9 7ebb

fc2_layer.weight f4 [256, 256]
-0.08827959 -0.13271047 0.024967328 -0.03754857 -0.029448537 0.0868493 -0.059279557 -0.024397327
-0.033496212 0.03639517 -0.033083152 -0.015847445 -0.009091038 0.023860183 0.008960228 -0.021466237
-0.038028136 0.040789276 -0.021476487 -0.031812564 -0.046411503 -0.06462409 0.079802185 0.023266258
0.03789782 0.02415552 0.114600115 0.017743327 -0.011301958 -0.05100073 -0.022487478 0.058716033
-0.074159525 -0.008056856 -0.07664267 -0.008696966 0.018153572 -0.08444981 -0.0057613296 -0.014686565
-0.118165195 0.017122777 0.0082570445 -0.073194705 -0.033328485 0.027116463 -0.043264993 0.08217098
0.013708211 -0.061004736 -0.015996363 -0.033736136 0.0314813 -0.015726486 0.009076811 -0.04216421
0.11882756 0.007248099 0.045933552 0.035104528 -0.084453955 0.032308545 0.09965621 -0.09765734
0.11111158 -0.0604729 0.04306829 -0.048352472 -0.045837767 -0.05592742 -0.055777274 -0.11128181
0.019529073 0.00029316614 -0.046525717 0.019153014 0.042906184 -0.029638449 0.030878834 0.022083376
0.019445954 -0.07167721 -0.03806156 0.06401485 0.013981737 -0.06722935 0.095642716 -0.01625436
-0.0106524285 0.060686402 0.036931623 0.04931239 -0.06822887 0.03959978 0.028742727 0.03705635
0.010627009 0.016705269 -0.03867972 0.040017437 0.08017088 -0.07118353 0.02636822 0.017700424
-0.056318738 0.057132777 -0.07355018 -0.11023261 -0.037880078 -0.0071334736 -0.020974526 0.046949096
-0.09824836 -0.05121832 0.08974121 -0.010024564 -0.0035098845 0.04135156 -0.025656499 -0.009176944
-0.04228816 -0.052688595 -0.035203062 -0.05442457 0.06565823 0.07201877 0.07741188 0.0018159559
-0.07143864 -0.017465392 -0.035115257 0.04281533 -0.10106697 0.0027181518 0.08214533 0.06197083
0.0136515405 0.0025728145 0.047813468 -0.09730426 0.021643208 -0.04427106 -0.032838244 0.023053797
-0.08602653 -0.04996095 0.10032321 -0.025228063 -0.011974289 0.06088711 0.0305965 -0.05085951
0.015872015 -0.014649818 -0.081090815 0.02617855 0.10786177 -0.0014030257 -0.038212094 0.0129580535
0.016666505 0.024193956 -0.07036685 -0.035328683 -0.018232262 0.027335707 0.054839365 -0.032459594
-0.027055696 -0.0073414543 0.060208622 0.029494278 -0.035419915 0.06622644 -0.020028548 -0.00435629
0.09208652 -0.0014709609 -0.020721283 0.033665065 0.005192673 0.0151252635 -0.0297193 0.014175015
0.009000185 0.047816645 0.048024848 0.052691985 0.09762834 -0.03281611 0.02849746 -0.009997729
0.03876702 -0.031653043 -0.128387 -0.05765819 0.034018215 0.0014876443 -0.0015613276 0.0031850953
-0.022573994 -0.026181761 -0.015240074 0.060330257 0.10088837 -0.05917967 -0.08272598 -0.080044284
-0.005137304 -0.040434547 -0.0067305397 0.030510327 -0.10844716 0.008235032 0.09944201 0.059655357
-0.027248241 0.001708941 -0.021592094 0.033734187 -0.0015644003 -0.048438337 0.048222367 -0.06689011
-0.01950738 0.0005771485 -0.032282043 -0.029859848 -0.106588714 0.05045871 0.03451957 0.0055609294
-0.0041624736 0.052356865 -0.0057287444 -0.066342585 -0.055441577 -0.02468238 0.06543453 0.04422139
-0.03702564 0.017536845 -0.02131987 0.00036554772 -0.01335414 -0.04469324 -0.040694896 -0.03959619
0.021163175 -0.022754759 0.01834421 -0.011446555 0.059785947 -0.019220455 -0.024361668 0.05667089
00000000: eecb b4bd 41e5 07be 4888 cc3c 88cc 19bd
00000010: 0f3e f1bc 0cde b13d 1fcf 72bd e7dc c7bc
00000020: 5333 09bd 1a13 153d 3382 07bd 80d2 81bc
00000030: 94f2 14bc 6e76 c33c eccd 123c f6d9 afbc
00000040: 64c3 1bbd a812 273d 75ef afbc e44d 02bd
00000050: fd19 3ebd a359 84bd 546f a33d e198 be3c
00000060: bf3a 1b3d cce1 c53c 77b3 ea3d 745a 913c
00000070: d92b 39bc 24e6 50bd a937 b8bc 3980 703d
00000080: f3e0 97bd e700 04bc d5f6 9cbd b87d 0ebc
00000090: cdb6 943c 06f4 acbd 89c9 bcbb eb9f 70bc
000000a0: 9800 f2bd 1145 8c3c 8e48 073c 1be7 95bd
000000b0: 7383 08bd 5823 de3c a236 31bd 4249 a83d
000000c0: 6798 603c 1ae0 79bd ce0a 83bc e72e 0abd
000000d0: 89f2 003d d5d4 80bc e8b6 143c 61b4 2cbd
000000e0: dd5b f33d 7681 ed3b d224 3c3d c4c9 0f3d
000000f0: 32f6 acbd f755 043d 8e18 cc3d 9200 c8bd
00000100: 788e e33d 6eb2 77bd 6068 303d 3e0d 46bd
00000110: 62c0 3bbd 2614 65bd b676 64bd b8e7 e3bd
00000120: 6ffb 9f3c 18b4 9939 c091 3ebd c8e6 9c3c
00000130: 65be 2f3d 55cc f2bc 9cf5 fc3c 32e8 b43c
00000140: 1f4d 9f3c 80cb 92bd 70e6 1bbd 381a 833d
00000150: a813 653c 8baf 89bd 54e0 c33d dd27 85bc
00000160: 8687 2ebc 4e92 783d 9d45 173d cafb 493d
00000170: 94bb 8bbd 6133 223d de75 eb3c 66c8 173d
00000180: e81c 2e3c 7dd9 883c a06e 1ebd 53e9 233d
00000190: a130 a43d acc8 91bd 2a02 d83c 7b00 913c
000001a0: 7aae 66bd 0f04 6a3d 7aa1 96bd a2c1 e1bd
000001b0: 2428 1bbd eabf e9bb c5d2 abbc b24d 403d
000001c0: 7036 c9bd 4dca 51bd 3dca b73d 123e 24bc
000001d0: 1706 66bb 4160 293d 942d d2bc e55a 16bc
000001e0: 5a36 2dbd ffcf 57bd 1631 10bd 4cec 5ebd
000001f0: d277 863d 947e 933d 1f8a 9e3d 5e05 ee3a
00000200: 6c4e 92bd 9513 8fbc 04d5 0fbd 215f 2f3d
00000210: 33fc cebd 0523 323b d03b a83d 20d5 7d3d
00000220: b6aa 5f3c aa9c 283b 0ed8 433d 7547 c7bd
00000230: 194d b13c 9255 35bd 6581 06bd 51db bc3c
00000240: ad2e b0bd daa3 4cbd 4176 cd3d 15ab cebc
00000250: cf2f 44bc c364 793d 83a5 fa3c 1052 50bd
00000260: 0706 823c ca05 70bc f112 a6bd 6674 d63c
00000270: a2e6 dc3d bbe5 b7ba 4984 1cbd 044e 543c
00000280: 3288 883c 6732 c63c 7f1c 90bd cfb4 10bd
00000290: d35b 95bc 22ef df3c 3e9f 603d 5af4 04bd
000002a0: e8a3 ddbc 9590 f0bb 519d 763d fc9d f13c
000002b0: 7914 11bd baa1 873d e912 a4bc 36bf 8ebb
000002c0: db97 bc3d 42cd c0ba aebf a9bc 61e4 093d
000002d0: 4c27 aa3b f4cf 773c e475 f3bc 523e 683c
000002e0: 8375 133c 63db 433d b4b5 443d 8dd3 573d
000002f0: 5ef1 c73d 2f6a 06bd 8173 e93c 84cd 23bc
00000300: 2bca 1e3d 9fa6 01bd e277 03be ff2a 6cbd
00000310: af56 0b3d 0ffd c23a 76a5 ccba 08bd 503b
00000320: 19ed b8bc 227b d6bc 81b1 79bc dc1c 773d
00000330: 909e ce3d 6266 72bd 3d6c a9bd 42ee a3bd
00000340: d456 a8bb b29e 25bd dc8b dcbb cbf0 f93c
00000350: 8b19 debd 3aec 063c 41a8 cb3d 2d59 743d
00000360: b437 dfbc 8bfe df3a e7e1 b0bc dc2c 0a3d
00000370: 900c cdba 4767 46bd d184 453d affd 88bd
00000380: f1cd 9fbc c84b 173a 2d3a 04bd a49c f4bc
00000390: 2f4b dabd cbad 4e3d 6564 0d3d 7538 b63b
000003a0: 5c65 88bb 2774 563d 31b8 bbbb 9fde 87bd
000003b0: b516 63bd b432 cabc 8a02 863d 7d21 353d
000003c0: 33a8 17bd 6ea9 8f3c 02a7 aebc fca6 bf39
000003d0: 53cb 5abc 4210 37bd b1af 26bd 9d2f 22bd
000003e0: 655e ad3c 3068 babc 9946 963c 558a 3bbc
000003f0: 1ce2 743d 3774 9dbc 1f92 c7bc bc1f 683d

fc2_layer.bias f4 [256]
0.016114475 0.0032632672 -0.019906593 -0.01054819 0.030572155 -0.020518897 -0.0019028764 -0.035343535
-0.029938795 0.011669135 0.005462257 0.008043175 -0.037505064 0.009021482 -0.017914904 -0.01364146
0.008545523 0.050746642 0.012825822 0.042674817 -0.043623466 -0.025036817 0.003284768 0.01455945
0.004962223 -0.0065923464 0.032939028 -0.020256842 -0.030302642 0.009672173 -0.03732162 0.023844408
-0.17718692 -0.18696369 -0.030197708 -0.03336405 -0.014760592 0.024685774 0.024764385 0.035653625
0.0023480065 0.04853116 0.016510714 -0.056522477 0.0004825165 0.006322263 -0.027711814 0.030825034
-0.03171789 0.0119924685 0.018316297 0.025038186 -0.0340211 -0.010307503 -0.024570683 0.04605551
0.041493256 -0.034972515 -0.024333233 -0.033412818 -0.21562742 0.025528176 -0.031322192 0.037024986
0.04193944 -0.01556735 0.014096759 -0.016692348 0.028074598 0.02108089 -0.0022683742 0.1908269
0.010114894 -0.01949111 0.013707706 0.04002838 0.0061159 -0.006166076 0.0146532515 0.03555027
-0.03444776 0.0070376336 0.014564547 0.22463313 -0.023739276 -0.010817602 0.0080299415 0.023276748
-0.035153985 -0.0420771 0.017879743 0.023399793 -0.022224044 0.022225456 0.011059961 0.02309514
-0.0062608346 -0.0037279874 -0.04743222 -0.049243227 -0.04915791 -0.004245079 0.05793642 -0.010751405
-0.0370271 0.023340957 0.019872786 -0.017288331 0.007558367 -0.031198928 0.018156856 0.01870729
0.026206037 0.037521116 0.031684782 0.020330168 -0.024243742 -0.0041039553 0.013617395 0.0094102835
0.02461638 -0.042231955 0.013501566 0.0032663557 0.019207934 0.0424834 -0.015416741 -0.02124909
0.022120055 0.0041883034 0.0086922785 0.045009516 -0.031621512 0.018719781 0.029123778 -0.02660081
0.05055908 0.0035040053 0.040369827 0.005761701 0.2157343 0.043594956 0.03834965 0.015470798
-0.008090322 0.018970797 0.04319754 0.024200479 0.030170767 0.037611574 -0.024795143 0.015780117
0.011081219 -0.00477274 -0.032508075 -0.045485687 0.038369957 -0.014400138 0.0016443448 -0.032692026
0.035378937 0.0082187075 -0.02361679 0.0073050964 -0.036686905 0.011218151 0.03283746 0.016012765
0.013971617 0.031045936 -0.011720043 0.02456859 0.018298721 0.027312826 -0.17931727 0.023631353
-0.014442837 -0.0039464748 0.029330928 0.03400013 -0.21007754 -0.045044355 -0.010117067 0.038182225
0.03874739 -0.20308189 -0.024845308 0.023775548 -0.020574426 0.0010688609 0.006289092 -0.012191905
0.20912217 -0.03202431 -0.0526802 -0.030793255 -0.025347067 0.029342774 0.0004901873 0.00075748574
-0.057497334 -0.00081714714 0.01606936 -0.01674343 0.009952004 -0.029437628 0.016494665 0.043213617
-0.035200674 0.031478353 0.041287526 -0.042617932 0.23188393 0.0052475664 0.0013172353 -0.015345082
-0.017878674 -0.016907696 -0.04985307 0.023255033 0.01172428 0.22282384 -0.036847156 0.037245654
0.018253207 -0.017027948 0.03401729 -0.011682698 0.028001297 -0.027091509 0.044649858 -0.005726914
0.009598089 -0.0073971157 0.023939548 -0.002344415 -0.22262102 0.033491693 0.026036836 0.027814737
-0.0057090693 -0.010094937 0.032119885 0.036789887 -0.008959798 0.01588054 0.0100365365 0.04497632
0.021560278 0.028218783 -0.024720794 0.018057063 -0.012543612 0.013053631 -0.014357494 -0.017453047
00000000: 8102 843c 8adc 553b 2713 a3bc 51d2 2cbc
00000010: 7572 fa3c 3f17 a8bc f069 f9ba 62c4 10bd
00000020: 3442 f5bc e62f 3f3c bcfc b23b 85c7 033c
00000030: e99e 19bd d7ce 133c 47c2 92bc 6e80 5fbc
00000040: 8502 0c3c b6db 4f3d 6623 523c cacb 2e3d
00000050: 85ae 32bd 031a cdbc 4345 573b c28a 6e3c
00000060: 259a a23b 9c04 d8bb 13eb 063d adf1 a5bc
00000070: 3f3d f8bc 0978 1e3c 8ede 18bd 5955 c33c
00000080: 7d70 35be 6973 3fbe 2f61 f7bc bea8 08bd
00000090: 69d6 71bc d239 ca3c aede ca3c 8909 123d
000000a0: 03e1 193b 9cc8 463d 7a41 873c 1d84 67bd
000000b0: 45fa fc39 fc2a cf3b e303 e3bc c884 fc3c
000000c0: 9eea 01bd 0f7c 443c 0f0c 963c e21c cd3c
000000d0: b559 0bbd cde0 28bc 7548 c9bc b4a4 3c3d
000000e0: d5f4 293d 573f 0fbd 7d56 c7bc e1db 08bd
000000f0: 6fcd 5cbe 7720 d13c b34b 00bd 83a7 173d
00000100: b1c8 2b3d 330e 7fbc 18f6 663c 64be 88bc
00000110: b3fc e53c d5b1 ac3c 01a9 14bb 2068 433e
00000120: f1b8 253c d2ab 9fbc 4996 603c ccf4 233d
00000130: e367 c83b cb0c cabb 3114 703c 299d 113d
00000140: 1819 0dbd f39b e63b 23a0 6e3c 3a06 663e
00000150: df78 c2bc 503c 31bc 0490 033c e1ae be3c
00000160: a0fd 0fbd 0a59 2cbd 8a78 923c ecb0 bf3c
00000170: 330f b6bc 2912 b63c d734 353c 0532 bd3c
00000180: b027 cdbb 4051 74bb 4a48 42bd 44b3 49bd
00000190: ce59 49bd 4e1a 8bbb bd4e 6d3d a926 30bc
000001a0: baa9 17bd 8935 bf3c 41cc a23c 42a0 8dbc
000001b0: 2eac f73b e594 ffbc b0bd 943c 0840 993c
000001c0: 0bae d63c beaf 193d e7c7 013d 748b a63c
000001d0: d09a c6bc 797a 86bb 7f1b 5f3c 972d 1a3c
000001e0: 4aa8 c93c 6afb 2cbd ac35 5d3c 5b10 563b
000001f0: f559 9d3c 1303 2e3d 8096 7cbc 9212 aebc
00000200: 1e35 b53c 093e 893b 0f6a 0e3c e65b 383d
00000210: 8f85 01bd 3a5a 993c fd94 ee3c f1e9 d9bc
00000220: 0a17 4f3d 74a3 653b d55a 253d a7cc bc3b
00000230: 74e9 5c3e a090 323d 8614 1d3d 3b79 7d3c
00000240: 458d 04bc a568 9b3c e7ef 303d 1540 c63c
00000250: af28 f73c 980e 1a3d 2f1f cbbc 4e45 813c
00000260: 008e 353c a564 9cbb 3027 05bd 334f 3abd
00000270: d129 1d3d 8eee 6bbc 0e87 d73a 13e8 05bd
00000280: 81e9 103d c2a7 063c 0078 c1bc 975f ef3b
00000290: 0245 16bd 56cc 373c 9380 063d 342d 833c
000002a0: 36e9 643c 0c54 fe3c 6c05 40bc 1144 c93c
000002b0: 33e7 953c 26bf df3c f29e 37be 8a96 c13c
000002c0: a6a1 6cbc 6e51 81bb 6a47 f03c b843 0b3d
000002d0: 911e 57be 6e80 38bd 0ec2 25bc f764 1c3d
000002e0: 95b5 1e3d b3f4 4fbe 6388 cbbc f0c4 c23c
000002f0: b38b a8bc 0519 8c3a ba14 ce3b 8ec0 47bc
00000300: 1f24 563e ec2b 03bd 32c7 57bd 2342 fcbc
00000310: a7a4 cfbc 4260 f03c ea7f 003a 0292 463a
00000320: 5382 6bbd d135 56ba e4a3 833c 8529 89bc
00000330: bb0d 233c 2e27 f1bc d21f 873c c300 313d
00000340: 952e 10bd 72ef 003d 1c1d 293d 2490 2ebd
00000350: fb72 6d3e c7f3 ab3b 15a7 ac3a f069 7bbc
00000360: 4c76 92bc 0282 8abc bc32 4cbd 5781 be3c
00000370: 3217 403c ef2b 643e 0bed 16bd e68e 183d
00000380: c087 953c 327e 8bbc b755 0b3d c968 3fbc
00000390: fa62 e53c 03ef ddbc c5e2 363d d6a8 bbbb
000003a0: 4e41 1d3c 8163 f2bb df1c c43c c2a4 19bb
000003b0: c4f6 63be 962e 093d 344b d53c bbdb e33c
000003c0: 2513 bbbb 3c65 25bc 2490 033d feb0 163d
000003d0: 1ecc 12bc e817 823c 4970 243c 1739 383d
000003e0: 2e9f b03c 142b e73c 4383 cabc 68ec 933c
000003f0: b983 4dbc e6de 553c b23b 6bbc b1f9 8ebc

critic_out_layer.weight f4 [1, 256]
0.002287054 0.00073318445 0.00201714 -0.002585912 0.0064826333 -0.004398204 0.016123448 0.0012128807
-0.0076179956 0.006220504 0.0012558242 -0.0020610255 0.0030485904 0.0026249904 -0.0004359673 -0.002607542
0.002999914 0.007023513 0.00893487 0.0006929815 -0.000544181 -0.0048286663 0.0033126918 5.8218513e-05
-0.0018486658 -0.0011611352 0.007496795 0.012614084 -0.005011162 0.008800873 -0.0015093099 0.0022710457
-0.016865432 -0.031604227 -0.0077693635 -0.0060306117 -0.0015852124 0.0017704518 0.0064053326 0.008164468
0.0005898506 0.0056392816 0.0020438258 -0.0054580723 0.0045308806 -0.008768503 -0.0056270435 0.006509338
-0.005600986 0.0038946965 -0.0005681552 -0.0014096787 -0.0060709114 -0.0043868152 -0.006318597 0.014164311
0.0056693405 0.0016666525 -0.007624072 0.010730411 -0.031771246 -0.0032877869 0.011490969 0.004870297
0.008619597 5.3253832e-05 0.0048866263 -0.0039569736 0.008054658 0.0052873353 -0.009675955 0.026109861
-0.010703787 -0.006968379 -0.00075446244 0.0038183385 0.00462802 -0.0075758663 1.48043655e-05 -0.003907848
0.0048283357 0.00016336865 0.0019165922 0.071823195 0.00092281733 0.0006903616 0.003296857 0.00065233104
-0.0014431124 0.0042193257 0.00084217126 0.0045339046 0.0035125315 -0.012793301 0.0012603969 0.006067367
0.0034912687 -0.0027931873 -0.003886541 -0.0035871896 -0.006442037 -0.0011854456 0.0016390255 0.00049535034
-0.0039574914 0.0033294559 0.002953434 -0.0059798663 0.0004190508 0.0006776457 -0.002009432 0.006207311
0.008014786 0.0063847667 0.00026647202 0.0036637192 -0.002459553 0.0023242654 0.004511841 0.0016320122
0.0027276082 -0.004885093 0.005939603 -0.0067605297 0.0006908003 0.0006290963 -0.0028646174 -0.0077457186
0.005211438 -0.0025113407 -0.002345889 0.003285837 -0.005396031 0.0034270894 0.0058496227 -0.003279528
0.0076577263 -0.007818971 0.0059495573 0.004775615 0.04659818 0.0039915703 -0.006046137 0.004067714
0.0077876523 0.0029026929 0.0071579237 0.001416317 -0.0008420418 0.00034058513 -0.00072371657 -0.0085438555
-0.0042812093 0.0022357767 0.0007650467 -0.0019662187 0.0077855447 -0.0058816276 0.0025201493 -0.007557587
0.002739979 0.0013603037 -0.008090748 0.007247626 0.005407939 0.005874221 -0.018132508 0.010280947
-0.0017109476 -0.01134513 0.0048067733 0.004987099 -0.0013345828 0.00030770848 -0.010175307 0.0011841211
-0.0048750634 -0.00035852342 -0.0085750725 0.004823808 -0.033505138 -0.007949966 0.00089099206 -0.0065950113
-0.011731748 -0.024194552 0.003948527 0.0012185797 0.0067825583 -0.00035035601 0.0011023165 -0.0017961308
0.03032773 0.0077545363 -0.0036068321 0.014475109 -0.0068316306 0.0007488779 -0.004036476 0.005177028
2.8885617e-05 0.004972339 -0.009317224 0.02263586 0.000982672 -0.0029256258 0.0013803338 0.003665821
-0.0074464157 0.00684779 0.0051392927 0.018978823 0.072997764 -0.00080343714 -0.0004133308 0.001096321
-0.003332638 -0.0054693474 0.0014964935 0.0037517035 -0.00057625986 0.039543647 -0.009225847 -0.023260374
-0.003518563 6.940069e-05 -0.0021200252 0.005262386 -0.0042448808 -0.0049281367 0.0023794211 -0.0028606597
0.0004204942 -0.0047555575 0.005991406 -0.005416847 -0.056133375 0.002783446 0.0013081295 -0.01185523
0.020802835 -0.0036089397 0.002555385 0.008292917 -0.00017815658 0.0032303666 -0.0019715745 -0.0035367645
-0.0014518693 -0.0070753694 0.025186567 -0.0052509974 -0.0009249297 0.005234847 0.015014741 -0.01271785
00000000: 66e2 153b 2d33 403a fe31 043b 6778 29bb
00000010: 456c d43b cf1e 90bb 5215 843c 86f9 9e3a
00000020: 61a0 f9bb 5fd5 cb3b 789a a43a 4512 07bb
00000030: dcca 473b 0808 2c3b 8a92 e4b9 4ce3 2abb
00000040: 359a 443b 7f25 e63b 9063 123c 34a9 353a
00000050: 5ea7 0eba ca39 9ebb bf19 593b a72f 7438
00000060: ee4e f2ba 3b31 98ba ada7 f53b 4eab 4e3c
00000070: ac34 a4bb 8931 103c 09d4 c5ba d3d5 143b
00000080: 6029 8abc 6f73 01bd 2596 febb 709c c5bb
00000090: e7c6 cfba 810e e83a d3e3 d13b 43c4 053c
000000a0: 34a0 1a3a b9c9 b83b b5f1 053b a1d9 b2bb
000000b0: c877 943b c4a9 0fbc 1063 b8bb 494c d53b
000000c0: 7a88 b7bb 2a3e 7f3b 40f0 14ba f8c4 b8ba
000000d0: 7fee c6bb 46bf 8fbb 3c0c cfbb 6d11 683c
000000e0: e0c5 b93b 9473 da3a 5ad3 f9bb 9bce 2f3c
000000f0: 9122 02bd e977 57bb 9e44 3c3c 0397 9f3b
00000100: 3639 0d3c de5c 5f38 fe1f a03b 80a9 81bb
00000110: aff7 033c 6241 ad3b e687 1ebc 59e4 d53c
00000120: f05e 2fbc 0057 e4bb 1ec7 45ba 173d 7a3b
00000130: a5a6 973b f93e f8bb 4460 7837 680d 80bb
00000140: 0437 9e3b f04d 2b39 2a36 fb3a 0a18 933d
00000150: 39e9 713a 62f9 343a 1510 583b 3201 2b3a
00000160: d126 bdba 4542 8a3b 28c5 5c3a 2691 943b
00000170: 8032 663b fe9a 51bc e733 a53a c3d0 c63b
00000180: c5cd 643b e80d 37bb 56b5 7ebb 0e17 6bbb
00000190: b917 d3bb f460 9bba 92d4 d63a 66da 013a
000001a0: d8ad 81bb 0033 5a3b 668e 413b c1f2 c3bb
000001b0: 0cb4 db39 08a4 313a adb0 03bb b366 cb3b
000001c0: 7350 033c 4e37 d13b 45b5 8b39 021b 703b
000001d0: 7430 21bb b452 183b 11d8 933b 3ee9 d53a
000001e0: acc1 323b 2113 a0bb 00a1 c23b 6f87 ddbb
000001f0: d316 353a f0e9 243a 4ebc 3bbb cccf fdbb
00000200: b6c4 aa3b 4e95 24bb 7dbd 19bb 3257 573b
00000210: 30d1 b0bb 0599 603b 31ae bf3b 5aed 56bb
00000220: aaed fa3b 241b 00bc 81f4 c23b c37c 9c3b
00000230: bcdd 3e3d b8cb 823b ac1e c6bb 754a 853b
00000240: 902f ff3b 1b3b 3e3b 048d ea3b b6a3 b93a
00000250: 78bc 5cba 9090 b239 ccb7 3dba 87fb 0bbc
00000260: 6349 8cbb 1c86 123b 6a8d 483a addb 00bb
00000270: e21d ff3b abba c0bb 1729 253b a3a5 f7bb
00000280: 3891 333b 384c b23a 0f8f 04bc 7e7d ed3b
00000290: 1535 b13b 8a7c c03b a08a 94bc 6b71 283c
000002a0: e041 e0ba ede0 39bc 2382 9d3b d26a a33b
000002b0: 2bed aeba ef53 a139 55b6 26bc 8334 9b3a
000002c0: ffbe 9fbb 33f8 bbb9 767e 0cbc 0911 9e3b
000002d0: af3c 09bd 9340 02bc 7791 693a f71a d8bb
000002e0: 8436 40bc a733 c6bc a562 813b c0b8 9f3a
000002f0: 3940 de3b fdaf b7b9 9b7b 903a 266c ebba
00000300: dc71 f83c c419 fe3b 9a60 6cbb 0229 6d3c
00000310: dfdb dfbb 5850 443a 6a44 84bb 0fa4 a93b
00000320: 644f f237 01ef a23b 45a7 18bc d76e b93c
00000330: 00cd 803a dbbb 3fbb 51ec b43a 453e 703b
00000340: 1001 f4bb 6d63 e03b 8367 a83b 7a79 9b3c
00000350: da7f 953d c19d 52ba 52b4 d8b9 6eb2 8f3a
00000360: 6368 5abb 3638 b3bb fd25 c43a 24df 753b
00000370: 2510 17ba 85f8 213d 0228 17bc 8a8c bebc
00000380: b197 66bb 368b 9138 1ff0 0abb 1870 ac3b
00000390: a418 8bbb 357c a1bb 10f0 1b3b e879 3bbb
000003a0: c775 dc39 82d4 9bbb 8e53 c43b ce7f b1bb
000003b0: 1cec 65bd 7a6a 363b 8b75 ab3a 703c 42bc
000003c0: b56a aa3c f683 6cbb 3f78 273b 04df 073c
000003d0: 8bcf 3ab9 8fb4 533b 8835 01bb 10c9 67bb
000003e0: a64c beba 80d8 e7bb 0f54 ce3c 8f10 acbb
000003f0: fb76 72ba 1489 ab3b 6300 763c 875e 50bc
