projet/models/actor_critic/player_0_critic.pth (torch, 310551 bytes, 5 tensors)

fc1_layer.weight f4 [256, 42]
000000 2b 31 ca 3e ea 59 0f be 38 be f3 3d a6 fb a7 3c
       0.39490637 -0.13999143 0.11901516 0.020505738
000010 54 76 2e 3e f1 ef 5c bd ca e6 a9 be 75 68 9b be
       0.17037326 -0.053939763 -0.3318389 -0.30353132
000020 e1 5a 83 3d fd 07 14 3e 4d 8a 7e 3c d1 8d 2a 3e
       0.06413818 0.14456172 0.015535903 0.16655661
000030 99 63 e0 3d 67 f3 5e 3d 1f 4e 5c be 03 cd 9f 3e
       0.10956497 0.054431345 -0.21514176 0.312111
000040 fd 4b 93 be 2a c6 8f 3e f7 c5 00 3e 54 8a 1a 3e
       -0.28768912 0.28080875 0.12575518 0.1509183
000050 42 1b a4 bd 7c 96 8a 3e 4f 93 5f 3e ee 47 46 3e
       -0.080130115 0.27067935 0.21833538 0.19363376
000060 05 26 d8 3d 4d f5 25 bd 80 24 1c 3d e0 f2 1f 3e
       0.10554127 -0.04051714 0.038120747 0.15619993
000070 50 95 30 3d cb d0 53 3e db a1 23 3e 5a ba b4 bd
       0.043111145 0.20685117 0.15979712 -0.08824606
000080 2c 24 55 3e 4f 13 9f 3d 44 84 87 3d 8e f2 36 be
       0.2081458 0.07767355 0.066170245 -0.17865965
000090 33 76 be bd c8 0c b0 3c 0a 3c 57 bd e6 70 9a bd
       -0.092998885 0.02149047 -0.052547492 -0.07541065
0000a0 ac 14 83 bc 1b c1 29 3e c2 8c 8a be 93 2f 81 3d
       -0.016001068 0.1657757 -0.27060515 0.06307902
0000b0 85 b5 19 3e 9c 29 da 3c 75 01 c5 bb fa 38 8d 3d
       0.1501065 0.026631169 -0.0060121366 0.06895633
0000c0 dc 3b 97 3c f8 fc b5 3a 15 48 2e 3c da 84 15 3e
       0.01846116 0.0013884595 0.010637303 0.1460146
0000d0 50 af 34 3e a1 fe 79 bd e8 f2 c0 bd 61 db 16 bd
       0.17645001 -0.06103385 -0.09421331 -0.03683031
0000e0 05 48 90 bd fd 83 6d 3e fc e5 b8 3d b9 62 ab bd
       -0.07044987 0.23194881 0.09028241 -0.08368439
0000f0 98 cd 32 bd dc 37 4c 3e 70 97 46 3d 61 84 61 3d
       -0.0436531 0.19943184 0.048484266 0.055057887
000100 3f 14 61 bc 6d b5 bb 3c 8c 73 d8 3d cc 30 94 bd
       -0.013737737 0.022913659 0.10568914 -0.0723587
000110 12 a9 df bb fd 44 6d 3d b0 68 cb 3c 40 39 8a be
       -0.0068255747 0.05792712 0.024830192 -0.26996803
000120 c3 2a ef 3d c0 9c 53 3c bc 8d 98 3d 48 6c b9 3c
       0.11678078 0.01291579 0.07448909 0.02263464
000130 f9 0a b9 bd 19 55 18 be 90 8f cf 3d 51 b3 9c bd
       -0.09035296 -0.14876212 0.10134804 -0.076513894
000140 44 66 64 bd 09 a6 3a 3e 0c 36 fa 3c 79 3e d4 3d
       -0.05576159 0.182274 0.03054335 0.10363478
000150 f2 ee 41 bd 33 90 0e 3e c7 6d e7 bd 40 0b 42 be
       -0.047347017 0.13922195 -0.11300235 -0.18949604
000160 83 93 01 be 81 7a d1 bd a4 de b2 be a3 1b 5e be
       -0.12653928 -0.10228444 -0.34935486 -0.2169023
000170 6d 2c c4 3d 3f 6d 2c 3c c2 72 49 be 17 85 5c 3e
       0.09578786 0.010524093 -0.19672683 0.21535145
000180 6d a1 94 bd 74 5f 1d 3e 88 9d c9 bd 45 5e a2 bd
       -0.07257352 0.15368444 -0.098445 -0.07928137
000190 a2 14 87 3e e3 d3 9c be fd cb 2d 3e 6d 31 82 3e
       0.2638293 -0.30630407 0.16972347 0.25428334
0001a0 03 86 3c 3d 60 97 45 bd e2 54 d3 bd 29 42 e4 bd
       0.04602624 -0.048240066 -0.103189245 -0.111454315
0001b0 f0 46 12 bf fe 34 4d 3e a2 6a 6e bc d2 7d d4 3c
       -0.5713949 0.20039746 -0.01455179 0.025938902
0001c0 89 c0 2a be 8d a6 1c 3e 8f fe d6 3d 2b b0 8e be
       -0.16675009 0.15297909 0.10497772 -0.2786878
0001d0 3e 80 57 bc 1a c4 7b 3e fa 8a 01 3e ab d0 27 3e
       -0.013153134 0.24586526 0.12650672 0.16388194
0001e0 86 1a e9 bd cd ba bb be e8 99 f5 3d d4 19 44 bd
       -0.11382012 -0.36665955 0.11992246 -0.047876194
0001f0 ad df 74 3e 1c 71 de bd ec 3c b1 bd 1b b6 75 bc
       0.2391345 -0.10861418 -0.08654198 -0.014997031
000200 68 8e 9b 3d 3c be 7a 3e 7b b2 a1 3d a6 8c 99 3c
       0.07595521 0.24486631 0.078953706 0.018743824
000210 47 09 9c 3d 67 f5 90 3e e7 ab 79 3d 59 f4 f1 3d
       0.07618957 0.28312227 0.060954954 0.11814184
000220 bc e6 88 3d 70 e3 84 bb 9d ff eb bd c1 34 25 bd
       0.06684634 -0.004055433 -0.11523364 -0.040333513
000230 38 86 8d 3e eb 71 20 3e 7b 5d 8b 3d fe e8 c4 bd
       0.27641463 0.15668456 0.06804939 -0.09614752
000240 32 73 5e 3e ca f9 3c be e8 40 1a 3e 09 8f 4a bd
       0.21723631 -0.18454662 0.15063822 -0.049452815
000250 5d 68 83 3d 1c 35 18 be 96 3c 10 3e 94 06 8d be
       0.0641639 -0.1486401 0.14085612 -0.2754408
000260 35 a8 af bd 64 92 bb 3c b3 c6 b1 be fb 1a 6f bb
       -0.08577005 0.022896953 -0.34721908 -0.0036484587
000270 0d ea 95 3d 47 aa cf 3e be 0e 6e be 72 07 03 3e
       0.07320032 0.405596 -0.23247811 0.12795809
000280 a9 44 dc 3c 72 e9 90 3d 10 15 02 be dc 69 37 bd
       0.026888208 0.07075776 -0.12703347 -0.04477869
000290 a2 c5 ad 3d e8 40 87 3d c9 36 1c 3e f1 45 cc bd
       0.08484961 0.06604177 0.15255274 -0.09974278
0002a0 fe 8d 22 be 47 17 ec 3d d0 3f c1 3d b3 c5 15 3b
       -0.15874478 0.11527877 0.094359994 0.0022853434
0002b0 74 49 74 3d 95 5b 2a bd 68 ed 73 be 88 7e 01 3f
       0.059640363 -0.041591246 -0.23821032 0.50583696
0002c0 a9 3b a6 3d a3 b1 a3 bd 9e e1 a1 3d e7 57 da bd
       0.08116848 -0.07992866 0.07904361 -0.10661297
0002d0 d5 15 12 3e df 86 0f 3e e4 93 98 3d 22 43 90 bd
       0.14266141 0.14016293 0.07450083 -0.070440546
0002e0 26 4a 27 3e e1 1d 94 3d e2 d9 08 be a4 63 36 bc
       0.16336879 0.072322614 -0.13364366 -0.011132155
0002f0 cd c0 ac bd 8e 04 89 be e2 96 84 bd 7e 7b 41 be
       -0.08435211 -0.26761287 -0.06474091 -0.18894765
000300 00 8d d9 3d 7e 7b 90 3e 1f e3 85 bd cf d5 3e 3e
       0.10622597 0.28219217 -0.065374605 0.18636249
000310 6b 76 27 3d 7e 58 68 3c 73 3c c8 3d 54 cb 95 3d
       0.040884417 0.014181254 0.09777155 0.073141724
000320 bb bc 57 3e e8 d6 9e 3d c9 c9 63 3d 93 02 4b 3e
       0.21068089 0.07755834 0.05561236 0.198252
000330 43 45 02 bd 9f 1e 31 be 6e ed 72 bd 27 40 e2 3d
       -0.031804334 -0.17296837 -0.05930846 0.11047392
000340 e6 7a 25 3d c2 ba 6f be 6f f7 38 3f 9b c7 aa bc
       0.04040041 -0.23411086 0.72252554 -0.020847132
000350 14 65 8b 3d c4 44 7c be 34 c2 da bd 5d 54 62 be
       0.068063885 -0.24635607 -0.106815726 -0.22102495
000360 fc 80 8a 3e 11 ff 78 bd c8 b3 a0 bd a3 14 52 3d
       0.27051532 -0.060790125 -0.078467906 0.051289212
000370 29 84 cc 3d 98 84 98 bc fe 43 bd be 4a 5b 4a be
       0.09986145 -0.018617913 -0.36965936 -0.19761387
000380 a7 c3 24 3d 34 4e 4c be 81 99 70 3d b3 38 cd 3d
       0.04022565 -0.19951707 0.058740143 0.1002058
000390 ad 62 65 be ca c9 84 3e 6d 1c 70 be 85 b2 72 3e
       -0.22400923 0.25935203 -0.23448344 0.23700912
0003a0 9a 66 c1 bd cf cf fc bc d5 91 e9 3d aa 42 d2 3d
       -0.09443398 -0.03086081 0.114047684 0.102666214
0003b0 08 78 2c 3e a7 43 91 3e 1e 87 44 3e 26 5e 39 be
       0.16842663 0.28371927 0.19192168 -0.18102321
0003c0 49 bd 33 3e 24 41 9c 3c a5 c0 3b be 65 18 32 3d
       0.17552675 0.01907403 -0.18335207 0.043480296
0003d0 12 3d 76 be f3 85 ac 3d 32 86 05 3d 13 c0 7a bd
       -0.24046734 0.08423986 0.03259868 -0.061218332
0003e0 a6 66 a9 bd da 08 9b bd 36 54 aa bd 7a 4a d3 3d
       -0.08271532 -0.07570048 -0.08316843 0.1031694
0003f0 90 ec 43 be 9e 63 7a 3d 5b 19 4e 3e d5 e9 4e 3e
       -0.1913321 0.06113016 0.2012686 0.20206387

fc1_layer.bias f4 [256]
000000 4b 01 1e bf e6 43 4b bf 89 39 b3 be e0 c4 3b bf
       -0.6172072 -0.7940048 -0.35004833 -0.7334728
000010 df 7b 43 bf 6f 41 99 be 50 af fb be 53 22 27 bf
       -0.7636089 -0.29932734 -0.4915719 -0.6528675
000020 ea 8b 05 bf 05 23 36 bf 62 2e 4c bf 16 13 c3 be
       -0.52166617 -0.71147186 -0.79758275 -0.381005
000030 84 d4 3a bf 19 b2 c6 be db 97 45 bf 2c 46 fc be
       -0.72980523 -0.38807753 -0.7718484 -0.49272287
000040 f9 4e 1e bf 18 10 50 bf 7c e6 61 bf b2 7a 02 3d
       -0.6183925 -0.8127456 -0.88242316 0.031855293
000050 11 62 50 bf 47 be 50 bf c2 ae 30 bf 9e 0f 39 bf
       -0.8139964 -0.8154034 -0.6901666 -0.72289455
000060 12 6f 2c bf 01 61 35 bf 14 9c 52 bf d0 bc 1e bf
       -0.6735698 -0.7085114 -0.82269406 -0.62006855
000070 11 7e 34 bf d2 c8 48 bf 4f 10 f8 bd 4d 3e 1f bf
       -0.7050486 -0.7843143 -0.121124856 -0.6220444
000080 44 d2 7a 3d f6 b1 3f bf cd 7b c5 be 42 15 45 bf
       0.06123568 -0.7488092 -0.38571015 -0.7698556
000090 e1 8f 16 bf d7 71 04 bf 24 86 23 bf 35 29 08 bf
       -0.5881329 -0.51736206 -0.6387656 -0.53187877
0000a0 38 4c 2c bf f2 a1 35 bf 5e e6 34 bf e7 3d 05 bf
       -0.673038 -0.70950234 -0.7066401 -0.5204758
0000b0 43 4b de be 3f 09 2d bf dd a5 4d be 67 82 42 bf
       -0.43416795 -0.67592233 -0.20082803 -0.7598023
0000c0 98 9d e7 be 6b e0 26 bf b2 4d 46 bf 03 86 30 bf
       -0.45237422 -0.65186185 -0.77462304 -0.68954486
0000d0 70 64 ac be c7 8e 9a be 39 6b 1b bf 69 16 28 bf
       -0.33670378 -0.30187055 -0.60710484 -0.65659195
0000e0 ea 11 2a bf fb 27 26 bf 0b 07 3a bf 64 df b6 be
       -0.66433585 -0.64904755 -0.72666997 -0.3571731
0000f0 f6 a3 fa be 97 37 fa be 0f c7 34 bf db 49 84 be
       -0.48953217 -0.48870537 -0.7061624 -0.25837597
000100 96 cc 3b bf 85 ca 2d bf f3 dd 23 bf c8 27 31 bf
       -0.7335905 -0.67887145 -0.6401054 -0.69201326
000110 85 e9 0f bf df cf 43 bf 49 b6 1a bf 80 c9 19 bf
       -0.562157 -0.7648906 -0.60434395 -0.6007309
000120 f9 a6 52 bf b7 dd 46 bf bf c5 3a bf 97 0c 3e bf
       -0.8228603 -0.7768206 -0.72957987 -0.7423796
000130 b4 f2 5d bf 37 48 bb be 44 ac 73 bf b8 47 06 bf
       -0.8669846 -0.36578533 -0.9518473 -0.52453184
000140 e4 7a 1b bf da 7d 1e bf a2 c5 00 bf b2 7b 1c bf
       -0.6073439 -0.61910784 -0.50301564 -0.61126244
000150 88 91 b8 be e7 90 27 bf 6e 50 58 bf 18 03 33 bf
       -0.36048532 -0.6545548 -0.84497726 -0.69926596
000160 49 03 36 bf 8a b8 13 bf 4d ae 17 bf bd b0 5a bf
       -0.7109876 -0.5770346 -0.59250337 -0.8542593
000170 83 de 25 bf 4b 16 c5 be e8 e4 10 bf eb 2f 28 bf
       -0.6479265 -0.3849357 -0.56599283 -0.65698117
000180 b4 91 b9 be ec 1c 37 bf e9 f8 12 bf 5f fe 0a bf
       -0.36243975 -0.71528506 -0.57411057 -0.5429439
000190 fc d0 2d bf 40 11 4f bf d7 1e f1 be 76 78 0e bf
       -0.6789701 -0.80885696 -0.4709384 -0.5565256
0001a0 e3 da ad be a0 1d 3c bf 09 3a 41 bf fe cd 3e bf
       -0.3395606 -0.73482704 -0.7547918 -0.7453307
0001b0 98 4f d2 3d 44 33 4b bf b4 8d 50 bf 22 8e 1b bf
       0.102690876 -0.793751 -0.8146622 -0.6076375
0001c0 ab 6c 2f bf 35 e9 4c bf b8 62 27 be 9f ef 56 bf
       -0.6852519 -0.80043346 -0.16346252 -0.8395938
0001d0 18 e5 5f 3b 5e c8 83 be b5 7b b8 be 2b d3 42 bf
       0.003416365 -0.25738806 -0.3603188 -0.76103467
0001e0 5f 12 4a bf c2 cf 48 bf 7f 5b 44 bf 99 24 6e bf
       -0.7893428 -0.78442013 -0.7670211 -0.93024594
0001f0 d1 67 c0 be 93 50 30 bf d9 e4 cf be 60 03 5f 3d
       -0.37579206 -0.68872947 -0.40604284 0.054446578
000200 6f 5a 42 bf 1d 4f 57 bf 45 65 09 bf 04 0a 53 bf
       -0.7591924 -0.8410509 -0.5367015 -0.8243716
000210 82 f6 2a bf 72 b4 01 bf 0a 54 14 bf d2 e3 37 bf
       -0.6678239 -0.5066596 -0.57940733 -0.71832
000220 cd aa 0b bf ae 80 d9 be 9d 99 49 bf 87 33 8d 3e
       -0.54557496 -0.42480987 -0.7875002 0.27578375
000230 e8 2a 08 bf 95 85 01 bf e2 ed 4e bf b7 24 ca be
       -0.5319047 -0.50594455 -0.8083173 -0.39481136
000240 a4 15 42 bf e1 9b 1b bf de a4 de be 98 f7 b2 be
       -0.7581427 -0.6078473 -0.4348516 -0.34954524
000250 28 e3 df be 61 de b3 be 61 5c b2 be 53 f5 eb be
       -0.43727994 -0.351306 -0.34836105 -0.46085605
000260 44 ca e3 be bc 89 1c bf 03 2a b5 be 40 3e db be
       -0.44490254 -0.61147666 -0.35383615 -0.4282093
000270 23 da 3a bf 71 b1 f1 be 1f 42 26 bf 2a 19 14 bf
       -0.729891 -0.4720569 -0.6494464 -0.578509
000280 bd a7 d1 be 53 0f 02 bf 15 84 c4 be aa 87 59 bf
       -0.40948287 -0.5080463 -0.3838202 -0.8497263
000290 88 41 62 bf 32 56 19 bf 9d 4c f8 3c 13 c6 94 be
       -0.8838124 -0.5989715 0.03030997 -0.2905737
0002a0 22 92 50 bf de 2b 39 bf 28 86 39 bf b8 08 c6 be
       -0.8147298 -0.7233256 -0.7247033 -0.38678527
0002b0 55 93 5b bf a6 60 3b bf 0d 3a d4 be f0 58 c7 be
       -0.85771686 -0.7319435 -0.4145054 -0.3893504
0002c0 07 c0 4e 3f cb 64 51 bf 35 9f 16 3f 36 62 50 bf
       0.8076176 -0.8179442 0.5883668 -0.8139986
0002d0 2a cb 0a bf 31 99 09 bf ff 75 05 bf 09 3f 04 bf
       -0.54216254 -0.53749377 -0.5213317 -0.51658684
0002e0 1f c1 2e bf c8 75 73 be 42 64 6e be 95 37 32 bf
       -0.6826343 -0.23775399 -0.23280433 -0.6961606
0002f0 97 04 f6 be 36 dc 48 bf 44 34 1c bf d5 18 60 bf
       -0.48050377 -0.78461015 -0.6101725 -0.8753789
000300 00 23 54 bf 23 2c 13 bf 00 ce 22 bf 48 02 20 bf
       -0.82865906 -0.5748922 -0.6359558 -0.6250348
000310 f7 10 13 bf 94 be a8 be d2 e2 3f bf fc 59 03 bd
       -0.5744776 -0.329579 -0.74955475 -0.032068238
000320 76 7f 3b bf c2 ae 3c bf 6d 40 2c bf 59 b2 27 bf
       -0.73241365 -0.7370416 -0.67285806 -0.6550651
000330 af 92 14 bf 62 c8 35 bf 28 79 0f bf ed f2 32 bf
       -0.5803632 -0.71008885 -0.56044245 -0.69901925
000340 2c 01 27 bf f0 d2 bb be 29 70 18 bf 38 c2 de be
       -0.65236163 -0.3668437 -0.5954614 -0.43507552
000350 8b 2c 13 be 9a db 3c bf c7 4d a1 be 39 bf 59 bf
       -0.1437246 -0.73772585 -0.31504652 -0.8505741
000360 c0 e7 44 3e 7d f0 22 bf f8 b2 33 bf 61 d1 3e bf
       0.1922903 -0.63648206 -0.7019496 -0.74538237
000370 86 05 54 bf 3c 8d e4 be 0a cc 52 bf e7 e2 90 be
       -0.8282093 -0.44639003 -0.8234259 -0.28298113
000380 13 76 11 bf e5 a6 05 bf a5 13 88 be 62 c3 ff be
       -0.5682079 -0.52207786 -0.26577488 -0.49953753
000390 52 98 1a bf 98 ca 21 bf 49 2f 5a bf da db 50 bf
       -0.6038867 -0.6319976 -0.852284 -0.81585467
0003a0 e7 59 a6 be 2c 5c fb be ac 41 f5 be dd f1 04 bf
       -0.32490465 -0.4909376 -0.47901666 -0.51931554
0003b0 64 b5 63 bf e9 bd 20 bf c0 81 de be 3d 8f b6 be
       -0.88948655 -0.6278978 -0.43458366 -0.35656157
0003c0 dd ed 05 bf 40 f5 10 bf d4 27 0c bf 2c 62 1e bf
       -0.52316076 -0.5662422 -0.5474827 -0.6186855
0003d0 e5 8c 0e bf 6d 29 3f bf 3d 92 0b bf bb 3c a3 be
       -0.5568374 -0.74672586 -0.54520017 -0.3188227
0003e0 e4 f6 15 bf f5 18 5d 3e 8a b9 1d bf 7a c6 1e bf
       -0.5857985 0.21591552 -0.61611235 -0.620216
0003f0 96 1b 3a bf 8b 77 3a bf 9a 18 17 bf 34 8d 8c be
       -0.7269834 -0.7283866 -0.59021914 -0.2745148

fc2_layer.weight f4 [256, 256]
000000 44 5c 90 bd 4a 7e b3 3d 38 1d 7f bb aa f5 22 bd
       -0.07048848 0.08764322 -0.0038927328 -0.039785065
000010 cd 56 15 be 3a 08 7d bc 6d 36 82 be 4d de 24 be
       -0.14583893 -0.015443856 -0.2543215 -0.16100426
000020 11 84 02 3e 74 4a 6e be 9f 5a 0b 3e c5 72 96 be
       0.12745692 -0.23270589 0.13608788 -0.29384437
000030 54 b4 d7 bd 52 41 76 be 94 3c c4 3d de 7d 55 bd
       -0.10532442 -0.24048355 0.09581867 -0.05212199
000040 3d 9e 7e be ba ba 4c 3c 74 a8 c2 be 62 93 5f bc
       -0.2486505 0.012495691 -0.38019145 -0.013645979
000050 b7 cb f7 bd 37 cb 1b be 41 36 56 be 28 b4 8a be
       -0.120994024 -0.15214239 -0.20919134 -0.27090573
000060 b4 34 a6 3b 67 d2 32 be 44 c2 cf bc 12 80 7d 3d
       0.0050722007 -0.17463075 -0.025361188 0.061889715
000070 f5 b7 7a 3e 3c c4 99 bd 2d 6d b0 be fc 63 0d 3e
       0.24484237 -0.07508132 -0.34458295 0.13807672
000080 58 e6 d8 be d2 74 aa bd d2 3b c6 be 17 1f 2c 3e
       -0.42363238 -0.08323063 -0.38717514 0.16808735
000090 07 c9 c2 be 19 a7 d0 be c5 b7 e8 3c b1 11 20 bd
       -0.38043997 -0.40752485 0.02840794 -0.03907937
0000a0 a7 f4 83 bd 75 ad 0f be ef 31 6d bd b8 76 98 be
       -0.06443148 -0.14031012 -0.05790895 -0.29778075
0000b0 5e e6 7c bc 44 02 c5 bc 24 b3 e5 bd 8b d4 77 ba
       -0.015435783 -0.024048932 -0.11215809 -0.00094539736
0000c0 45 d4 b2 bd e8 41 bb bd ae f6 12 3e 04 09 ad bd
       -0.087318935 -0.0914343 0.14351913 -0.08448985
0000d0 a1 a2 c2 bd c9 1a 9a 3d a9 8a 8e be 66 45 6c be
       -0.09503675 0.0752464 -0.27840164 -0.23073348
0000e0 ec 46 ba 3c 7f 02 a1 bc 50 06 fd 3a 89 c3 10 bd
       0.022738896 -0.01965451 0.001930425 -0.035342727
0000f0 25 d5 72 be 27 21 a8 bc 1c a4 18 be 3c 37 50 be
       -0.2371412 -0.02052362 -0.14906353 -0.2033357
000100 a2 cd 8c 3b 9f d8 8c bd c5 2d 85 bd ba 57 1a 3d
       0.0042969743 -0.06877255 -0.065028705 0.03768132
000110 9e a5 98 bc 87 0a d0 3c af 67 82 3d 4b 29 cc bd
       -0.01863366 0.025395645 0.06367432 -0.099688135
000120 da ee eb 3d 50 da 2f 3c 51 69 91 3d 47 9f 6b be
       0.11520167 0.010733202 0.07100166 -0.23009978
000130 d0 a6 7a 3c 6f 93 d3 3d b2 9a 6b bd 1f 79 95 be
       0.01529856 0.10330855 -0.057520576 -0.2919397
000140 b6 17 68 bd d3 c9 58 bd dc 53 2a be 14 67 29 3d
       -0.056663238 -0.05292685 -0.16633552 0.04135807
000150 4f fb bd be bd 9e 02 3e 22 f4 4c 3d e5 88 7d bd
       -0.37105796 0.12755866 0.05003751 -0.06189813
000160 0b 17 83 be be 06 28 be 31 d1 18 bd ef a9 9b 3d
       -0.25603518 -0.16408822 -0.037308875 0.07600772
000170 99 3d c1 bc f0 68 7b bd 69 e7 06 bc ce d8 1e be
       -0.023588942 -0.061379373 -0.008233883 -0.15512392
000180 d4 d7 89 3a bd 8c ae 3d 0d f6 06 be 0e 8a 09 3e
       0.0010516592 0.085229374 -0.13179798 0.1343157
000190 90 c2 a2 bd 2a c4 2f be 38 03 fc bd 04 06 ce bd
       -0.07947266 -0.17164674 -0.123053014 -0.10059741
0001a0 6f 1d 6f 3b 3b 1e 74 3e a1 d1 1c be 9b 20 6b be
       0.003648605 0.23839657 -0.15314342 -0.22961657
0001b0 f0 ad 3b be 12 96 d9 bb 72 02 50 be 07 65 72 be
       -0.1832807 -0.006640204 -0.20313433 -0.23671351
0001c0 fc 73 78 3e b0 69 0e 3d 8d c2 ac be 94 a0 a9 bd
       0.24262995 0.03476876 -0.3374218 -0.08282581
0001d0 eb 5a 14 be 2f 4c 57 3e 37 39 8c 3d 48 38 2b be
       -0.14487807 0.21025155 0.0684685 -0.16720688
0001e0 66 88 5e 3d ad e2 23 be c8 37 f0 3d 97 14 28 3e
       0.0543293 -0.16004439 0.117293894 0.16414104
0001f0 ed fd bd bd e3 f8 8e 3c 5a 15 5c 3e 14 da 25 be
       -0.09276948 0.017452663 0.2149252 -0.16196471
000200 9a e9 53 be f1 ff 25 be e0 b7 dd bd 8b 88 af bd
       -0.2069458 -0.16210915 -0.10826087 -0.085709654
000210 97 a7 6b bd fe 98 dd bd 0c 3b 04 3e 95 e2 70 bd
       -0.057532873 -0.108201966 0.1291315 -0.058809835
000220 8f 27 10 be 08 51 b1 bc f0 ea 68 3b c0 2d 4f be
       -0.1407759 -0.021645084 0.0035540424 -0.20232296
000230 aa 16 76 bd 1a 74 0b be 3e 7c 1f 3e 3d ce b5 bc
       -0.060080208 -0.13618508 0.15574738 -0.022193069
000240 10 8b 9b 3d 2f 84 97 bd 43 10 3d bd 80 88 8b be
       0.075948834 -0.07398259 -0.046158087 -0.2725258
000250 f9 be ad 3d 45 81 0b be 84 95 28 be 8f 51 ab bd
       0.08483691 -0.13623531 -0.16463286 -0.083651654
000260 b6 d6 b8 3d ba 27 6a 3e c0 a5 c0 be 83 05 82 bd
       0.09025328 0.22866717 -0.37626457 -0.063487075
000270 eb f9 62 3d dd 89 84 37 83 0b c6 bd 9a 6a 7e be
       0.05541412 1.5799824e-05 -0.096701644 -0.24845353
000280 83 48 25 be 8f 64 51 3e 48 9c d2 3c 04 f9 a1 bd
       -0.16140942 0.20448516 0.025709286 -0.07908824
000290 73 0f 05 3e de 91 a1 3c 19 2b b5 be db 53 0a be
       0.12994175 0.019722875 -0.35384443 -0.13508551
0002a0 70 3e 79 be 30 6b 36 3b 71 c0 bf 3b 5f c1 69 3e
       -0.24340224 0.0027834885 0.005851798 0.22827671
0002b0 90 5b d6 be 33 c0 e3 bc 91 aa 26 3d 71 9c 04 be
       -0.41866732 -0.027801609 0.04069001 -0.12950303
0002c0 3f 6d 90 be 84 04 ad bd 92 4f f4 be d3 61 1d be
       -0.28208348 -0.08448127 -0.47716957 -0.15369348
0002d0 b2 8d dc bd 75 61 4f 3d 96 a2 20 3d 63 d1 38 bd
       -0.10769214 0.05063005 0.039217554 -0.04512156
0002e0 08 e1 91 be a8 f2 f6 bd b2 1b 8c bd 8c 08 8f 3d
       -0.28491998 -0.12058002 -0.0684122 0.06984052
0002f0 95 59 56 be be 87 86 be 11 44 1d be cf 83 97 3d
       -0.2093261 -0.26275438 -0.15357997 0.07398187
000300 3e 5c 31 3d b6 72 9d be f3 03 69 3d e0 e1 be bc
       0.04330086 -0.3075158 0.056888532 -0.023301065
000310 42 70 3a be 86 c5 50 bd 13 0c 48 3e 6d 6d f5 3b
       -0.18206885 -0.050969623 0.19535856 0.007489851
000320 bd 01 04 be 88 10 c2 bc ec a0 ad 3e 4a f6 99 be
       -0.12891288 -0.023689523 0.33911836 -0.30070716
000330 e0 ef 3d be cf 9e f7 bd 7b 8a 72 be 6e da b7 3b
       -0.18548536 -0.12090837 -0.23685639 0.0056107556
000340 4b fd 7f be 96 99 ab bd b3 bb 51 3e 6d 1f 54 3d
       -0.24998967 -0.083789036 0.20481758 0.051787782
000350 86 ab 1b be 1b bb 88 bd 9a 2e 0c 3e 6a 5c e9 bd
       -0.1520215 -0.066763125 0.13689652 -0.1139458
000360 7e 98 02 3e 58 51 82 be 55 a5 04 be e6 ce 41 3e
       0.12753484 -0.25452685 -0.12953694 0.18926582
000370 64 0b 72 be 0e 4f 0a be 73 b2 04 be 44 fc 1d be
       -0.23637158 -0.1350672 -0.12958698 -0.15428263
000380 82 c0 13 be 4b eb 01 bd 84 77 9c 3d 43 f5 ab be
       -0.14428905 -0.031718533 0.07639983 -0.33585557
000390 94 2e 90 be ca 7f ae be 69 80 20 be 2d 72 85 be
       -0.28160536 -0.3408187 -0.15673985 -0.26063672
0003a0 ed 83 df bb 1c d8 92 3d 06 0a 9d bd a3 e6 ca be
       -0.0068211467 0.07170126 -0.076679274 -0.39629087
0003b0 d1 b1 bd bd e5 8e aa bc 52 9c e7 3c 4b ff b0 bd
       -0.092624314 -0.02082009 0.028272782 -0.08642443
0003c0 14 e1 60 bb 04 32 0d bd 14 7f 50 bd e0 96 1d be
       -0.0034313845 -0.034471527 -0.05090244 -0.15389585
0003d0 49 7f a3 be d7 c0 51 be 64 af 46 be 11 e2 ae bd
       -0.31933048 -0.20483719 -0.19402844 -0.085392125
0003e0 27 16 61 3d fd a3 6c be b2 e1 2f be 46 50 8e 3d
       0.054952767 -0.23109432 -0.1717594 0.06948905
0003f0 e2 79 7d bc cd 95 6c be ad 32 28 3e 52 18 ac 3d
       -0.015470954 -0.2310402 0.16425581 0.08403076

fc2_layer.bias f4 [256]
000000 86 58 71 3e 0d 19 32 bd a3 b3 28 be 29 79 b8 bd
       0.23568925 -0.04348092 -0.16474776 -0.090074845
000010 96 1d 94 bd 96 2e 11 bd 8d 97 8a 3f 08 68 12 be
       -0.072322056 -0.03544482 1.08275 -0.14297497
000020 63 83 eb bc be 16 48 be 57 01 db bd b3 d1 25 be
       -0.028749174 -0.19539925 -0.10693615 -0.16193275
000030 39 15 ca bd 6b 6a ee bd 06 48 33 ba 62 27 8c 3c
       -0.09867329 -0.11641391 -0.00068390404 0.017108623
000040 92 ab 6a be b6 2a 6e be 33 ac 78 bd 73 d2 4c bd
       -0.22917011 -0.2325848 -0.060711097 -0.050005388
000050 d6 58 38 bd 40 3d b9 bd 66 4b e1 bd d8 96 45 bd
       -0.045006596 -0.09044886 -0.11000709 -0.04823956
000060 a1 ec 92 bd bf 6f 39 3c d6 4b 63 bd e3 aa 28 be
       -0.0717404 0.011318146 -0.055492245 -0.16471438
000070 27 1b 04 be a4 e1 0f bd b2 e8 f8 bd 38 ea fa bd
       -0.12900983 -0.035127297 -0.12153758 -0.12251705
000080 06 ee 0f be 1f 6b 34 bd b0 92 76 bd 62 e9 1a be
       -0.14055642 -0.04404747 -0.060198486 -0.15128091
000090 0e 80 f8 bb f0 61 51 bd 29 65 87 bd 96 da 17 bd
       -0.0075836247 -0.05111879 -0.06611092 -0.037073694
0000a0 e1 63 c7 bd 3a 5e a0 bd 39 32 e8 bd 16 ef d7 bb
       -0.09735847 -0.07830472 -0.11337704 -0.0065897806
0000b0 04 8c f3 bd 7d 11 37 bd 55 14 07 be 4e 12 39 be
       -0.1189194 -0.044694412 -0.1319135 -0.18073389
0000c0 71 65 66 bd 0a 52 fe bd 22 e9 9d 3f 02 35 90 bd
       -0.056249086 -0.124179915 1.2336771 -0.070413604
0000d0 b5 e6 b2 bd dc 30 42 bb 29 4f 80 bd f7 78 01 bd
       -0.0873541 -0.0029631173 -0.062650986 -0.0316095
0000e0 36 5e 5b bd 13 34 08 be ea 36 0a bb 5b 87 2f be
       -0.053556643 -0.13301115 -0.002108986 -0.17141478
0000f0 cd 63 95 be 46 50 56 bd 8d 1f 2f 3d 82 a9 bb bd
       -0.29177704 -0.05232265 0.0427547 -0.091631904
000100 db ad a2 bd e0 32 30 bd be 95 ba bc fa 96 ab 3f
       -0.079433165 -0.04301727 -0.02277648 1.3405449
000110 b0 d0 c8 bd c6 0f 04 be ee fa e6 bb 16 b2 a8 bd
       -0.09805429 -0.12896642 -0.007048956 -0.08237092
000120 6b dc 5e bd f3 94 ed bd 1a ef b7 bc 7d 00 21 be
       -0.054409426 -0.116006754 -0.02245288 -0.15722843
000130 00 3e ad bd 90 46 65 be 9c 29 80 bd 09 3c dd bd
       -0.08459091 -0.22390199 -0.06257936 -0.108024664
000140 00 7f 04 bd 3c 42 e1 bd f8 90 8f bd 43 75 75 be
       -0.03234768 -0.10998961 -0.070100725 -0.23970513
000150 38 de 81 be 37 85 96 bd d2 6c 8f be 69 d6 07 be
       -0.25364852 -0.073496275 -0.2801271 -0.13265385
000160 9c 61 8c bd 35 07 20 bd 45 79 2f bc 48 93 35 bd
       -0.06854555 -0.039069373 -0.010710065 -0.04432991
000170 e5 ba 3b be 02 46 b0 bd ba d6 d6 bd 0d 06 14 be
       -0.18333013 -0.08607103 -0.104901746 -0.14455433
000180 96 92 c2 bd 4c 6d 0b be 0a 25 a2 bc 84 22 10 be
       -0.09500615 -0.13615912 -0.019793052 -0.14075667
000190 96 6f 09 be 32 5a 6e be b5 b1 bd bc 70 42 c2 bd
       -0.13421473 -0.23276594 -0.023156026 -0.09485328
0001a0 85 47 1e be 15 b7 c2 bd 48 c7 71 bd dc b4 1a 3c
       -0.1545697 -0.095075764 -0.05902794 0.009442534
0001b0 56 1f c4 bd bc 57 bb bc 32 96 fe bd 44 56 40 be
       -0.09576289 -0.022868983 -0.12430991 -0.18782908
0001c0 25 53 7f bd 1f 6a c0 bd 75 11 01 be 0f cf c6 bd
       -0.062335152 -0.09395241 -0.12604316 -0.09707462
0001d0 4a 09 02 be 3d 92 98 bd 5d 3b 2c bd 06 62 58 bd
       -0.12698856 -0.07449768 -0.0420488 -0.052827857
0001e0 43 8c 95 bd 3c a8 3c be a1 e0 c8 bd e7 4a fb bd
       -0.073021434 -0.18423551 -0.098084696 -0.12270146
0001f0 3b 9f 1e be ad fe c8 bd 35 18 4d bd fe ec 8f bd
       -0.15490429 -0.098142006 -0.050071914 -0.070276245
000200 3b a8 9f bd e6 75 f0 3d 9d b9 04 be 5a 59 53 bd
       -0.07795759 0.11741237 -0.12961431 -0.051598884
000210 1d 35 0f be d1 83 4b bc ef 44 f3 bd 3c 64 21 be
       -0.13985105 -0.012421564 -0.118783824 -0.15760893
000220 de 6c a6 bd ee 24 11 be 7a 9a 00 bd c2 e9 00 bd
       -0.081262335 -0.14174244 -0.03139732 -0.03147293
000230 fd 74 93 bd 9c 33 6f bd d1 35 27 bd 15 9a bd bd
       -0.07200048 -0.058398828 -0.040822808 -0.092579044
000240 f6 5c 3e bd d0 bb f9 bc cb 23 0d be 86 6e 9a 3f
       -0.046475373 -0.030485064 -0.13783185 1.2064979
000250 4b 5c 03 be 4a e3 33 be f5 10 94 bd c7 14 2c be
       -0.12828176 -0.17567173 -0.07229797 -0.16804801
000260 d3 5d 87 bc 0d 64 95 bd 81 87 22 bd 62 3e 9a bb
       -0.016524231 -0.07294474 -0.039680008 -0.0047071436
000270 1a 8f a7 bd 1b 73 5a bd 06 2e 70 be 9b 6d ad bc
       -0.08181591 -0.05333243 -0.23455057 -0.021170428
000280 b2 45 09 bc 54 f9 e0 bd 9c 48 6e bd 6a dd 97 bd
       -0.008378433 -0.109850556 -0.058174714 -0.07415278
000290 0a c4 45 bd 45 b4 55 bd ef 9f 69 be d6 1b ea bc
       -0.04828266 -0.05217387 -0.22814916 -0.028577726
0002a0 bd c1 87 bd 3d 03 a2 bd 6c bd 50 bc 7e 3f 31 be
       -0.066287495 -0.07910774 -0.012740474 -0.17309377
0002b0 eb 14 f8 bd 6f 8f e1 bd 81 1b cc bc 79 8f 2d be
       -0.12113365 -0.11013686 -0.024915459 -0.16949262
0002c0 da 90 8d bd 92 6b e0 bd 4e db b7 bd 61 fe 04 bd
       -0.06912394 -0.109580174 -0.08977376 -0.032469157
0002d0 6f 1e e4 bd 21 70 e5 bd 66 58 5f bc bc 61 59 bc
       -0.11138617 -0.112030275 -0.013631916 -0.013267931
0002e0 d0 9d de bd 18 92 a9 bd f3 64 e6 bd 92 9e f9 bd
       -0.10869944 -0.08279818 -0.11249723 -0.12188448
0002f0 27 b8 b0 bd d3 59 03 be 22 33 58 bd 36 56 54 bd
       -0.08628874 -0.12827234 -0.05278314 -0.05184003
000300 8e a2 66 be ed 2f f8 bd 99 eb ab bd b3 42 4f bd
       -0.22522947 -0.12118516 -0.08394546 -0.05060072
000310 83 4c 5a be f4 f4 0b 3f 56 01 1e be b4 6c 34 be
       -0.2131825 0.54670644 -0.15430197 -0.17619592
000320 52 0c 2a be 19 98 58 bd fe f8 91 bd 98 49 1f bd
       -0.16606262 -0.052879427 -0.071275696 -0.038888544
000330 3f 86 2a 3f f4 9e 91 bc 20 d6 91 bd 31 3a 49 bd
       0.66611093 -0.01777599 -0.07120919 -0.04912776
000340 d6 b3 c7 bd 7f f7 de bd 4a bb c9 bd 2d f7 e3 bd
       -0.09751098 -0.1088705 -0.09850176 -0.111311294
000350 03 27 8a bd 7b 34 b4 be 0f ed bd bd 5a 12 80 bd
       -0.06745722 -0.3519629 -0.09273731 -0.062535
000360 88 22 ee bd ee 2a 00 be 3e 3a 17 bd 55 fa 98 bd
       -0.1162768 -0.12516376 -0.03692078 -0.07469622
000370 1a 43 b5 bd 1a 1f 0b be b1 46 90 bc be b3 b5 bc
       -0.08850689 -0.13586083 -0.017611833 -0.022180434
000380 e0 56 2e bd 8f 77 ff bc 93 f7 9c bc 73 37 cb bc
       -0.04256332 -0.03118494 -0.019161021 -0.024806714
000390 bd 7e 84 bc 8b 72 32 bd 0d 95 c0 bd bc 8a f8 3a
       -0.016173715 -0.043566268 -0.09403429 0.0018962245
0003a0 4c 23 38 bd 32 4a a2 bd 3e e9 80 3c ab 33 4c bd
       -0.044955537 -0.07924308 0.015736219 -0.049853962
0003b0 be ad 0b be bd 72 7a bd 3d fb 15 be a0 44 02 be
       -0.13640496 -0.06114458 -0.14646621 -0.12721491
0003c0 ad bd 60 be 9c e9 37 be b8 2b 6e bd 4e c1 d3 bd
       -0.21947356 -0.17960209 -0.058147162 -0.10339604
0003d0 83 57 d5 bd 4b ed 7c bd 20 39 b0 bd be bd 53 be
       -0.10417082 -0.061749738 -0.08604646 -0.2067785
0003e0 9e 3e e4 bd 53 12 14 be c4 7a 9b bd b3 a5 c9 bd
       -0.11144756 -0.14460115 -0.07591775 -0.09846058
0003f0 c4 7d c8 bd 85 cb a4 bc 16 67 80 bd 04 9f d6 bd
       -0.09789613 -0.020116577 -0.06269662 -0.104795486

critic_out_layer.weight f4 [1, 256]
000000 80 66 b1 bc 0f 38 68 bc 46 96 2d bd db 2d 2a be
       -0.021655321 -0.014173522 -0.04237964 -0.16619055
000010 dc 29 fc bc e2 d0 24 bb a1 a7 50 3d 79 7c c8 3c
       -0.030781679 -0.0025148918 0.050941113 0.024473416
000020 be 25 e3 3c 84 ff c4 bc 01 5e 2e bb 70 8a bd 3c
       0.027727958 -0.02404762 -0.0026606324 0.023137301
000030 bc 99 96 3c 59 c7 cf 3b 36 8b e0 3c 53 53 ec bc
       0.018383853 0.0063409028 0.027410131 -0.028848326
000040 1c 0b a4 bc 3d b2 0e bb 54 ce b8 bc 6c bc c4 b9
       -0.020024829 -0.0021773719 -0.022559322 -0.00037524418
000050 bc ba 28 3a 85 6e fd 3c 7a 34 04 bc 8a c8 05 bc
       0.0006436517 0.030936489 -0.008069152 -0.008165488
000060 3d 4e 00 3c 1c 0e fc 3d 64 e4 e3 bc 9f 81 fc ba
       0.007831153 0.12307379 -0.027818866 -0.0019264704
000070 21 89 78 bd 59 b5 84 bb 6d 26 cd 3b 0c 53 19 bc
       -0.06067765 -0.0040499386 0.006260684 -0.009358179
000080 4b da fa bb 57 58 cd 3b b4 94 e4 3c 89 11 a7 3c
       -0.007655417 0.0062666344 0.027902938 0.020394104
000090 ff ef 4c bc cc b4 9a 3b 4d ea dd bb 1e e4 f6 3c
       -0.012508391 0.0047212597 -0.0067723156 0.030138072
0000a0 2f 7d ae 3c 9b d6 8a 3c 14 54 14 bc 40 d2 46 bc
       0.021299927 0.016948035 -0.009053249 -0.012135088
0000b0 07 a9 13 3c 1f 54 b1 bc b3 3d e0 bc 9b 88 4e 3d
       0.009012467 -0.021646557 -0.02737317 0.050423246
0000c0 3b 25 29 3c 34 6f af 3c 0c 8f 88 3d e3 0f c0 bc
       0.010323818 0.02141533 0.06667909 -0.023445075
0000d0 f9 f6 42 bc 3f a6 8e bc b6 8b 54 bc f3 13 ba bb
       -0.011899703 -0.017413257 -0.012972763 -0.0056786477
0000e0 e2 bd a5 3b ba dc e4 bb c6 1f da 3c 29 15 8f bc
       0.005058036 -0.0069843205 0.026626479 -0.017466145
0000f0 7a c9 4a 3c b3 b5 93 3b be 7a f5 bc 00 89 02 3c
       0.012377137 0.004507744 -0.029965755 0.007967234
000100 56 a7 80 3d 64 6e 17 bd a8 9f d1 bb 67 8d d0 3d
       0.06281917 -0.03697051 -0.0063972063 0.1018322
000110 b9 19 d1 ba 00 5c c6 3c ce 99 35 3c 6d 10 12 bb
       -0.00159531 0.02421379 0.011084033 -0.0022287623
000120 10 58 af bb 07 fa 8e 3c c9 c4 a7 3c e0 db 92 3c
       -0.005351074 0.017453207 0.020479577 0.01792711
000130 be 46 34 bc 3e d4 84 3b bf e4 8a b9 da c7 e2 3c
       -0.011003194 0.0040536216 -0.0002649184 0.027683187
000140 10 58 02 bb 42 3a 07 bd 9f a5 82 ba 6f f7 e3 bc
       -0.0019888915 -0.033014543 -0.0009967572 -0.027827946
000150 f1 94 d8 bc f7 d3 01 bd 52 91 10 38 e9 de 2e bd
       -0.026438208 -0.031696286 3.4467615e-05 -0.042693052
000160 50 73 86 3c 63 ce 5e 3c 9a 4e f4 bb 9c b5 94 3c
       0.016412407 0.013599011 -0.007455659 0.018153004
000170 ec 70 6d bd e8 52 e2 3b f2 fc c3 3b a2 80 d2 bb
       -0.05796902 0.006906856 0.005981081 -0.0064240256
000180 36 73 94 3c 8b c5 ec bd 7a a1 af b9 78 b8 8d 3b
       0.018121343 -0.11561116 -0.0003349891 0.004324969
000190 86 16 af bb e0 a5 42 bc 2c de bf 3c 50 34 8d 3b
       -0.005343261 -0.011880368 0.02342137 0.0043092147
0001a0 6b b9 0e 3b 36 5e 3f bc cb 80 db bc 1e 1c a7 3a
       0.0021777998 -0.0116801765 -0.026794812 0.0012749468
0001b0 1a 9b d7 3b 46 28 0c bc 6c a9 78 bc 4c fd bc ba
       0.006579769 -0.008554524 -0.015177112 -0.001441875
0001c0 0b 21 83 bc 79 35 95 bd 8c 23 a0 bb ff 05 6c bc
       -0.016006967 -0.0728559 -0.00488705 -0.014405726
0001d0 40 1e dd 3c 8c 88 fd b7 1d 1d 40 bb fc b9 f4 bd
       0.026991963 -3.0223535e-05 -0.0029314228 -0.11949536
0001e0 6a bf db bc 47 89 d7 bc aa a3 a4 bc 9b 22 af bc
       -0.026824672 -0.026310576 -0.020097572 -0.021378806
0001f0 d1 de e9 bc 83 cc 25 3d 7d a2 c9 bc ae c8 81 bc
       -0.02854863 0.04047824 -0.024613613 -0.015842762
000200 90 8b 8f 3c 18 88 70 bd d8 db d1 bc 72 b7 db bb
       0.017522603 -0.05872354 -0.025617525 -0.006705218
000210 64 cf 2d 3c 6a ea 92 3c 0e 3f 8f 3c 7f eb 94 bc
       0.010608528 0.017934043 0.017486122 -0.0181787
000220 9e 07 38 bd 7c f4 33 bc 6c db 51 bd d0 ac 21 3d
       -0.04492914 -0.010983583 -0.051234648 0.039471447
000230 a1 f2 29 bc 8d a4 f3 bd 0b 11 38 bc ae 71 e2 bc
       -0.010372789 -0.1189662 -0.011234532 -0.027642097
000240 bf c7 de bc c0 66 e0 bb 7b f5 fe bc 9f 95 96 3d
       -0.027194856 -0.0068481863 -0.031122914 0.07352757
000250 d9 17 d4 3d ff d9 35 3d b7 3a 29 3c 08 fc b0 3c
       0.10356111 0.04439735 0.01032894 0.021604553
000260 85 d8 85 bc cb d4 f4 3c 9b e5 3e bc 85 03 ce 3b
       -0.016338596 0.029886624 -0.011651422 0.0062870407
000270 cc 41 01 bd 54 c7 c0 3c 13 89 3f 3c df 47 d3 bb
       -0.03155689 0.023532547 0.011690396 -0.0064477767
000280 a3 34 46 3c 90 46 17 bc 5e 2a b8 bb 65 11 8f bc
       0.0120975105 -0.009233132 -0.005620285 -0.017464349
000290 01 06 55 bd 7e c1 ad 3c d4 2c e5 bc a7 09 6b b9
       -0.05200768 0.021210428 -0.027975477 -0.00022414942
0002a0 92 32 bc 3b 60 db 49 bc d5 ce 99 3c e2 dd 79 3b
       0.005743333 -0.0123203695 0.018775383 0.0038126637
0002b0 24 83 af 3c 93 ac 23 3c 68 90 ca bc 11 4e 2b 3c
       0.021424837 0.009989875 -0.024727061 0.010455624
0002c0 20 55 95 3c 76 65 84 bc d0 d7 f1 3c 61 67 d6 bc
       0.018229067 -0.016161662 0.029521853 -0.026172342
0002d0 67 0d 48 bc da 55 f2 39 50 55 74 bc 70 c3 5f bd
       -0.012210227 0.000462218 -0.014912918 -0.054629743
0002e0 da 4b 8c 39 62 12 41 3a 4a e8 f6 3c cc 9e cc bc
       0.00026759395 0.0007365105 0.030140061 -0.024978064
0002f0 57 62 30 3b 48 88 50 bc 05 de b3 bc 4f e9 b0 bc
       0.0026914084 -0.0127278045 -0.021956453 -0.021595625
000300 3d c9 da 3c 7f 59 0d 3c 89 74 be 3c 3f 31 7a b9
       0.026707286 0.008627295 0.023248928 -0.00023860204
000310 d1 64 ea bc c0 e8 0a 3c 84 b5 cf 3b 46 6a ba 3c
       -0.028612526 0.0084783435 0.006338777 0.022755753
000320 03 4d 9b bd d6 06 63 bc 8a 7e 15 3c f9 16 80 bc
       -0.07583048 -0.01385661 0.009124408 -0.015635954
000330 4f 82 f7 3b c2 52 1b 3c 4d db 53 3c af 9f e5 3c
       0.007553376 0.00948018 0.012930703 0.028030245
000340 cf 01 20 3c 4e 6a 1d bc a6 19 55 bb b6 8d 83 3c
       0.009766056 -0.009607865 -0.0032516508 0.016058784
000350 c4 fd a3 3c 29 7d f9 3a ea 0d 91 bc c3 77 50 3b
       0.020018466 0.0019034493 -0.01770683 0.0031809665
000360 b5 8e bb bc b7 3f fc 3c ee 39 01 bb 3d b5 18 bc
       -0.022895196 0.0307921 -0.0019718367 -0.009320554
000370 1d f5 22 bc a8 e8 94 bd 91 90 95 bc 71 d8 ee 3c
       -0.009946135 -0.07270938 -0.018257411 0.029155942
000380 86 aa 19 3b 17 ef bc 3c e1 e0 b8 bc 36 34 c9 3c
       0.0023447587 0.023063226 -0.022568168 0.024561029
000390 9c da 83 bc f5 d1 ca 3b ce fc 96 bc fe b4 02 3b
       -0.016095452 0.0061895796 -0.018431094 0.0019944306
0003a0 26 65 ce 3c ac 94 e8 bb 3b e4 0c bc 1d 4b ee bb
       0.025194716 -0.007097801 -0.008599336 -0.007272138
0003b0 de a1 dc 3c e0 d2 e6 bb 25 97 04 bd 8f 09 be bb
       0.026932653 -0.007044181 -0.032370705 -0.0057994793
0003c0 44 af 86 3c df 7f a2 3c 88 f7 ec bb 12 2d 5d 3c
       0.016440995 0.019836364 -0.0072316565 0.013499515
0003d0 93 5f 70 3c 7f 52 31 bc 9a 58 8d bc 4c af 6a bc
       0.014671224 -0.010822891 -0.017254163 -0.014324021
0003e0 57 ec 0d bd e5 ea ba bc dd 0c c1 bc 8e b0 06 bb
       -0.03464922 -0.022817085 -0.023565704 -0.0020552012
0003f0 5a eb fd bc 43 fa 97 3c 1a 89 1b bc 30 fa a5 bc
       -0.030996013 0.018551951 -0.009493137 -0.0202609
