projet/models/actor_critic/player_1_actor.pth (torch, 316687 bytes, 6 tensors)

fc1_layer.weight f4 [256, 42]
00000000: dea7 963c 53fc 74be 8804 27bd 8780 3ebe
00000010: 4fca 393b 6b3a 1dbe eba4 a1bd 2965 253e
00000020: e72e f4ba a1a3 c73d 94be 303e 50b3 ffbd
00000030: a83d 2a3e 23ef a33e dfa7 8a3d 9567 453d
00000040: e4c8 48bb cdd6 f3be 65f2 03be 6357 4cbe
00000050: ca7a 143e 2c68 f9bb bba5 81bd 470b 25be
00000060: d61f dabd 354d 1ebe a293 b8bd 8ff0 8c3d
00000070: 98fe e33c b23a 16be 4847 4dbd 1afa 883c
00000080: 04e2 59be cab1 92bc d842 aa3e 8a01 603e
00000090: 8adf b13e d35e 60be 4881 6e3e 5ebc bf3c
000000a0: a9fc 66be 7ebc 98bd ba99 b33d afbd dbbd
000000b0: 121f e03d ce58 213e b49a 13be 02e7 04be
000000c0: 89b7 243e d5e3 8b3d f895 c9bd d9e7 4abd
000000d0: aca1 06be f710 babe e6bb f3bd 320e c53d
000000e0: 4c16 b4bd d5c4 f33e 3841 e73d 934a 2c3c
000000f0: 3b89 a2be f31b 31be b60f 06be 32ad 23be
00000100: d9e0 27be 4086 84be 0d5e f1be dd57 163e
00000110: 88bf 01be 8224 2a3e 46ee 0c3d fd73 36bd
00000120: d828 123e 46f8 fe3d ddb1 833e ffb8 41be
00000130: 0f70 243e 6a5b 4c3e 3774 9c3e 07a9 bfbe
00000140: bef1 f2bd 94c8 113e e5c5 413d 0ad5 5f3e
00000150: 79ec 82bd b763 40be e469 34bd af2d 213e
00000160: a6a6 2ebe ace7 06be af79 f5bd 5bec be3e
00000170: db9c f03d 9df6 febd 630f 163e 8eb4 49be
00000180: cd26 9dbe 8ae1 c43e 2135 4e3e b487 a33d
00000190: d2b3 b33d bf9e 2c3d fcac 19be 9abd 9dbd
000001a0: f32f 69be 26d6 f0bb 4bf7 82be a491 6f3b
000001b0: e4f3 ddbe 5c53 7dbd ca40 21be 9ff1 233e
000001c0: debb f3bd 1e74 a63d e07d 82bd e424 bc3d
000001d0: febb 5a3d 5c9d 67be 4887 fabd d9c3 b23e
000001e0: 3875 583e 7ee6 cfbe 822f e6bd 9f94 91bc
000001f0: e601 313e 5e3a 703e ee79 333d 4939 1ebe
00000200: 1664 b43d c6cf 64bd 6387 1f3d 16e3 8abd
00000210: 2d12 1ebe fc86 60be 73d4 3b3e 46d5 0e3b
00000220: 63a1 663c f48f 6ebd 9870 4dbe 6e7c 53be
00000230: 37ac 313d c42e a3bd 3bef 863d 7d03 453d
00000240: dd26 59bd 29ea bd3c 8145 31bd 6bfa 44be
00000250: e954 cf3e edd2 d33d b2db 703e c291 8c3d
00000260: 5690 abbe 5d3d 86bd 2c28 7fbe 8d7b b63e
00000270: 3183 573e 0b45 3e3e a10f 193e 5056 0e3d
00000280: 7a66 1a3c 0d94 a5be 16eb 54bc 19db eabc
00000290: 2930 69bd a8cb 5c3e f141 6ebc 2117 2fbe
000002a0: 03e3 0b3e 8e95 60bd 68c3 933c 8bde 5d3d
000002b0: abe5 903e 1031 bfbb 0be0 df3d 1dc6 f6be
000002c0: 983b 1a3d 0bff 43bc d26d cbbd 7e25 b33e
000002d0: 8084 e43c 1e41 89be f9f3 8d3d f691 b0be
000002e0: 0f66 e9bd 8802 b43d 29e0 6c3e 93d4 453d
000002f0: 39c8 833e 959e 17bc 5135 943e 4938 353e
00000300: 3b4d 973e 8633 19be 3da5 333e 1b31 32be
00000310: f3b0 ab3c 52af fa3a f105 af3c 49d3 d5bd
00000320: fb82 12bd 160c 313e cc62 a9be 75db aebe
00000330: 420c d7be 5b79 cb3e f730 0ebc 6478 903d
00000340: 8fd5 1abd f590 3fbe a3e3 093e 5b0c a43c
00000350: 9d88 fe3c dd81 023d fbcc f53d 25b4 203d
00000360: f493 0c3d 1850 a1bd 7083 593e 5b24 23bd
00000370: 46d5 ef3d 34f7 913e 4139 8cbe 061e f2bd
00000380: 97b4 0fbd 85e2 b5be af68 583c 974f 673c
00000390: cee5 223d 6594 4bbd 4860 b33e 072d 3dbe
000003a0: 4348 d23d 636c b43d 7a89 fa3d df54 8a3e
000003b0: fbcb f5bc 7193 b6bc 763e 083d 7ef1 c83d
000003c0: 4ef5 99bd 00a3 3d3e e972 0ebd 9c80 323d
000003d0: 00a1 b0be 419e 3ebe 3129 c5be 8414 813e
000003e0: 7beb 9abc f573 dfbd 5bf5 9d3e d499 7ebd
000003f0: b3ad 243d c4a7 683d a123 cbbd 8aec 823d
0.018390592 -0.23924379 -0.040775806 -0.18603717 0.0028349345 -0.15354316 -0.07892784 0.16151871
-0.0018629701 0.097480066 0.172602 -0.12485373 0.16625082 0.32018384 0.067703 0.048194487
-0.0030637318 -0.47624817 -0.12885435 -0.1995521 0.14499965 -0.007611295 -0.06330439 -0.16117583
-0.106506035 -0.1545914 -0.09012534 0.068818204 0.02783136 -0.14670828 -0.050116807 0.01672082
-0.21277624 -0.017907042 0.33254123 0.21875587 0.3474086 -0.21911173 0.23291504 0.02340525
-0.2255732 -0.07457827 0.087695554 -0.10729539 0.10943426 0.15756533 -0.14414483 -0.12978747
0.16085638 0.06830565 -0.098430574 -0.049537513 -0.1314761 -0.36341068 -0.11901073 0.09621848
-0.08793315 0.47611108 0.11291736 0.010515827 -0.31745324 -0.17295818 -0.13091931 -0.15984038
-0.16394366 -0.25883675 -0.47142068 0.14681955 -0.1267072 0.16615489 0.034406923 -0.04454421
0.14273393 0.12449698 0.25721636 -0.18918227 0.16058372 0.19956747 0.30557415 -0.37433645
-0.11862515 0.1423667 0.047307868 0.21858612 -0.0639276 -0.18788038 -0.044046298 0.15740083
-0.17055759 -0.13174313 -0.119861 0.372897 0.11748668 -0.124493815 0.14654307 -0.19697782
-0.30693665 0.38453323 0.20137455 0.07984868 0.087745324 0.04214358 -0.15007395 -0.07702179
-0.22772197 -0.0073497472 -0.25579295 0.0036555314 -0.43350136 -0.061847076 -0.15747371 0.1601014
-0.11901067 0.08127616 -0.06371665 0.09186724 0.05340194 -0.22618622 -0.12232834 0.34915045
0.21138465 -0.4060554 -0.1123953 -0.017771063 0.1728588 0.23459765 0.043817453 -0.1545154
0.088081524 -0.05586221 0.038947474 -0.067815945 -0.15436621 -0.21926492 0.18342762 0.0021794601
0.0140765635 -0.058242753 -0.20062482 -0.20652935 0.043377127 -0.07967904 0.06588598 0.04809903
-0.05301558 0.023182945 -0.043279175 -0.19236152 0.4049447 0.10342965 0.23521307 0.068637386
-0.33508557 -0.06554673 -0.24917668 0.35641137 0.2104614 0.18581025 0.14947368 0.034750283
0.009423846 -0.32339516 -0.012995502 -0.028668927 -0.056930695 0.21562064 -0.014542089 -0.17098667
0.13660817 -0.054830126 0.018037513 0.05416731 0.28300223 -0.005834706 0.10931405 -0.48198023
0.03765449 -0.011962662 -0.09933056 0.34989542 0.027895212 -0.26807493 0.069313 -0.3448636
-0.11396419 0.08789545 0.23132385 0.04829843 0.25738695 -0.0092541175 0.28946927 0.17697252
0.2955111 -0.14961061 0.17543502 -0.17401545 0.0209584 0.0019125736 0.021365138 -0.1044069
-0.035769444 0.17289767 -0.3308319 -0.34151807 -0.4200154 0.39741024 -0.008678666 0.07054213
-0.03780132 -0.1870764 0.13465743 0.020025423 0.031071002 0.03186213 0.120019875 0.0392343
0.034320787 -0.07876605 0.21241546 -0.039829593 0.117106006 0.28508914 -0.2738743 -0.11822133
-0.035084333 -0.35524383 0.013208552 0.014118097 0.03976994 -0.049702067 0.35034394 -0.18474208
0.10267689 0.088097356 0.12233253 0.27017877 -0.030004492 -0.022287102 0.033262692 0.09811686
-0.07517491 0.18519211 -0.034777556 0.043579683 -0.34497833 -0.18615057 -0.3850799 0.25210965
-0.018911114 -0.10910789 0.30851254 -0.06215842 0.040204715 0.05680062 -0.09918905 0.063927725

fc1_layer.bias f4 [256]
00000000: 8ae6 b8be af14 85bd 473d 21be 59ad 853e
00000010: eb79 5e3e 3bbc de3d 0d68 08bd 05fa a6bd
00000020: 5236 e23d aabc b7be da82 d7bd 7bbe c1bb
00000030: f564 4dbd dfcb 1ebd 411a 15be 0c3b 6a3c
00000040: 124c c13d 6cb7 8b3d 7d66 873d 6429 a4be
00000050: 22a7 dabe 90aa 9d3e 59d9 05be 41ca 42be
00000060: a53a bb3d 8539 2cbe 4c15 c03d 6bc9 263e
00000070: 6b36 163e 9c1b 1d3e 7117 243e cd93 663e
00000080: 3859 55bd 8860 8fbe 72eb 4abe 0549 2b3b
00000090: 67e2 c03d 00cb a6be 29fb 09be 42ee b53d
000000a0: 6ac0 343e 301c 20be 4157 b63e 777f 06be
000000b0: 7687 54bd 4fa1 2c3e 7f45 d2be 743c 0abd
000000c0: 09b7 c53d 7018 edbd c506 0d3d 2ef3 7b3e
000000d0: 92ae c43e af72 c43c 8297 d7bd 43a4 ec3d
000000e0: 474d 7fbd 32e6 553b a1fa 873d 54be 12bc
000000f0: 502c 0d3d 84f7 d63d cf85 283e 4067 9e3e
00000100: d33e 253d 1e39 31be 136b a5be edea f63d
00000110: 14a2 d83d ce34 7fbe 6fa3 42bd 4a28 373e
00000120: ab27 42be eb5e 843e aaa3 61be 599c edbb
00000130: 7bc5 e5bd 555f 7dbd bdde a3bd d5a4 af3e
00000140: ba73 8e3d 21f3 32be 823a 8dbb 03cd 93bc
00000150: ebff d43e cd8d 08bf 10d4 023d 6c89 27be
00000160: 4da7 193e e3d1 94bc 234e cb3c 168e 613b
00000170: d0ec 11bd b529 783e 2249 4bbd 5d07 07be
00000180: c6b2 033e 6d4e 30be d19a 943d 01c4 32bd
00000190: 4b6d 553e d947 fdbd 3e98 d63d 614a d23c
000001a0: dbbd 48be 6fe1 183d a654 2fbe 48e5 dd3e
000001b0: 1198 01be f8b4 75bc 3a45 c73d 7d90 083c
000001c0: d4bc 41be 930f 413e 0c94 fc3b ff3a 083b
000001d0: 5dc8 e73d 2ebe c43d d5d8 83be 354b 81be
000001e0: 261e 98be 4e88 b93b 6517 ad3e 1448 983e
000001f0: 7cde a4be 6b18 65be 8c85 953e 2e90 8d3d
00000200: 9337 2abd e146 35be 32fc 80be 1103 c3be
00000210: ceee 79bd a383 06bc 47aa 373e 3c94 c73c
00000220: 98da bebd 329c 08be e740 b73e 90b5 2cbe
00000230: 89ae 5c3d 8af9 7a3d 7291 103e e54e 003e
00000240: a036 913b ddb3 85bc 20f4 b8bd 9bfd 6f3d
00000250: a061 ccbc 1417 37bc d8b5 6ebe ef9d 62be
00000260: 7a58 1c3e 1702 543e 1360 593c 9266 853e
00000270: 7310 233e 8728 20be bb36 31be 2174 763e
00000280: 87ce 24be 7774 e23d 7713 423e 2b6f 17be
00000290: 8b32 203d 78ef 673d 86b2 91be becb 5cbd
000002a0: 2aff b9bd 3931 e13d 94be 6bbe dbd0 3f3c
000002b0: 3d7e 603e 666b ffbd 891c acbe 7394 c2be
000002c0: 5336 7cbe 3935 b7be ff8a abbe 9292 883d
000002d0: f736 88bd f144 71bb 3b57 febc b5ad cc3e
000002e0: be0f 65bd 61cd 9cbe 0789 093e 9dd9 303d
000002f0: 60b9 6cbe ce44 073d fc86 29be 9f61 963d
00000300: 9fa3 513e 4932 68be fafd 1ebf 3d40 003d
00000310: 9d5f 753d da6c b8bd 2aef 86be 5279 5b3d
00000320: 0e85 b43d 06a5 49bd 7edd e7bc 33c2 993d
00000330: 3d1b c6bd 67ec 10bd b0f8 ffbd af7a eb3d
00000340: b7da 9abe 079f 63bb 71ef ae3c d0ef 94bd
00000350: 6146 f4bd 00ae 96be 589b dabc e0e2 af3e
00000360: a5b5 81be 123e 1bbe e2ee dabc 2eb8 09be
00000370: 06b4 aa3e c20b 82bd fd10 c13e 60d6 903b
00000380: 4c19 9c3e 13d8 bfbd 5030 fdbc 7113 0a3e
00000390: 0384 1fbe c33e 5c3d f3d5 9bbe 01e9 0e3d
000003a0: 99a7 5cbd fdbf 13bd 4d66 a43e 9ed4 273e
000003b0: cc89 3abe 5ebb 1fbf abba 23be 152c fc3b
000003c0: 6705 e93e 7c97 28bc c30f c6be f6cc 413d
000003d0: 2aaf 57bd 9574 093e 6711 4d3e 50e1 213e
000003e0: 772b d5be 7865 9ebd bdc2 5bbd 67c5 51be
000003f0: fb70 b23c 16c6 aabd a664 833e a4df 80be
-0.36113387 -0.06498086 -0.15746032 0.26108816 0.21726196 0.10875746 -0.033302356 -0.08153156
0.11045517 -0.35886127 -0.10523005 -0.0059125996 -0.05014511 -0.038768645 -0.14560796 0.014296304
0.094383374 0.06822094 0.06611345 -0.3206283 -0.42705637 0.3079419 -0.13071193 -0.19022466
0.09142045 -0.16818817 0.09379062 0.16287772 0.14669196 0.15342563 0.16024567 0.22517319
-0.05208704 -0.28003335 -0.19816378 0.0026136052 0.09418183 -0.32576752 -0.13474716 0.08883335
0.17651525 -0.15635753 0.35613444 -0.13134561 -0.051886998 0.1685841 -0.41068646 -0.03374906
0.09654052 -0.11576927 0.034430284 0.24604484 0.38414437 0.023980467 -0.10526945 0.11554768
-0.062329557 0.0032638428 0.066396005 -0.008956511 0.034466088 0.104964286 0.16457294 0.30938148
0.040343117 -0.17306945 -0.32308254 0.12056527 0.10577789 -0.24922487 -0.047519144 0.17886463
-0.18960445 0.25853667 -0.22035089 -0.007251304 -0.11219307 -0.061858494 -0.08001468 0.34305444
0.06955667 -0.17475559 -0.004309953 -0.018042093 0.416015 -0.5334137 0.03194052 -0.16361016
0.15005226 -0.018166488 0.024817532 0.0034416965 -0.035626233 0.2423466 -0.04963029 -0.13186403
0.12861165 -0.17217417 0.072560914 -0.043643955 0.20842473 -0.123672195 0.10478257 0.025670232
-0.19603674 0.037324365 -0.17122135 0.4333899 -0.12655665 -0.01499676 0.09730001 0.00833523
-0.18919688 0.18853597 0.0077080783 0.0020787118 0.11317513 0.096065864 -0.25751367 -0.2525269
-0.297105 0.0056620007 0.3380691 0.2974249 -0.32200992 -0.22372596 0.2920345 0.06912266
-0.041556906 -0.1770282 -0.2519241 -0.38088277 -0.061018758 -0.008210096 0.1793605 0.024362676
-0.09319037 -0.13340834 0.35791704 -0.16866136 0.053877387 0.061273135 0.14117983 0.12530096
0.0044315606 -0.016321117 -0.09030938 0.058591466 -0.024948895 -0.011174936 -0.23311555 -0.2213056
0.15268126 0.20703922 0.013267535 0.26054817 0.15924244 -0.1564046 -0.17306034 0.24067737
-0.16094409 0.1105737 0.18952738 -0.14788501 0.0391107 0.05662486 -0.28456515 -0.05390524
-0.09081872 0.109957166 -0.23021919 0.01170751 0.21923156 -0.124716565 -0.3361552 -0.38003883
-0.24630098 -0.35782793 -0.33504483 0.06668581 -0.06651109 -0.0036814774 -0.031047454 0.39976278
-0.055923216 -0.30625442 0.13431178 0.043176282 -0.2311759 0.0330246 -0.16555399 0.073428385
0.20472573 -0.22675432 -0.6210629 0.031311262 0.059905637 -0.09005137 -0.26354343 0.053582497
0.08814441 -0.049229644 -0.028303858 0.07507744 -0.09673164 -0.0353817 -0.12498605 0.114980094
-0.3024499 -0.003473224 0.021354409 -0.07272303 -0.11927486 -0.29429626 -0.026685402 0.3435278
-0.25333896 -0.15160397 -0.026725236 -0.13449165 0.33340472 -0.06349899 0.37708274 0.0044200867
0.3048805 -0.09367385 -0.030906826 0.13483979 -0.15577702 0.05377079 -0.30436668 0.03489018
-0.05387077 -0.036071766 0.321093 0.16389701 -0.18216628 -0.62395275 -0.15989177 0.0076956847
0.45511934 -0.010290023 -0.386839 0.047314607 -0.052657284 0.13423379 0.2002617 0.15808606
-0.41634724 -0.077341974 -0.053652514 -0.2048546 0.021782389 -0.08338563 0.25662726 -0.25170624

fc2_layer.weight f4 [256, 256]
00000000: 177b b9bd 5630 063e a907 c63d d210 323e
00000010: 453f 31bd 4488 3b3d 7456 863d ade2 253d
00000020: ce73 4c3e 73d9 68be 16d8 293e d661 78bc
00000030: 7b35 8dbe 904b e93d a92e 41be 86ca 193e
00000040: 2886 093d 48f6 553e 81e6 683e 81cd 62be
00000050: d4f0 02be 85c6 0abd 7778 a13c 7307 84be
00000060: 3293 013e 940e cc3c 792a a53c a675 833e
00000070: 989d bf3e 6601 7d3e 2ddc 1d3e 9d80 073e
00000080: bed9 8e3d 758f fbbe d782 aebe 8aff a23e
00000090: fe03 9c3e 9952 a2be 9980 37be ef43 6c3e
000000a0: ac83 7abd b9a9 b0be de60 273e 2683 78b9
000000b0: 92e5 953b 4ac5 9f3e c419 31be 6719 1a3d
000000c0: 585e 4b3e d954 6b3c b499 443e 24cd 9c3e
000000d0: 749f 413e c8d1 833e 3d2f 91be 1e45 463e
000000e0: 4586 cbbd 799b 88bd 545f 4ebe e5f6 6fbd
000000f0: 02a1 2f3e bc88 17bd f34f 873d 67ed 1e3c
00000100: a2b6 433e dc3a 53be aab4 84be e068 ba3e
00000110: 1c9d ca3a 0ac4 fcbd c2db 893c 101c eb3d
00000120: 6bce 0d3d 121d 4dbb 6320 9bbd 8a53 273e
00000130: 2317 5bbe 4f0f 783b 8c7e 81be 928e 303e
00000140: 06b7 da3e d271 c1bc fc47 d03c fe8a 9fbd
00000150: 2aab 2a3e 7446 c7be 605b 09be 2cda bbbe
00000160: c854 923d 9b09 eebd e48d 893d 080c 36b9
00000170: 0ac7 80be 24e4 e8bb a888 8ebe bab0 443d
00000180: 2346 ab3e e81d bfbe 4d16 ab3e cbfa 79be
00000190: ae66 003e 34b1 1fbe 886b a0bd d32f 8d3e
000001a0: afcb 17be 35e5 f53d 166d 71be 470b 4a3e
000001b0: 2da5 27be 13d6 6bbe 02f4 833e 26a1 d83d
000001c0: 8b76 c9bd 0736 083e d86d 073e 655a 8fbe
000001d0: e85f 153e fcd6 ae3d 6a3c 2dbd c388 bbbd
000001e0: 2c63 5bbe 8371 163e f194 ed3d b655 0f3e
000001f0: 1af0 a2bd 4925 28bc 4cd2 d23d 18d3 a83e
00000200: 6778 953d 7616 21be 155f 9fbd b87f ccbe
00000210: 2fcd 4c3d c17a 0ebf 967d 073f 7cab 0cbd
00000220: 85ef 6fbe 5654 fa3a d742 c43e 4f97 41be
00000230: 1191 243e 6260 953d a1f9 64bd a51c 003e
00000240: 3f97 88be 4173 01be 72d8 c23d 4096 363d
00000250: 7b95 413d 57cb d0bd fbdf f1bd f5bc 85be
00000260: 26d3 de3d 1dc7 dabc b69d 003c 681f e73d
00000270: d3c1 383e dc9a ed3c 01b8 b93c e53b 803e
00000280: 37e3 2abc 1d83 373e b27a 573e bb93 f7bd
00000290: 63f5 d33d f8ab 313e 8156 5fbe 0253 9dbe
000002a0: 62bc 233e d02e 103d c520 5d3d 2ed4 8cbd
000002b0: 207c 013e 8d03 f7be c460 97bd 4f3b 5bbe
000002c0: c0b9 00bf 081f 67be b3fa 91be 5c88 76bd
000002d0: a83a f4bd 620c 81be c682 58be 37b6 2e3e
000002e0: e06f fabd 1d61 e7bd 892d 443e 7983 66be
000002f0: b62e a33d 368f 3d3e 98c9 613e af84 35be
00000300: 3d60 09bd 2058 30be 52fe b9be 51b5 a0bd
00000310: 2889 90bd 5f88 1dbe 6bfe 13be e955 523e
00000320: 7a80 efbd a8e6 383e 0064 323c 1332 d7bd
00000330: 0e67 553d da54 c0bc e847 ab3c 817a 5cbe
00000340: b153 b4be 4d0c 17bd 8b15 13be 8eb3 b1bd
00000350: 854e 9bbc 8699 85be 113a 2cbd b43e febc
00000360: 4fc1 f9be dbd1 1bbe 09b5 d03d 5d2e 86be
00000370: d8aa 5f3e 8fd4 8abe 5f16 7e3e 22ee 90bc
00000380: 5d8b ab3d df18 783e 11d9 003e fa21 8f3d
00000390: 27da 31be 6c32 083e b769 c2be 7c91 23be
000003a0: 1b9f a4be 7dd1 4cbe 504c 9e3d 533c 6b3e
000003b0: c9ea 34bd c352 52be d828 c5bd 408b cfbc
000003c0: b404 bc3d c29b e5bd d1e3 27be 8449 b23e
000003d0: 8734 ca3e e90c 15bd 26a3 363e 5942 833c
000003e0: f92d 54be e93b a03c 5a23 1c3c 5e2a 1dbb
000003f0: 428d e7bd 5e15 523d 28b4 243e 084f 42be
-0.09056681 0.13104376 0.0966943 0.17389229 -0.04327323 0.04578425 0.065594584 0.040499378
0.19966051 -0.227392 0.16586336 -0.015160045 -0.27579865 0.113913655 -0.18865456 0.15018663
0.033575207 0.2089473 0.2274418 -0.22148706 -0.12787181 -0.03388073 0.019710762 -0.25786933
0.12653807 0.024909295 0.020161854 0.25675696 0.37424922 0.24707565 0.15416022 0.13232656
0.06975125 -0.49132887 -0.34084198 0.31835586 0.30471796 -0.31703642 -0.1792015 0.2307279
-0.06116073 -0.34504488 0.16345546 -0.0002369998 0.004574486 0.31205207 -0.17294985 0.03762188
0.19860208 0.014363491 0.19199258 0.3062526 0.18908483 0.25745988 -0.28356352 0.19362304
-0.09937719 -0.06670279 -0.20153552 -0.058585066 0.17151263 -0.036995634 0.06607046 0.009700156
0.19112638 -0.20627922 -0.25919086 0.36408138 0.0015458199 -0.12342079 0.016828422 0.11479962
0.034620684 -0.0031297845 -0.07574537 0.16340461 -0.21395545 0.0037850922 -0.2529186 0.17241886
0.4271776 -0.023613844 0.02542495 -0.077901825 0.16666856 -0.3892094 -0.13413763 -0.3668989
0.07145077 -0.11622926 0.067165166 -0.00017361355 -0.25151855 -0.0071072746 -0.27838635 0.048020102
0.33451948 -0.37327504 0.33415452 -0.24412076 0.12539169 -0.15594941 -0.0783301 0.2757555
-0.14823793 0.120066084 -0.23576769 0.19730864 -0.16371603 -0.23030882 0.257721 0.105776116
-0.098370634 0.1330186 0.13225496 -0.27998653 0.14587367 0.08537099 -0.042293943 -0.091569446
-0.2142455 0.14691739 0.11600674 0.1399754 -0.07955952 -0.010262796 0.10294017 0.32973552
0.072983555 -0.15731224 -0.07781807 -0.39941192 0.050000366 -0.5565606 0.52926004 -0.034343228
-0.23431213 0.001909862 0.38332245 -0.18905376 0.16070963 0.07293774 -0.055902127 0.12510927
-0.26677892 -0.12641622 0.0951394 0.044576883 0.047261696 -0.10195034 -0.11810299 -0.26120725
0.10880117 -0.026706273 0.007850101 0.11285287 0.18042688 0.029004507 0.022670748 0.25045696
-0.010430149 0.1792111 0.21042898 -0.12088724 0.10349538 0.17350757 -0.21810342 -0.30727392
0.15989831 0.035200894 0.05398633 -0.068764076 0.12645006 -0.48244897 -0.073915035 -0.21409343
-0.5028343 -0.22570431 -0.2851158 -0.060188636 -0.1192525 -0.2520476 -0.21143636 0.17061697
-0.1222837 -0.1129782 0.19157995 -0.2251109 0.07967894 0.18511662 0.22049558 -0.17726396
-0.033539046 -0.17221117 -0.36326844 -0.07847083 -0.070574105 -0.15384053 -0.14452522 0.20540585
-0.11694427 0.18056738 0.0108881 -0.10507598 0.052100234 -0.02347796 0.020908311 -0.21531107
-0.352201 -0.036876965 -0.14363687 -0.086768255 -0.01895834 -0.26093692 -0.042047564 -0.031035759
-0.48780295 -0.15216772 0.1019078 -0.26207247 0.21842515 -0.27115294 0.24813221 -0.017691676
0.08376191 0.24228238 0.12582804 0.069889024 -0.17368375 0.13300484 -0.3797128 -0.15973467
-0.32152638 -0.20001788 0.07729399 0.2297223 -0.04416922 -0.20539384 -0.09626931 -0.025334954
0.091805845 -0.11211349 -0.16395499 0.34821713 0.394932 -0.036389265 0.17835674 0.016022848
-0.20720662 0.019559817 0.009529913 -0.0023981552 -0.1130624 0.05128991 0.16084349 -0.1897546

fc2_layer.bias f4 [256]
00000000: 7558 763e c7e0 8bbd cbff 063e 1afc 6bbe
00000010: 9709 d43d 54fe c9bd ccec 0e3c 296d a3bc
00000020: d0e1 a1bd f0c4 243e d31a 9ebe 0195 b53d
00000030: 7a13 1c3d e3c5 d63b a357 3b3e c56d a53e
00000040: 203f c93e 9e4d 973d 8c5a b2bd 9ddc 1bbf
00000050: 35a7 3c3e 129d bb3e 2f6e 343d c634 0bbe
00000060: d7d4 903d 04c7 a8bd b17e 9a3e fff3 c3bb
00000070: ce42 a6be 345c c8be d6ba 3dbe c6a6 eabd
00000080: 24b9 023e 970a 663d 4a91 583e ca37 80bd
00000090: 89c6 913e 343a db3c ffa4 2c3d 8bda 923d
000000a0: f444 83bc b8dc c43d 4b28 1bbe 4e6b 3bbe
000000b0: 54c6 5c3e da8a a7bc 65ec 4cbe 5c57 253e
000000c0: 4342 2abd 3be2 303e dbce 5a3e 21e9 f43b
000000d0: 578b 41bc 6bb1 423d b71d 2f3d e022 fd3d
000000e0: 2f72 1fbd ca6f 5abe e047 d3be c9a2 a9bd
000000f0: ad31 ac3e 0d6f 443e 1b91 8cbd 86de 29bd
00000100: ad72 56be c41a 393e 3d04 fabc c3e9 b2be
00000110: 67ee 0f3e c910 91bc 875c 093d 7ce6 b1bc
00000120: df3c 0a3d 0dbe 293e 453d a63e 6e85 f23d
00000130: eb45 64bd 3159 6b3e d76f 133e 6e7d cc3d
00000140: 8a2b f23d 6c66 eabc 89f3 713e 12fe 03be
00000150: 5298 293d b061 d6bd af8c 093e 8376 fb3c
00000160: 3c38 0bbd a020 303e 7403 373d 6fde 4f3d
00000170: 5951 563e 8e14 703e 9d67 da3d e914 0ebe
00000180: 4b73 c5be ea14 de3c 3f36 8fbb 1229 b6bd
00000190: 626b 1fbd 79ea ef3d de0a 5bbe 09a3 2f3e
000001a0: cf5c a43b ca4a 5e3e d51e bb3e 19f0 82be
000001b0: f7ac c33e 82ff 5c3e d214 00be e874 a1bd
000001c0: 87ee 6e3e f52e fcbd 4bec a3bd 15ec 25bc
000001d0: 4509 9739 c2c5 e4bd 56cf d23e 7e8a 03be
000001e0: 556a 2eba 60a8 e53d f627 b9bd 5e31 62bd
000001f0: af36 9dbd 0ce7 923e 7f3a 37be 63e1 553e
00000200: 5346 a2bc 9cb1 bc3d a489 973e 75a8 b8be
00000210: abdb 1c3e 6377 94bc 32d0 bfbe 9c78 203d
00000220: 611e e33d 8896 acbe 8ea3 7fbe a531 0e3d
00000230: e1b5 af3d 234c a1bd 6760 523e d43a bbbd
00000240: 50cd e3bd 172e 7dbe 7570 f0bc 546b 92bd
00000250: 78d0 743d f005 0cbe b96e 18bf 8379 f43d
00000260: e595 d2be df51 a13d 7ef3 843b a0cd 85be
00000270: e1bc 46bc bd5e de3d 11a9 fb3d 3626 86bd
00000280: c054 16bc aecf 733e c058 bbbd a005 a0bd
00000290: 44d7 7e3d 23d2 dfbe 8732 a0be 7d06 d6b9
000002a0: 9f51 7fbd 65d1 0a3e d538 a63d 03dd 5e3e
000002b0: a03a c3be afd3 7ebd 5d91 1a3c 68f4 8b3d
000002c0: 0893 fb3d 3026 3fbe 72a1 24be 31ea 80bd
000002d0: f027 02bf beb4 303e f63f cebc 2312 e73c
000002e0: b766 fabd c69b 8e3e d279 09bd 271f 26be
000002f0: a0a6 8ebe bda3 21be c732 93be b5fa 813c
00000300: 708b 893e 3bec 5abe 9b7d 9cbe 5928 8b3e
00000310: dd37 343e 426b 203e 0ce5 1e3d 1f56 c63d
00000320: 6c52 583e dff1 513d 70e5 21bd b88f 1fbd
00000330: d609 683a b244 dd3d e890 2a3d b39a 65be
00000340: 87f0 63be ded0 f4bd 5ce3 dbbd a313 b9be
00000350: 6194 863c aab1 dfbc 6538 7cbe 7270 a63e
00000360: d4cf 1e3d 649f 143e 281f dabb 1932 0dbd
00000370: e495 b3bd 8a05 a33e 5a2a 953e ed9c 723d
00000380: 0ca2 f8be eacc df3d d4b6 f0bd 4b2a a53c
00000390: 5575 8dbd d796 793e 9499 383b d319 0bbe
000003a0: c1b7 55be 1899 5c3e ac89 083e 1e47 723e
000003b0: d960 893d 4b9a 4e3d 11dc dabc ffc4 75bd
000003c0: 3bc7 f63d 6154 08be 33c4 32be 1461 70bd
000003d0: e779 ddbd 2b7a 4b3d 15d0 2e3e 39a7 0b3e
000003e0: 34e7 80bd 4ef9 9a3e 28f4 893e 4fe9 d9bd
000003f0: 0072 003c 3fd2 483d c3dd e9bd 3c54 c43b
0.24057181 -0.06829982 0.13183515 -0.23045388 0.103533916 -0.09862962 0.008723449 -0.019949513
-0.079043984 0.1609075 -0.3087984 0.08866311 0.03810451 0.0065543517 0.1829515 0.3231031
0.39305973 0.07387851 -0.08708677 -0.60883504 0.1842316 0.36643273 0.04405039 -0.1359435
0.07071846 -0.08241084 0.30174783 -0.0059800143 -0.32472843 -0.39132845 -0.18528304 -0.11457591
0.12765938 0.056162443 0.21149173 -0.06260641 0.28471783 0.026761152 0.04214954 0.0717059
-0.01602409 0.09612411 -0.1515209 -0.18302652 0.21560031 -0.020451952 -0.20012052 0.16146606
-0.0415671 0.172738 0.21367972 0.00747408 -0.011813006 0.04753248 0.042752948 0.123601675
-0.038927253 -0.21331707 -0.41265774 -0.08283002 0.3363165 0.19182988 -0.06863614 -0.04147198
-0.20942183 0.18076617 -0.0305196 -0.3494397 0.14055787 -0.0177082 0.033535507 -0.021716349
0.033749457 0.16576405 0.3246862 0.11841856 -0.05573074 0.22983243 0.14398132 0.09984861
0.11824711 -0.028613292 0.23628058 -0.12889889 0.04140503 -0.10467851 0.13432573 0.03069616
-0.033989176 0.17199945 0.044681028 0.05074924 0.20929469 0.23445341 0.10664294 -0.13875164
-0.38564524 0.027109582 -0.0043704803 -0.08894552 -0.038920768 0.11714644 -0.21390864 0.17152037
0.0050159465 0.21708217 0.3654696 -0.25573805 0.382179 0.21581843 -0.12507942 -0.07883626
0.23333178 -0.12313644 -0.08004054 -0.010127087 0.0002880787 -0.11170532 0.4117381 -0.128458
-0.0006653418 0.112137556 -0.09040825 -0.05522286 -0.07676446 0.286919 -0.17893408 0.2088676
-0.019808924 0.09213564 0.295972 -0.36066023 0.15318172 -0.018123334 -0.37463528 0.039177522
0.11089779 -0.33708596 -0.24964735 0.034715313 0.085796125 -0.0787585 0.20544587 -0.0914208
-0.111231446 -0.24724613 -0.029350499 -0.071493775 0.059769124 -0.1367414 -0.5954395 0.11937239
-0.41129985 0.07876944 0.004057347 -0.26133442 -0.012129993 0.10857914 0.12288106 -0.06550257
-0.009175479 0.23809692 -0.09147787 -0.07813573 0.062217012 -0.4371501 -0.3128855 -0.00040822095
-0.0623337 0.1355644 0.081163086 0.21763997 -0.38130665 -0.062213596 0.009434071 0.06833726
0.12283903 -0.18666911 -0.16077211 -0.062946685 -0.5084219 0.17256448 -0.025176983 0.02820689
-0.122266226 0.2785322 -0.033563443 -0.16222821 -0.278615 -0.15785117 -0.28749678 0.015866617
0.26864195 -0.21379177 -0.3056458 0.2717922 0.17599435 0.15665916 0.038792655 0.09684395
0.21125191 0.051256057 -0.03952545 -0.03895542 0.00088515633 0.10804118 0.0416421 -0.22422294
-0.22259723 -0.11953901 -0.10736725 -0.36147794 0.016428174 -0.027306397 -0.24630888 0.32507664
0.03877242 0.14513928 -0.006656546 -0.034471605 -0.08768824 0.31840163 0.29133874 0.059231687
-0.48561132 0.10927756 -0.11753622 0.020161768 -0.06907145 0.24373947 0.0028167712 -0.1358407
-0.20870878 0.21542776 0.13333768 0.23659942 0.06707925 0.050440114 -0.026716264 -0.060002323
0.12049719 -0.13313438 -0.17457657 -0.05868633 -0.10814267 0.049677055 0.17071564 0.13638009
-0.062940985 0.3026833 0.2694409 -0.10640203 0.00783968 0.04902863 -0.11419251 0.005991487

actor_out_layer.weight f4 [7, 256]
00000000: a80a c73d 32e7 8f3e df8a 29be 53bc 9b3e
00000010: 3052 acbe a717 953e 1773 1b3e e351 2abb
00000020: ee48 0abe 2d7e d83d f80a 093e 0c2d 353e
00000030: 7111 34be 4e52 0abc 7475 0fbd 6209 9ebe
00000040: ef63 8dbe 4aeb 7b3d 3154 843e 04da 493d
00000050: d6c1 95bd 42b8 9ebd c93d 9c3d 265b 1abd
00000060: 6207 66be fccd 80be dbc8 6e3d d8d9 67be
00000070: 794d c93e a8a9 963e ca57 2c3e c99f aabd
00000080: 7dc8 91be f950 d03c 19ec ed3d 49db e43c
00000090: e5c9 96be 09e6 883e b1ad 123e 81cd 01be
000000a0: 39c3 9dbe 6a5c a13e db99 133d 1c38 83bd
000000b0: 60e0 5abe 6f1f b9be 20d9 c9be 2bfe 48be
000000c0: c432 0b3e 4694 80bd 8ec0 e13d bba9 d8bd
000000d0: 91cf 993e 4992 45be df22 593d a80b 91be
000000e0: 5026 163c 91de de3e dada b13d cb02 21be
000000f0: 4406 5abd 3f03 2d3e fa62 9dbe 7969 083e
00000100: 994b cd3c 3aed 90be 1c24 183e 2a23 c83e
00000110: df47 173e 1acb f53d 9089 2dbe 2d55 99bd
00000120: f5b6 053e 7335 5fbd f742 8fbe d4ab 2d3e
00000130: 39af 16bd 3ff3 993d 2dc4 123e 9a43 8ebd
00000140: c2e2 693d c3e7 f13d 7cb8 bbbe f865 483c
00000150: 9973 3a3e 626b 2ebd cfd2 e63c cadb 25be
00000160: 70fa 833e 7acc e13d 3a19 003e e7a8 79be
00000170: 9e9b 0f3d deed b53d c13b 2abe 0a50 96be
00000180: edb4 163d f99d ba3d 7f73 8f3d 8669 dd3d
00000190: 647e 773e 6ec5 063d c333 27be cb8f 293e
000001a0: 3aea f33d 4d8b b1bd e033 54be fc79 373c
000001b0: 4a65 8dbe ce40 0f3d ed90 fa3d 49c2 4c3e
000001c0: f265 243e b71c d4bd 79b0 293d 1d89 84be
000001d0: d0d7 55bd 0035 0f3e c5b4 78be 684b 32bd
000001e0: 3af4 20be b807 1dbc 8efb 28be 6f1b 6cbe
000001f0: f61e 973e 923d ed3b d683 553e 3182 c4be
00000200: f0bf 3abe c511 bfbe a41c bb3d ba25 a3bc
00000210: 83ff 053d ec32 163e 5d4f 8cbd 4ed5 c93d
00000220: a844 2cbe 563d bb3d 26bc 823e 11d0 b33d
00000230: 8c2a d2bc 3a53 373b a68e 0e3e bb90 9b3e
00000240: ad7a 5abe bc12 a73c daec 34be 75b1 733e
00000250: ddd8 f4bc b893 9a3e b9df 123e 3fb8 453e
00000260: 551b 09be 7b5b 72be 2e4a 863e 69e2 963e
00000270: 0d2d 9e3e 213e d3be 79dd de3d 2e2d 883e
00000280: d8f5 733c 0be1 36be 6c92 59be d51b 9e3e
00000290: 340c ca3d 4e5a 893e 247e b63e b1fa 293d
000002a0: a30d 6e3e 6631 973e f5f1 973d 1614 78be
000002b0: 7f37 b1bd e7a6 973e 32bf 913e 27c2 d5bd
000002c0: e091 55bb ba0d 4b3e b18e 8dbe a094 273e
000002d0: ce00 d73b 2b94 ca3d 29ea c13c d490 06be
000002e0: e611 a03e 268f 7d3d 30c3 f23d 6b59 583e
000002f0: 783c a5bd 4a06 de3b 55d2 623e dcd8 533e
00000300: 812c 38be e7d4 0a3e 87da a93e fec6 cc3c
00000310: f327 adbd 81e9 113e 5730 c1be 804b d83b
00000320: 8431 923d f24e b0bc 4820 f5bd 1f16 9fbd
00000330: c5ef 46be cc5c 083e ad54 60be a9be af3d
00000340: 14a2 1ebe 49e8 15bd 343e 813e f787 ab3e
00000350: 15d3 87be e0fd 0d3e 6c55 283e 1725 94be
00000360: 75b3 5dbe f691 ac3d 7d18 ba3d 5096 91be
00000370: bbab 73be 7e78 91be a917 5b3d 4fbd 8dbe
00000380: dd0f d43b c311 85be 6cc4 01be 7be0 2d3e
00000390: 7a6f 5bbd 97aa f4bc c8fd cabe a5d7 023e
000003a0: 1fdc bb3e 2b8b 7abc 20d9 053e 4cb5 91be
000003b0: 9923 74be e6a5 e7bd 664e 903e 30ab 823d
000003c0: 5d94 8e3d b203 8bbe 19b9 8cbd 4d48 6a3e
000003d0: 046e 3bbe 5ba0 bfbe 50ba 2dbe fd33 3abe
000003e0: 06a1 8b3e 1d0c 0bbe 6af3 53be 6e26 92ba
000003f0: 7c17 8e3e cb36 32be 31f2 cebd fb3a a5be
0.097188294 0.28106076 -0.16556881 0.30417117 -0.33656454 0.29119608 0.15180622 -0.002598875
-0.13504383 0.10570941 0.1338309 0.17692965 -0.17584778 -0.0084424745 -0.03502412 -0.30866534
-0.27615306 0.061503686 0.25845483 0.04928018 -0.07312362 -0.07749988 0.07628972 -0.037684582
-0.22463754 -0.25157154 0.05829702 -0.22641695 0.3931692 0.29426312 0.16830364 -0.08331258
-0.28473273 0.025429236 0.11617298 0.027936595 -0.29450908 0.26738003 0.1432407 -0.1267605
-0.30813006 0.3151582 0.0360354 -0.064071864 -0.21374655 -0.36156794 -0.39423466 -0.19628207
0.13593584 -0.06278281 0.11023055 -0.105792485 0.30041173 -0.19294085 0.05301177 -0.28329206
0.009164408 0.4352918 0.08684321 -0.15723722 -0.05322863 0.1689577 -0.30739576 0.13321485
0.025060462 -0.2830599 0.14857525 0.39089328 0.1477351 0.12001629 -0.16947007 -0.07486949
0.13058074 -0.054494333 -0.27980778 0.16960078 -0.0367882 0.07517099 0.14332648 -0.06946488
0.05710102 0.11811783 -0.36664188 0.0122313425 0.1820816 -0.042582877 0.028176693 -0.16197124
0.25777006 0.11025329 0.12509623 -0.24380837 0.035060517 0.0888326 -0.16624357 -0.2935794
0.036793638 0.09112162 0.07004451 0.108111426 0.24169308 0.032903127 -0.1632834 0.16558759
0.119099095 -0.08669148 -0.20722914 0.011198517 -0.2761634 0.034973912 0.12234674 0.19995989
0.16054514 -0.103570394 0.041428063 -0.2588586 -0.052207768 0.13985062 -0.24287708 -0.043528944
-0.15718165 -0.00958436 -0.1650221 -0.2305734 0.2951581 0.007240006 0.20851073 -0.38380578
-0.18237281 -0.37318245 0.09136322 -0.01991545 0.032714378 0.14667863 -0.06851075 0.09855138
-0.16823065 0.09142558 0.2553417 0.0877992 -0.025655054 0.002797319 0.13921604 0.30383858
-0.2133586 0.020394675 -0.17668477 0.23798163 -0.029888565 0.30190825 0.14343156 0.19308566
-0.13389333 -0.2366771 0.2622847 0.29469612 0.30893746 -0.41258338 0.10882086 0.2659697
0.014890157 -0.17859285 -0.21247262 0.3088061 0.09865609 0.2682671 0.35643113 0.041498844
0.2324739 0.29529876 0.074191965 -0.24226412 -0.08653163 0.29619524 0.28466183 -0.10437422
-0.003258817 0.19829455 -0.27647927 0.1636529 0.006561375 0.09891542 0.023671227 -0.13141185
0.31263655 0.061904095 0.11853635 0.2112786 -0.08068174 0.006775652 0.22150548 0.20688194
-0.17985727 0.13557778 0.33174536 0.02499723 -0.08454885 0.14249231 -0.37732193 0.006600797
0.071383506 -0.021522019 -0.11969048 -0.07767891 -0.19427402 0.13316649 -0.21907301 0.085812874
-0.15491515 -0.036598478 0.2524277 0.3350217 -0.2652823 0.13866377 0.16438836 -0.28934547
-0.21650489 0.08426277 0.09086702 -0.28434992 -0.23795979 -0.2841224 0.05348936 -0.27683493
0.0064716176 -0.25990114 -0.12672585 0.16980164 -0.05357311 -0.0298665 -0.39646745 0.12777574
0.36691377 -0.015291969 0.13071108 -0.2845863 -0.23841704 -0.113109395 0.28184813 0.06380308
0.06961892 -0.27151257 -0.06871242 0.22879143 -0.18303686 -0.3742703 -0.16965604 -0.18183894
0.2727129 -0.1357884 -0.20698324 -0.0011150369 0.27752292 -0.17403714 -0.10104788 -0.3227156

actor_out_layer.bias f4 [7]
00000000: 1d71 de3d b98d 633e ee98 04be bd34 c5bd
00000010: d546 753e da24 25bd d386 cdbd
0.108614184 0.22222032 -0.12948963 -0.096292 0.23952802 -0.040318348 -0.10035481
