projet/models/actor_critic/player_0_actor.pth (torch, 316687 bytes, 6 tensors)

fc1_layer.weight f4 [256, 42]
00000000: 0ad4 6f3e 3bc4 b6ba 722c 653c e4c7 b63b
00000010: f0d8 8dbb 6cb5 a53d f8ca 15be 35a9 d9be
00000020: 06de 19be c189 043e eb60 9b3d e0cd 773d
00000030: 078d a8bd 9553 35be 03fe e03c 7624 5d3d
00000040: ad9f bbbd 9ad7 4ebe e3d5 a7be 2c89 fe3d
00000050: e149 1cbe 0fe7 ab3e 5a20 89be 7f76 9abe
00000060: 4988 78be 6c27 25be cc6e 55be 5b6e 923e
00000070: 2dbd a63e 7f60 cebe 4191 473e 7bf0 2b3e
00000080: b5fc 99bc 30d0 c83d aaea bebb b133 0dbc
00000090: 0e7e 00be e8b3 0c3e f37b 5a3e b1b2 9fbe
000000a0: bb20 ccbd c015 183e 93f1 1bbe c2d8 d33d
000000b0: 95e7 39bd c147 dbbd cd89 3e3e 0b79 053e
000000c0: 8b40 6ebe 9067 81be 2bcf 4fbd 89b5 4bbe
000000d0: 64b2 8ebe c724 78bb 8f19 11be a121 883d
000000e0: 48f9 7abe c239 7e3d 73b2 ddbb 2217 05bc
000000f0: 2094 acbd f3f6 003e 0bc7 01be 794f b83c
00000100: 6c86 733e 38fb bcbd 7136 ec3d a312 cd3d
00000110: 03ec 23be ab05 5dbd c746 613e 98ee 43bd
00000120: 9b2d 5abe 02be 5e3e a6ef b7be 86dd adbd
00000130: a980 8cbe d4ac 5cbd d72e d83d b4e3 37bc
00000140: a3b3 80bd fe0b 433d c6ef 3fbe 1a4d 973e
00000150: 2200 ffbb 8800 3e3e b12c 3a3d 1355 203d
00000160: d973 353e 1c5f 4f3e 5e97 43be c99e 38bd
00000170: 80b0 88be 46b9 f13d 245a 81bd 4253 24bd
00000180: 319e 2e3e 466e 81be 0469 87be 20c0 973e
00000190: c26e 40be 3bf6 d7bc 26b0 68be 2fba c53d
000001a0: ecc6 0ebd 4c32 c23e 2cdd 8fbe 017b 97be
000001b0: d0e7 8fbd 6846 55be 8684 533e ae80 50bd
000001c0: 6eed ff3e 1e09 dfbd 92f6 3a3c 19a3 823e
000001d0: f27f 1cbe 024e 2f3d 3259 59be eb61 b73c
000001e0: 4de3 003d 2e0b d63d f61f fa3d 68d5 a2be
000001f0: e605 063e fd9f de3d 8bc3 92be 560b 4a3d
00000200: c0fd 5fbc 9f22 cabd 5324 623e bd19 3cbd
00000210: 9d2d b5bd 9974 b93e f0e6 733e c2c9 9dbe
00000220: 73a2 2d3c 485e c8bb ab79 a93c eaff 45be
00000230: 5309 b6bd fd4c 46be 59a1 b4bd 9ec4 e2bd
00000240: 7d0d 9cbe 9cb5 51bd 2225 57bd 45f5 d83d
00000250: 8f22 e73e 34a4 183e 5087 793e f321 8c3d
00000260: a4d3 cf3d 4c83 01bf 2c7b 703e 6baf b73d
00000270: fa87 f7bc 48c5 c33e ba35 74be bad7 893d
00000280: a3a5 3e3b fdfe 473e a3c6 253e 32f2 bbbe
00000290: 69ea 5fbe 3a08 743e f152 86bd 77d8 8d3e
000002a0: cffa 76bd c976 493e 23f8 27be 2b26 e3bd
000002b0: bfee b3bd 0787 1a3e 9330 de3d cefd c93d
000002c0: 15e0 193d aea5 5cbc 8cce aa3d e4da 8fbd
000002d0: 1bf9 123e 90ca 5ebe cc3b 2b3d 51b9 1fbe
000002e0: f312 3dbe 22c9 b3bd e3bd 04be 8ef4 55be
000002f0: 1778 963d b0bd af3e e5a1 203e 9284 63be
00000300: a577 f5bc f8a3 e6bd 2646 3f3e bf2f a4bd
00000310: d73c b43e cb1a 283e 41bf 1c3d 8fdf 9b3e
00000320: 9738 e7bd 634f 52bd f412 2dbe ee3d fabd
00000330: 6586 f0bc ff87 263e 364a b6bb 0ef6 4e3d
00000340: b118 023d f87f ab3d cf2d c43d b0c3 a23d
00000350: d513 123d 098a 443e 2236 00bd 7c00 d23d
00000360: d7a0 383e 1cad 7abe edce a03d 57fd 27bd
00000370: b281 653e 424e a8bd 3d14 503e 2f12 7c3e
00000380: f13f 253e 0054 d0bd a278 cebb 1b47 53bd
00000390: 2493 fd3d 4b94 a1be 1fa6 78bc 1f01 4ebe
000003a0: e998 c5be 831b 2abc bb5d 89be 9fac 443d
000003b0: b78a 8abd 01bb 983e d4ff 623d 72b9 603e
000003c0: 9d05 e6bb e48b 99be 18d9 ea3e dced 36be
000003d0: f319 83bd 4c26 e3bd 7196 99be 14c6 2c3e
000003e0: c786 9dbc 1e96 d4bc b0cc 933d 03c9 b2be
000003f0: cfe4 61be b86f adbd 5d5a 703e f2b4 d23d
0.2342073 -0.0013943979 0.013987647 0.005578028 -0.0043288395 0.08091244 -0.14628208 -0.42511907
-0.15026101 0.12943174 0.07586845 0.060499072 -0.08230024 -0.17707665 0.027464872 0.05398985
-0.09161315 -0.20199433 -0.3278037 0.12428507 -0.15262558 0.3357472 -0.26782495 -0.3016853
-0.24270739 -0.1612832 -0.20843047 0.2859982 0.32566205 -0.40307996 0.19489004 0.16790955
-0.018797258 0.098053336 -0.005826314 -0.008618281 -0.12548086 0.13740504 0.21336345 -0.31191018
-0.0996718 0.14852047 -0.15228872 0.10344078 -0.04538687 -0.10707045 0.18607254 0.13034455
-0.23266809 -0.25274324 -0.05073468 -0.19893469 -0.27870476 -0.0037863718 -0.14169906 0.06647039
-0.24509156 0.0620668 -0.0067656576 -0.008123191 -0.0842669 0.12594204 -0.12673585 0.022498833
0.23781747 -0.09227604 0.115338214 0.1001332 -0.16008 -0.053960484 0.21999656 -0.047834963
-0.2130646 0.2175217 -0.35925025 -0.08489518 -0.2744191 -0.05387576 0.10555809 -0.011223722
-0.06284263 0.04761886 -0.1874381 0.2955101 -0.0077819983 0.1855489 0.045452777 0.039143633
0.17719974 0.20251125 -0.19100711 -0.045073304 -0.2669716 0.11802916 -0.06316021 -0.040118463
0.17052533 -0.25279444 -0.26447308 0.29638767 -0.18792251 -0.026362529 -0.22723445 0.09654652
-0.034857675 0.37928998 -0.28098428 -0.29586032 -0.070266366 -0.20827639 0.20656022 -0.05090397
0.49985832 -0.10890411 0.011411326 0.2551506 -0.15283182 0.042799003 -0.21225432 0.022385558
0.03146677 0.10451351 0.12213127 -0.3180344 0.13088188 0.10870359 -0.28664812 0.049327217
-0.013671339 -0.09869885 0.22084169 -0.045922983 -0.08846591 0.3622177 0.23818564 -0.30817991
0.010597813 -0.006114755 0.020687899 -0.19335905 -0.08888497 -0.19365306 -0.08819837 -0.11072658
-0.3047904 -0.051198587 -0.052525647 0.105936565 0.45143554 0.14906389 0.24368024 0.06842413
0.10147789 -0.5059097 0.23484486 0.08969005 -0.030216206 0.3823645 -0.2384862 0.067306
0.0029090426 0.19530864 0.16189055 -0.36708218 -0.21866764 0.23831263 -0.065587886 0.27704212
-0.060297783 0.19674219 -0.1640325 -0.11091264 -0.087857716 0.15090571 0.108491085 0.098628625
0.037567217 -0.0134672355 0.08340177 -0.07024172 0.14352839 -0.21756959 0.041805074 -0.15598036
-0.1846426 -0.087785974 -0.12963061 -0.20894071 0.07347124 0.34324408 0.15686758 -0.2221854
-0.029964278 -0.11261743 0.18679103 -0.08016919 0.35202667 0.1641647 0.03826833 0.30444
-0.112900905 -0.05134524 -0.16901761 -0.122188434 -0.02936096 0.16262816 -0.005563046 0.050527625
0.03176183 0.083740175 0.0957905 0.07947481 0.035663445 0.19193281 -0.031301625 0.10253999
0.18030106 -0.24480098 0.07851968 -0.041013088 0.22412756 -0.082180515 0.2032022 0.24616311
0.16137673 -0.10172272 -0.0063010016 -0.051581483 0.123815805 -0.3155845 -0.015176325 -0.20117615
-0.38593224 -0.010382536 -0.26829323 0.048016187 -0.06764739 0.29830173 0.055419758 0.21945742
-0.007019712 -0.2998954 0.45868754 -0.17864174 -0.06401434 -0.11091289 -0.2999759 0.16872436
-0.019229306 -0.025950488 0.072167754 -0.34918985 -0.2205994 -0.08468574 0.23471971 0.10288419

fc1_layer.bias f4 [256]
00000000: 08c9 6e3d 5ac0 b6be f5f8 ec3d b7bc 47be
00000010: 6555 87bd 9407 723e 9a1c 46be dffa 083c
00000020: 405b 223d 1426 763e 293c 3d3d 6112 19bc
00000030: e1c3 593e 807e 27be 367e 0f3e 3bb0 4c3e
00000040: 8e78 d53d 0bfb 4b3e bc76 cabc b332 423e
00000050: cdfc b13d 03a9 973d a99a 7ebe 05d7 26be
00000060: 8bed 15be 51c2 e03c fa8c 4a3e 1fee 2c3e
00000070: f39c 08be 883c 653e 75c8 793e f1cb 2ebe
00000080: 2fac 273e e893 93bd 8e36 f13d 9098 053e
00000090: 245c e3bd 5a06 66bc 3912 373e e030 2f3e
000000a0: 10f5 dcbd fa73 043e e169 87bc b679 ddba
000000b0: ecdc 003e a309 0b3e 38f2 09be cf60 a8be
000000c0: fec7 51bd b03d 5f3e a28a 48be eae4 cfbd
000000d0: e61a 603d 9f4e 4bbe 241d 8c3e dcfc 0bbe
000000e0: c087 c0be 68cf 9f3b cc37 233e c406 c53d
000000f0: 60aa 27be d031 1fbe b81f 7a3e 75a8 843e
00000100: 47ce 9cbd 9300 17be f6a5 033e 912c a43e
00000110: 0340 4c3e 4406 433e 1963 273e d690 453e
00000120: 0ebd a6bd e5d0 1dbd 5937 a53e 77a8 6e3e
00000130: 72cd 81be 4402 80be 0271 babd 9447 363e
00000140: 2bbd 4b3e 68e8 c3bc 00de 163c 0acb fb3a
00000150: 87b0 55be 9703 a83c 4db3 6d3d b4b9 263e
00000160: 4daa 253d 6a08 e5bd d94d 1d3d 3e03 9d3d
00000170: 9632 043e 6336 103e 4445 90bd 425a 04be
00000180: 6e53 af3d cf69 143e fdd6 63be c83e 463e
00000190: 94d5 873e 6c3e 1d3d 37b2 4ebd 8f34 e03c
000001a0: 5245 05be 1df2 9bbd b19a 703e c7c3 aabd
000001b0: 86ab bfbc d08f 033e 9843 f23d e41a e63d
000001c0: 7684 603c 87e0 4bbe 8de7 bb3d 696b 48be
000001d0: cd79 5dbd 02a4 593e 717a aabd 5fd6 473e
000001e0: 5652 6dbe a5da 263e ff23 86be 8a15 a8be
000001f0: 6abc 373e dae9 8d3e 13ff e4bc 7aaa bfba
00000200: 33c8 b9bd 8103 84be 9615 88bd cebb c3bd
00000210: 3bb4 97bd 2142 723e 7052 153e 2a6f fa3c
00000220: 78bd 03bd e7d4 62be 05f4 ee3c 7d4a 84be
00000230: 2c44 51bd da27 343e d7c6 763c 7295 28be
00000240: d824 34be c53e 3a3e 15eb 443e da62 8b3c
00000250: 8356 7f3e c4af 1fbe 62ee 00be 3571 463e
00000260: 6dac d33d 5a3e 0abe 3112 77be fc8b 4bbe
00000270: 02a5 063e a6a2 e03d 0e28 2d3d ccfe a0bd
00000280: 2655 31bd 9a3d 933e 8f51 5f3e b2dd 25be
00000290: 86a8 09be bdf5 7cbe adbe 403e e875 513d
000002a0: 31a2 073b 8097 c83d 6f95 12be 96bc 07be
000002b0: 36c8 dd3d c0c1 0c3e 39f8 f5bd f233 cdbc
000002c0: bab3 8c3e d39f 59be fb61 2c3e 1bf6 233e
000002d0: 7395 09be bc5c 54be dfeb 85be c355 02bd
000002e0: 25c9 05be 4797 1b3e 9248 ec3d b7e4 4d3e
000002f0: 486c 12be 58d0 323b cd42 efbd 2ea4 3c3e
00000300: 2008 193e fd41 14be 9cfb 8f3e 467d a6bd
00000310: 9d1a 97bc ccff 0b3e 626b 94be e63a 81be
00000320: a108 d33c a198 54be 9c5f b5bd 370c 473d
00000330: 4201 8d3e 2338 333d f0de edbd 8995 d9bd
00000340: 2007 0a3e 8fb3 7fbe 4e73 40be ecf3 493e
00000350: 1f25 093d cb6d 4c3e fa9f 04be 2584 02bd
00000360: e5a9 8bbe 6119 873d a241 95bd f4f5 59be
00000370: 4bca 7f3c c6c8 5bbe 493b 44be 8d43 653d
00000380: 1f91 4abc db06 4f3e 0900 fd3d a9a2 343e
00000390: 901c 013e 7812 0c3c c24b 5dbe 2756 3a3e
000003a0: 37e0 70bd 8d21 f9bd 8754 0b3e 67df e2bd
000003b0: 6cf2 863e ef85 67bb 1667 823e 0b51 843d
000003c0: ee3f 53be ee30 853d f9bf 24be 805d ee3d
000003d0: 313f a2bc 371e 85be 1d30 aabd b34c 00be
000003e0: 1dd2 babd f7ec 83bd 807a 113d b706 4fbe
000003f0: 3774 e9bd 9d9b 813e 9c36 a3bd d40c 0b3e
0.058297187 -0.35693628 0.11570922 -0.19505583 -0.066080846 0.23635703 -0.19346848 0.008360594
0.039637804 0.24037963 0.04619995 -0.009342761 0.21266128 -0.1635685 0.1401299 0.19989102
0.104233846 0.19919984 -0.02471482 0.18964653 0.08690796 0.07405283 -0.24863686 -0.16292961
-0.14641397 0.027436407 0.19780341 0.16887711 -0.13341121 0.22386372 0.24392875 -0.17069985
0.16374277 -0.07205945 0.117779836 0.13046479 -0.11101559 -0.0140396 0.17878045 0.17108488
-0.107889295 0.12934867 -0.01652998 -0.0016897235 0.12584275 0.13577895 -0.13471305 -0.3288636
-0.051216118 0.21800876 -0.19584134 -0.10151084 0.054713152 -0.1985421 0.27365983 -0.13670677
-0.3760357 0.0048770197 0.15939254 0.09620431 -0.16373587 -0.15546346 0.24426162 0.25909773
-0.07656532 -0.14746313 0.12856278 0.3206525 0.19946294 0.19045359 0.16346397 0.19293532
-0.08141528 -0.038529295 0.3226879 0.23306452 -0.25352055 -0.2500173 -0.09103586 0.17800742
0.1989638 -0.02391453 0.009208202 0.0019210291 -0.20868121 0.020509524 0.058032323 0.16281778
0.040445615 -0.111832455 0.03840432 0.07666634 0.12909922 0.14083247 -0.07044461 -0.12925056
0.08560835 0.14493488 -0.2224998 0.19359887 0.26530135 0.03838961 -0.050462928 0.027368812
-0.13014725 -0.07614539 0.2349651 -0.08338123 -0.023397218 0.12847829 0.11829299 0.11235598
0.013703456 -0.19909869 0.09175024 -0.19572224 -0.054071236 0.2125397 -0.08324135 0.1951537
-0.2317594 0.16294344 -0.26199338 -0.32828933 0.17942968 0.27717477 -0.02795366 -0.001462295
-0.09071388 -0.25783923 -0.06644742 -0.09557305 -0.07407423 0.23658039 0.14582229 0.030570585
-0.032163113 -0.22151528 0.029169092 -0.2583808 -0.051090404 0.17593327 0.015062056 -0.16463259
-0.1759218 0.18188007 0.19230302 0.01701491 0.24935345 -0.15594393 -0.12590936 0.19379123
0.10335622 -0.13500348 -0.24128033 -0.19877619 0.13148883 0.10968523 0.042274527 -0.07861099
-0.043294095 0.28757936 0.21808456 -0.16197851 -0.13443193 -0.24703117 0.18822737 0.051137835
0.002069604 0.09794521 -0.14314817 -0.13255534 0.10829203 0.13745785 -0.12010235 -0.025049184
0.2748087 -0.21252374 0.16834252 0.1601185 -0.13435917 -0.207385 -0.26156518 -0.03182007
-0.13065012 0.15194426 0.11537279 0.20106779 -0.14299119 0.0027284827 -0.11682663 0.18422005
0.14944506 -0.14478298 0.2812165 -0.08129363 -0.018445307 0.13671798 -0.28988177 -0.25240248
0.02576095 -0.20761348 -0.08856127 0.048595633 0.27540022 0.043754708 -0.116147876 -0.10624225
0.1347928 -0.2497084 -0.18793985 0.19721955 0.033482667 0.19963758 -0.12951651 -0.031864304
-0.27278057 0.065966375 -0.07287909 -0.2128523 0.015612195 -0.21463308 -0.1916324 0.055972625
-0.012363701 0.20217459 0.12353522 0.17640175 0.12608552 0.008549325 -0.2161093 0.18196927
-0.058807578 -0.121646024 0.13606463 -0.11077767 0.26356828 -0.0035327633 0.25469273 0.0646077
-0.20629856 0.06503473 -0.16088857 0.116389275 -0.019805523 -0.25999615 -0.08309958 -0.12529258
-0.09122107 -0.06441682 0.035517216 -0.20217405 -0.11399119 0.25314036 -0.079694 0.13579112

fc2_layer.weight f4 [256, 256]
00000000: 32f1 0ebf 8030 513e 3979 72bd 9f62 6c3e
00000010: f079 18be d56e f93d a6db e0bd e0d6 32be
00000020: 02ff 72be 3daa 30be c075 59bd f05e 7f3e
00000030: e4e0 9abd 34c0 51be 9271 85be d5ae 8cbe
00000040: 88e0 47be 6650 cfbe 0299 46bd 7d1f 7dbe
00000050: 59f1 3e3d 31d5 8abe f951 9e3e f93b b53e
00000060: 6bc6 b33c 92dc 48bd eea5 443d cdc1 cfbd
00000070: 077b e83d fcff bbbd 8968 8abd c1b5 3b3e
00000080: 8150 823d 14ee 903e 8f82 22be d230 513d
00000090: 7c4f af3d c464 d83d fb73 ea3b 965a 4ebe
000000a0: 4839 04be e4f7 d1bd 75b8 8abd e23e cc3c
000000b0: cfb5 18be e03e b83d ad13 0d3e 1548 f5bd
000000c0: e922 efbb a740 e23c d091 c23d dcec 15be
000000d0: bf96 143e 479e a2bd 8536 adbe 7b47 03be
000000e0: b1ac b83e 41bd 60be 704d 843e 1b98 96be
000000f0: 11b8 513e 0b4f abbe bc98 8abd 8f71 06be
00000100: 4c2c b13d dd60 ad3d 8905 ec3d e48e c0bd
00000110: 0de1 043e e82e 73be 4c8a 47bd e50d cebd
00000120: e2ec 463d 3933 1cbe 6ad2 49bd 269a 62bd
00000130: d5dd 74bd 7445 203e 8ddf a93d 0d25 a1bd
00000140: 9966 d8be dd6d 563d 2cf3 3dbe 9ab4 c03c
00000150: 6b40 fdbd 6313 643e 60f1 9ebe d0ad 0b3d
00000160: 38ec d33d 2bb9 953c 82ee 42bd 0bd4 bdbe
00000170: ccc9 cf3d f761 febd 30c2 b0be 99f6 4abe
00000180: efac 49bc cd66 1c3e 1b13 753e 9062 2d3c
00000190: 5316 48be a4ec 3e3e fcba c53d a43a 58bc
000001a0: 765b 313e 59a8 833d 5453 2abe 348f 70bc
000001b0: 9d32 30be 5aa6 06be cfe3 67be b34e d33d
000001c0: dbfd 533d cd87 05bd 841f b23c 6b92 523e
000001d0: 55fe 243e 1754 283d 8856 b43e 2fd5 64be
000001e0: 5281 ad3e 09f8 05bc a541 583e 5ea4 ae3e
000001f0: 6c84 86be fa4e 6abe 70c1 9dbd 2abf 06be
00000200: e023 a13d 680d e5bd dd1a 38bd 6f85 e2be
00000210: c611 ab3e 3261 e8bb 474f a8be 7d6b 83bd
00000220: 9eca 86bd 4aad b43e e23d e6bd 11f3 0a3d
00000230: 1b31 8f3d e67c 43bd d124 163e aea9 2e3c
00000240: 728f 7d3d 7da4 abbe 428b eb3d f993 763c
00000250: 20d3 04bd d53c d9bc e69a 1dbd c06d 3cbd
00000260: 631a 63bd 4f43 8ebe be4c 643e 9207 ed3d
00000270: f041 3ebe 2953 25bd 8945 18be 98a3 403e
00000280: 3d83 96bc 58d8 83be dce8 1ebe 724c 1b3e
00000290: f5b0 1b3d 3c71 933d bf29 bebd 7e07 f63d
000002a0: 8f4b 15be b1b2 8bbd 430e 153d af86 bb3d
000002b0: 3640 70be cad5 213c bb57 a33c b25d 1d3e
000002c0: 9986 eebe 3f36 be3e 6d7a df3d 316d 33be
000002d0: 8d40 ae3d 8956 6d3d 9966 013e df81 48be
000002e0: fdee 103e e241 76bd fba9 0b3c 03ff b0bd
000002f0: c371 9bbc aa0e 5cbd 8d20 21bd 7614 973b
00000300: 1910 c4bd 2237 7fbe dbc9 eabd 4eaa a33d
00000310: c47c 8d3e 3afc 4ebe 2e65 5b3d dfac 073e
00000320: 88db ffbc ef2d 983e f3dd 053e 330a c1be
00000330: 5c71 14be 10cc 86be 5e96 53be 0ba2 ff3d
00000340: 5d85 14be 43d6 3c3d d74b fa3d cbe4 1539
00000350: a262 21be 595d 1bbe 0de0 c4bd cfca 283d
00000360: 6fd3 1f3e 6858 8b3e e520 3cbc 5b78 df3e
00000370: 5fab febd ca87 f53d 7ec2 e83e 13c8 11be
00000380: 0c5f e5bd ff61 e6be dcb5 8bbd 2aaa 943d
00000390: a49e 19be f222 d13e f072 dc3e 073c 98bd
000003a0: bdfa 24be 99f0 0abd 4f85 a93d 359a 0d3e
000003b0: 2365 bd3c 04fe f53d f66a 06bd 0bca 13bd
000003c0: 975b 8c3e 2d5e d23d 7866 3fbd 0bad bfbe
000003d0: 828a 703e 25d5 883d 0ca6 8d3e d09e e7bd
000003e0: 971c 1abe 84c7 933e 9329 33be c78e 743e
000003f0: 7c3a d13e 08c5 59be 08f8 c73e 458c a2be
-0.55836785 0.20428658 -0.05919764 0.23084496 -0.14890265 0.12179343 -0.109793946 -0.17464781
-0.2373009 -0.17252441 -0.05309081 0.2493856 -0.07562426 -0.20483476 -0.2606321 -0.27477136
-0.19519246 -0.40491027 -0.048485763 -0.24719043 0.046616886 -0.27115777 0.30921915 0.35397318
0.021945199 -0.049038477 0.048009805 -0.101443864 0.113515906 -0.091796845 -0.0675822 0.18331052
0.06363011 0.2830664 -0.15870117 0.05107195 0.08560082 0.105660945 0.007154939 -0.20151743
-0.12912476 -0.102523595 -0.06773464 0.024932329 -0.14913104 0.089963675 0.13777037 -0.11976639
-0.007297863 0.02761872 0.09500468 -0.14641136 0.1451063 -0.07940345 -0.33830658 -0.12820236
0.36069253 -0.21947195 0.2584033 -0.29412922 0.20480372 -0.33458742 -0.06767413 -0.13129257
0.08651027 0.08465741 0.11524493 -0.09402254 0.12976475 -0.23748362 -0.048715875 -0.10061244
0.048565753 -0.15253915 -0.049272932 -0.05532279 -0.059781868 0.15651494 0.08294592 -0.07868395
-0.42265776 0.052350868 -0.18549794 0.023523618 -0.123658024 0.2227302 -0.3104353 0.034101307
0.103477895 0.018276772 -0.04759074 -0.37075838 0.101459116 -0.12421029 -0.34523153 -0.19820632
-0.012309297 0.1527359 0.2393307 0.010582581 -0.19539766 0.18644959 0.09654805 -0.013197575
0.17320046 0.06428594 -0.1663335 -0.01468258 -0.17206807 -0.13149396 -0.22645496 0.10317745
0.051755767 -0.032600213 0.021743543 0.20563667 0.16112645 0.04109582 0.35222268 -0.22346948
0.33887726 -0.008176812 0.21118791 0.34109777 -0.26272905 -0.2288169 -0.07702911 -0.13158861
0.07868171 -0.11184198 -0.044947494 -0.44242427 0.33411998 -0.0070916647 -0.32872984 -0.06416986
-0.06581615 0.3528846 -0.11242272 0.033923212 0.06991788 -0.047726534 0.14662482 0.010660572
0.06190438 -0.33523932 0.11501171 0.015049928 -0.032427907 -0.026518265 -0.0384778 -0.046003103
-0.055445086 -0.27785727 0.222949 0.115737095 -0.1857984 -0.04036251 -0.14870276 0.18812406
-0.018373126 -0.25750995 -0.15518516 0.1516588 0.038010556 0.07199332 -0.09285306 0.12013148
-0.14579605 -0.06821192 0.036390554 0.09156548 -0.23461995 0.009877631 0.019939294 0.15367773
-0.46587065 0.3715076 0.10912023 -0.17522122 0.08508406 0.057943854 0.12636794 -0.19580792
0.14153667 -0.060121424 0.008524413 -0.086423896 -0.018975144 -0.053724922 -0.039337683 0.0046105934
-0.09573383 -0.24923375 -0.11464282 0.079914674 0.2763425 -0.20213404 0.05356329 0.13249539
-0.03123261 0.29722545 0.13072948 -0.37703094 -0.14496368 -0.26327562 -0.2066283 0.12482079
-0.14503999 0.046102773 0.122214966 0.0001429498 -0.15760282 -0.15172328 -0.09613047 0.04120904
0.15608 0.27215886 -0.011482452 0.4364651 -0.1243503 0.1198879 0.45460886 -0.14236479
-0.111997694 -0.4499664 -0.06821796 0.07259019 -0.15001923 0.40846974 0.4305644 -0.07433324
-0.16111274 -0.033920858 0.0827738 0.13828357 0.023119515 0.1201134 -0.03281685 -0.036081355
0.27413628 0.10271869 -0.04672858 -0.3743671 0.23490337 0.06681279 0.27665746 -0.11309588
-0.15049969 0.28863156 -0.17496328 0.2388259 0.40864933 -0.21266568 0.3905642 -0.31747642

fc2_layer.bias f4 [256]
00000000: 9ab8 57be 1267 3c3d ef5b 30be 6e72 3c3e
00000010: 901b 6bbc 2347 47bc 4c96 c63c 3466 8f3e
00000020: 34ec 8ebe a182 dfbc 614d b23e 3655 a23d
00000030: faa9 04be c84b 1c3e 3cee cf3d 5789 333e
00000040: d838 e53d 0ed4 203e ca61 423e 5937 bebd
00000050: 5a71 9b3e 96fa 8f3d 83e8 823d 8218 9d3d
00000060: f611 113c 6aac debd 9a20 323d 9d92 ba3d
00000070: f58d 96be 144e 62be 68dd 333c d6a8 4a3e
00000080: 881b 19bd 554a cdbd be11 49bc 3683 1abe
00000090: d6a8 053e 5a27 c13d 0a61 473e e2f6 fd3d
000000a0: 495c a7bd 483e 9c3d 192f b83d f05c 81bd
000000b0: 05c8 453e d533 60bc d4dd e8bb 45ff 4f3c
000000c0: d0d8 01bd 228c 3ebd 80ab e03d 1fb1 fdbd
000000d0: f56b 0f3e 8ffa 413a 9162 143d 7c22 6e3d
000000e0: 08b0 12be 4adf 5e3d ef9a 2b3e 40d9 ee3c
000000f0: 9cad 01be c10f 323d 8aff 953e 8de8 873e
00000100: 51b3 cd3c 7f37 5b3e e6e2 343c a6c6 bb3d
00000110: 9d89 0cbe 2f66 ae3c d918 08be acf6 a2bd
00000120: f574 143e b482 333d 4e56 2abe c197 3ebe
00000130: a06e 13be e068 d63d cdc6 5c3e d755 be3c
00000140: 223c 923d f656 1f3d 427e 2a3e ad02 4abe
00000150: f237 953c 2255 7abe 5802 bdbc 43a7 5ebe
00000160: 246a 05be 5b5e d3bd 9514 e03c b7c4 393e
00000170: 51e3 03bc 0f56 a2bd 3b92 42be e14c acbd
00000180: 3b70 503d 9ab3 bbbd 4c42 8c3d bbf3 913e
00000190: bd60 aa3d 6458 19be c1f9 6b3e 8708 313d
000001a0: 2146 3fbd 6b29 96bd 9b66 77be fff1 3d3c
000001b0: c938 ca3d 75f1 8abe 45f5 3f3e 9ade 1d3e
000001c0: ab52 b2bd 5e99 e83d 7bdc 733e a1ab 2e3d
000001d0: ed23 0cbe 1ab2 e9bd d27e 303e 35ec 59be
000001e0: aa43 8cbc 80fe 87bc 8ab4 7ebd 3d9b 30be
000001f0: 4808 b03b b68c 02bd 1c78 993d 146a c6bc
00000200: 0c7c 8ebd 4f9c d8be b49d 03bb 7ffe a53d
00000210: cff3 20be d3a6 8d3e e6b2 a6bd 62ef 343e
00000220: 80c2 863d 23c8 4e3e e10a 7f3d 95a3 3cbe
00000230: 9c21 06be c538 96bd 1d49 113e 63ef ee3d
00000240: daba 01be a387 db3d b416 803d 9af4 653e
00000250: eeb1 e7bb b714 453e dac0 41bd cb70 93be
00000260: 32ac 5f3e a78f 6cbd 12ea cfbc 4b91 60be
00000270: 2a73 bc3d 3d53 25be 4973 893d db61 d63d
00000280: b8bb bd3d 176e e33d e6ee 5c3b d346 f73d
00000290: 4ac7 1cbe f2d6 89bd 65e0 533e 8fc2 70be
000002a0: c06f 2abe a8b4 1bbd 2c28 a33d 8962 233e
000002b0: 31da 023d eb97 833c 6de2 a23e bdb0 a1bc
000002c0: e1ad 34be 034c 0abe 134a f9bc 9f48 0cbd
000002d0: f18e e23b 0ac7 fd3c 95de fcbd 2bc2 bc3d
000002e0: 99dd fcbd 1e1b 8dbe 597e a53c 9ace 063e
000002f0: cf44 d4bd d0ef d5bd fa4a 97bd 47c1 b33d
00000300: 897c bdbe aa3f 0abe 2f9a c03b 7f2b f7ba
00000310: a444 26be b62a 393e a31b 55bd b84d bebd
00000320: 416e 74b9 db2c 8c3e 0217 d4bd 6acc 8b3d
00000330: 02bc 90bd 2238 40bd a124 643e 7ead 73be
00000340: 76af 88bd 8aef 033e 1e5f d8bc 01d2 f4bc
00000350: 4e5c 88be 5abd 01be 9c68 99bd 0041 04be
00000360: 5a45 2bbe 555d 21be 7a2b 24be dff7 523e
00000370: fdea acbd 50be f1bd 7736 8938 0ad9 ec3d
00000380: 2d0d 373e 55e1 12ba e479 45be 0b5d 8fbd
00000390: b1a2 80be 7f97 c83e 71d7 603e 3804 d9bc
000003a0: 1f96 293e 9264 d03d 9617 a8bd 7b6b 143c
000003b0: 9f1e 80bb 20ff b4be 58b9 ad3c d1a6 6b3e
000003c0: 073e 1c3d 2cfa 02be f2de ecbe 13e0 203e
000003d0: 84b0 7ebd 1cfa 0f3e a6da 753c 9fc0 ea3d
000003e0: e842 c4bd 017e 203d c82e 6c3e 9a1e 903c
000003f0: 59ec 14be 5ece fe3d b3f9 93bd d064 013e
-0.21066514 0.045996733 -0.1722257 0.18403026 -0.014349833 -0.012162956 0.024241589 0.28007662
-0.27914584 -0.027283968 0.3482466 0.07926409 -0.12955466 0.15263283 0.101528615 0.1753286
0.11192483 0.15705892 0.18982616 -0.092879005 0.30359918 0.07030217 0.06392004 0.0767069
0.00885438 -0.10872729 0.043488123 0.091099955 -0.2940518 -0.22100097 0.01097808 0.19790968
-0.03737977 -0.10023943 -0.0122722965 -0.15089116 0.13052687 0.09431334 0.19470611 0.12400605
-0.08171899 0.07629067 0.08993358 -0.063165545 0.19314583 -0.013684233 -0.007106522 0.012695138
-0.03170091 -0.04652036 0.10970211 -0.12387299 0.14006026 0.0007399702 0.036226813 0.058138356
-0.14324963 0.054412164 0.16758321 0.029156327 -0.12663883 0.043472055 0.29296523 0.2654461
0.025109919 0.21407889 0.011040425 0.091687486 -0.1372437 0.02128896 -0.13290729 -0.07957205
0.1449774 0.04382582 -0.16634485 -0.18612577 -0.14397669 0.10469222 0.21560211 0.023234291
0.07140376 0.03890129 0.16649726 -0.19727583 0.018215153 -0.24446538 -0.023072407 -0.21743493
-0.1302877 -0.10320731 0.027353564 0.18141447 -0.008049802 -0.079265706 -0.19001095 -0.08413101
0.05088828 -0.09165116 0.068485826 0.28506264 0.083192326 -0.14975125 0.23044492 0.043221023
-0.04669774 -0.073321186 -0.24160235 0.011593341 0.09874112 -0.27137342 0.18745907 0.15416947
-0.08707174 0.113573775 0.23814575 0.042644147 -0.1368558 -0.11410923 0.17235878 -0.21281512
-0.017122108 -0.016600847 -0.062183894 -0.17246719 0.005372081 -0.031872474 0.07493612 -0.024220504
-0.06957254 -0.42306754 -0.0020083012 0.08105182 -0.15718006 0.2766634 -0.08139591 0.17669442
0.06580067 0.20193534 0.062266234 -0.18421777 -0.13098758 -0.07335047 0.14188047 0.11666753
-0.12668934 0.1071923 0.0625433 0.2245659 -0.0070707714 0.19246183 -0.04730306 -0.28796992
0.21843031 -0.057754185 -0.025380168 -0.21930425 0.09201653 -0.16145034 0.06711442 0.10467883
0.0926432 0.11104982 0.003371173 0.120740555 -0.15310398 -0.06730451 0.20691068 -0.23511718
-0.16644192 -0.038014084 0.079666466 0.15955557 0.031946365 0.016063651 0.31813374 -0.019737596
-0.17644455 -0.13505559 -0.03043083 -0.034248944 0.0069140126 0.030978698 -0.12347142 0.09216722
-0.12346954 -0.2755975 0.020201849 0.1316475 -0.10364687 -0.10446131 -0.073873475 0.08777099
-0.37009075 -0.13500848 0.005877755 -0.0018857567 -0.16237122 0.18082699 -0.05202831 -0.092921674
-0.00023310726 0.27377972 -0.10355951 0.06826098 -0.0706711 -0.046928532 0.22279598 -0.23796651
-0.066740915 0.12884346 -0.026412543 -0.029885294 -0.26632923 -0.12669888 -0.07490656 -0.1291542
-0.16725674 -0.1575826 -0.1603221 0.20602368 -0.08443258 -0.11803877 6.542814e-05 0.115648344
0.1787612 -0.0005603035 -0.19284779 -0.070001684 -0.25124124 0.39178082 0.21957184 -0.02649127
0.16561173 0.10175432 -0.08207624 0.009058828 -0.0039099003 -0.35350895 0.021206543 0.23012854
0.03814509 -0.12790745 -0.46263844 0.15710478 -0.062180057 0.14060253 0.015005743 0.11462521
-0.09583074 0.039182667 0.2306472 0.017592717 -0.14543284 0.12441705 -0.07225361 0.12636113

actor_out_layer.weight f4 [7, 256]
00000000: 6ed4 0abc a259 8fbe df96 2d3e 3db1 173d
00000010: b4cd cdbe 127c 713e d4f9 aabe 2739 ab3d
00000020: 1797 96bd b501 2a3e 3a52 be3d 6b8a 713e
00000030: 5366 88bd 6803 a43e 9a63 61bd e936 033e
00000040: 8245 b23c 49cc 883d 417e f93d b509 a7be
00000050: 086f 623e 9a9d 593e 6786 5e3e 96e9 96be
00000060: d988 c73d 6d85 1cbd 5a44 87be b943 d8be
00000070: 23d0 afbd b7c9 88be ba84 bf3e 2712 a8bd
00000080: 1f9e 18be 2cc9 51be 6653 d53e a66b cfbd
00000090: d6ae bc3e c434 903e 8075 253e fc4f 1c3e
000000a0: 7018 5c3e b32f 9e3e 3cb9 953e d168 f13d
000000b0: 8c65 37be f521 313e 65e2 983e 7006 a5be
000000c0: 9437 c5be 019a 9ebe 5a39 8ebd e2e8 3ebe
000000d0: 7109 9f3e c670 a63e b18a 483e b31b 10be
000000e0: 3e93 543e 46dd 903e 3a20 233d 2f13 31be
000000f0: 7b06 acbd 49d4 97be ffa1 3a3e be1c db3e
00000100: 3025 8e3e 642c 5d3e 049f c23e fcf0 d33d
00000110: 9465 9c3e a737 ebbe c494 933e f99b 57bc
00000120: 560a b33e 791e f0be 872d 2d3e d1f1 85be
00000130: 6b5a a4be 5b8b 7dbd 1071 86be 753a 933e
00000140: 0964 8d3e bac5 c33e 2ebb a7be 70e1 d8be
00000150: afd8 a9be ebdd 57be ffb1 243e 44c6 11bc
00000160: 9a73 6ebe 2f4c 9d3d 871a cf3e bee2 443e
00000170: 7aab 443d 7281 8fbe f6ba ec3d 6dd6 b4be
00000180: f358 d2be ebb4 1cbd 70c1 7bbe 2e6a 8d3e
00000190: 1196 293e 4c83 83be 650c db3e b253 17be
000001a0: 2bdf 74be 2cc9 ce3e 985c a4bd a7c4 a6be
000001b0: 8167 8d3e 0650 80be a3dd dfbd cd72 683e
000001c0: 7e2d 06be 6794 a03e a758 6c3e cc5c 9c3e
000001d0: 9b85 953d c506 413e 8288 693e b5b9 04be
000001e0: 55cb f13d 6c35 79be 110f 953d f168 aa3e
000001f0: 5c9b 93be b9e2 88be 7cc0 503e 7482 933e
00000200: 246d 923e f3a3 23be 18d9 fabd bde7 ff3d
00000210: 427f 6d3e 25d2 163e 4a4b 1dbe 5629 bdbe
00000220: 7b30 64be af5b 463d 3d4c 603e e1b3 81be
00000230: 5cdb 34be 1ff6 bebe ea28 babd 4778 8c3e
00000240: 741f d63e 1e73 00be 16a0 4f3e f289 50bd
00000250: 94da b13d f996 93be 8520 5e3e 7ebd f4bd
00000260: 664d 96bc 9f03 d2bd deee 32be d835 17be
00000270: b32d d53d ea75 eebe b48c 3e3e a80a 0bbe
00000280: bebe 713e 1567 bc3e 190e cb3e f37e b43e
00000290: b139 783e f17d 43be 598c efbe 251c abbb
000002a0: b1e9 bb3e 60f3 af3e 959c bbbe 634f a13e
000002b0: 1cb2 293e f10d be3e 60dc 1b3e 1017 bfbe
000002c0: 3081 903e c7aa 85be 595a 7ebe 34e5 e73d
000002d0: 8ab1 b93d d3b9 bc3c ae2e 723e 8a1e 19be
000002e0: 68be 883e 84c0 123d 7e02 db3e f8ed 383e
000002f0: 9ded cdbd 6dae de3e 30cd 53bd ce37 b53e
00000300: 1327 3a3c 0ef7 523e 1b19 05be 5995 7f3e
00000310: 6d2d cdbe d01d 873e 3022 cdbd e1b8 b8bd
00000320: 831b 333e 5d0a 0abe 359a 9abe b36c 9fbe
00000330: e4ce 47be 3394 96be adab 9f3e 767b 5abe
00000340: fd4f 39be 5299 ffbd bd78 a43e a852 a63e
00000350: 40a4 713c 6717 2dbe b220 89be 1fc3 1abe
00000360: c545 a1be 2c62 e6be 378c d83e 928e 423e
00000370: f4a1 5dbe 4317 02be 14a8 5d3d ad47 b23e
00000380: 7890 5fbc 13e7 253e c921 933d ece1 b0be
00000390: ee1b d63e f727 f63d f6ac 123e 3da8 cabe
000003a0: 76ac 09be e5e8 91be 5855 a53d f47b aabe
000003b0: 9a02 a63e c6f3 77be 3357 a23e 464c dfbe
000003c0: d5c0 953e e726 9b3e f759 ecbd c6f7 063d
000003d0: 6517 c93d 2a32 063e 6173 b73e 944c 713e
000003e0: f8b7 c4be 414e 253e d14c b0be e330 a33e
000003f0: 891a 683e e12f a3bc 5ce8 973e 248b a1be
-0.008473499 -0.27998072 0.16952084 0.037034262 -0.40196002 0.23582485 -0.3339373 0.0836051
-0.07353037 0.16602214 0.09293027 0.23587959 -0.06660142 0.3203385 -0.055026628 0.12813915
0.02176166 0.06679589 0.12182284 -0.32624593 0.22112668 0.21251526 0.21730958 -0.29475087
0.097428985 -0.038213182 -0.26419336 -0.42239168 -0.08584621 -0.26716396 0.3740595 -0.08206587
-0.14904068 -0.20486897 0.4166519 -0.10127954 0.3685214 0.28165257 0.16158104 0.15264887
0.21493697 0.30895767 0.29242885 0.1178757 -0.17909831 0.1729811 0.29860225 -0.32231474
-0.38518965 -0.3097687 -0.06944533 -0.18643525 0.3106189 0.32507914 0.19584157 -0.14073066
0.20759293 0.28293818 0.039825656 -0.17292474 -0.083996736 -0.29654148 0.18225859 0.42795366
0.27762747 0.21598965 0.38011944 0.103486985 0.30546248 -0.45940897 0.28824437 -0.013159745
0.34968823 -0.4689825 0.16911899 -0.26161054 -0.32100233 -0.061900478 -0.26258135 0.28755537
0.27615383 0.3823679 -0.32759994 -0.42359495 -0.3317313 -0.21080749 0.16083525 -0.008897368
-0.23286286 0.076805465 0.40449926 0.1922712 0.048015095 -0.28028446 0.115590975 -0.35319844
-0.41083488 -0.038258474 -0.2458551 0.2762007 0.16561152 -0.2568611 0.42782894 -0.14778021
-0.23913257 0.40387857 -0.08025473 -0.3257191 0.2761803 -0.25061053 -0.10930946 0.22700043
-0.13103291 0.31363222 0.23080693 0.30539548 0.07300874 0.18850239 0.2280598 -0.12961467
0.11806361 -0.24336785 0.07278264 0.3328319 -0.28829467 -0.26735476 0.20385927 0.28810465
0.28598893 -0.1598051 -0.122484386 0.124953724 0.23193076 0.14728601 -0.15360752 -0.369456
-0.22284119 0.04842728 0.21904083 -0.2533255 -0.17661804 -0.3729715 -0.09089835 0.27435514
0.41820872 -0.12543914 0.20275912 -0.050912805 0.086842686 -0.2882612 0.21692093 -0.11950205
-0.018347453 -0.10254597 -0.17473933 -0.14766634 0.10409107 -0.46574336 0.18608361 -0.13578284
0.23607919 0.36797395 0.39659193 0.35253105 0.24240758 -0.19091012 -0.46786764 -0.005221861
0.3670173 0.34365368 -0.366429 0.3150588 0.1657185 0.3712001 0.15220785 -0.37322283
0.28223562 -0.26106855 -0.24839152 0.11323014 0.09067066 0.023037827 0.2365062 -0.14953056
0.26707768 0.03582813 0.4277534 0.18059528 -0.10055087 0.4349245 -0.051709354 0.35394138
0.011361855 0.20602056 -0.12997858 0.24959315 -0.4007372 0.26389933 -0.100162864 -0.09019638
0.17490964 -0.13480516 -0.30195776 -0.31137618 -0.19512516 -0.29409942 0.31185666 -0.21336159
-0.1809692 -0.124804154 0.32123366 0.32484937 0.014748633 -0.16903459 -0.26782757 -0.15113495
-0.31498542 -0.44996774 0.42294475 0.18999699 -0.21643811 -0.12704186 0.05411537 0.3482031
-0.013645284 0.16201429 0.071841784 -0.34547365 0.41818184 0.120193414 0.14323792 -0.3958148
-0.13444695 -0.28497997 0.08072919 -0.33297694 0.3242386 -0.24214086 0.31707153 -0.4361288
0.29248682 0.30303118 -0.11540597 0.03295114 0.09818915 0.13105074 0.35830215 0.23564368
-0.38421607 0.16143133 -0.34433606 0.31873235 0.22666372 -0.019920291 0.29669464 -0.31551468

actor_out_layer.bias f4 [7]
00000000: b1a3 7e3d 6909 6fbe b9b9 90be 0fc9 abbd
00000010: ca59 27be 0f5a 2c3e 915c a93d
0.062167827 -0.23343433 -0.28266695 -0.08387958 -0.16342846 0.1683123 0.08269609
