projet/models/actor_critic/player_1_critic.pth (torch, 310551 bytes, 5 tensors)

fc1_layer.weight f4 [256, 42]
00000000: f999 73be 11ac 8f3c 6879 e43c c18a 7dbe
00000010: 5eae 10be 1935 66be 2885 973e c01f d13d
00000020: e9b6 633d e8ef 6e3d 4923 58be ab77 efbd
00000030: 6458 48bd 6f5a 0b3c 2579 12be 3b1b 6bbc
00000040: 1720 c23c d061 9d3e 74cf e6be e7c4 8d3e
00000050: bcc2 33bb f589 863d 70c7 afbd 1d00 b5bd
00000060: 955f 6d3e 5fd1 a8be b275 08be 5e8c e5bd
00000070: eb49 bf3d e1ed 423d 45fb b83d f1a9 ef3c
00000080: 16f2 1ebb cdfe a2bc 81a7 833d 9878 c2bd
00000090: d504 febc a24a 893d 0a97 503d 2438 9fbc
000000a0: 818a 0b3e f50f f53d 1b9c af3d 4f74 dbbe
000000b0: 2492 22bc a2ec a5bd 8c00 dfbe c3a8 0fbe
000000c0: 013e 213e 7dcc a83d be7b 85bc 7a1e 29be
000000d0: 68a1 94bd a4d6 47be efc4 56be 373e 093f
000000e0: 8e14 293e eb77 8ebb 817d 3b3e b6aa 3abe
000000f0: 5c1d 8abe 51c3 d33c d370 843e e703 1dbd
00000100: 8f20 813e 4de7 ef3d 57ca 32be 6fff b83b
00000110: 66c6 b43d ca2d 9d3e a8e7 98bd 2616 31be
00000120: 636e 923c 4f5a 2c3d 6ba8 3fbd 6fb8 3d3e
00000130: 0f6c b5bb 0a4d de3b 09f7 cd3d 16d1 103e
00000140: 80d3 ca3d 4d57 df3d 509b 9e3e 968f e0bb
00000150: 39dc cc3d 93d9 ff3d 2d49 d93d 3406 f73c
00000160: 00a0 b63d 4215 843c 79b2 993d 48e0 033e
00000170: 31f5 773d b825 953d 06bb 943d b3aa d73c
00000180: adf4 0f3d 5d8f f1bc 9270 233c b5d7 e53c
00000190: 45a2 bb3c 0252 7dba 4a6e 493d 36c3 dcbb
000001a0: 460d ed3d 4148 bf3d ced0 58bd d685 fd3c
000001b0: 1a28 9f3d 1738 773d 0377 383d 131a 563d
000001c0: 9075 a83c 30eb 4a3d 3856 8bbb 953b b83d
000001d0: 93f2 e93c 7ca3 413d f043 24bc 4025 fa3b
000001e0: c1c8 43bc 2c38 e93b 924d 3dbd 2972 123d
000001f0: d79f e4bc 38b4 c63d 4640 6e3e 92fd cc3e
00000200: 17ad 5a3d 0882 09be e71a debe 9d52 143e
00000210: c347 c83d 3f57 383c edcd c9bd 5012 3abe
00000220: 3824 7fbd 88db 343e cb91 99be 1e27 a53c
00000230: b59d a8bc b992 963e 3291 36be 3dd0 903a
00000240: a1e4 1e3d 1b05 f1bd 8b45 0ebe 0479 093d
00000250: 8d27 75bd 1d9f 743c ebd2 edbc 1a10 ba3d
00000260: 8c78 24be db61 423e e0ec fa3d d440 08be
00000270: ac3f 893c ec93 d1bd 61ce 89bb 28c0 823d
00000280: add8 f53a 123f c6bd f531 9f3d 302e 733d
00000290: 1c77 9abd e516 e9bd 0e42 71be 0ff9 b03b
000002a0: 862b 293e 25e6 debc 631b f8bc a214 a1bc
000002b0: 806b cc3c 2b12 9cbd 1e3c 083d cd4c 8a3e
000002c0: 27d7 fb3d 05fb fabd bcc0 863e 19f6 b33d
000002d0: 9d5c abbd 2fd0 2a3d 23c1 623e 7761 3e3d
000002e0: 92c2 62bd 7d66 91be 3df1 e9bd c647 32bd
000002f0: 9ab7 153e 72e2 553c e9d9 0d3e 71d3 643d
00000300: 66a1 25be 011e 473d 2a45 3fbe 62c8 433d
00000310: 4f40 343d f2db 5b3d bf68 ff3c 43a4 e2bd
00000320: 7fc8 0d3e 77b9 c83c 874f 973c d896 763b
00000330: ce52 ad3d 5b07 06bd 039f 303e 1dc1 103e
00000340: 339a ba3d b4f6 f43d 4f60 1ebd fbbd f0bc
00000350: b823 3ebe 6e8d 733d a9d2 79bc 9777 3c3d
00000360: d0be aa3e b6b9 693d dea0 acbd 3edb c43b
00000370: f9b9 dbbe 5bc8 1b3e 9880 813e d901 50bd
00000380: c764 763e 3b37 293e ceeb 63bd 07b1 b13e
00000390: c9be b2bd c40a 92bd 91ad 11be d38d c3bd
000003a0: 5d2b 573e b2eb b9bd dc1a 2abe b704 4f3e
000003b0: 11d4 1fbe 76ef 42be 628c 32bd 3a6d 38bd
000003c0: ba4b 2fbd fd02 603d 7598 1c3e 8a7f 913b
000003d0: be87 4abe baa0 093e 8315 7bbe db1b 2bbe
000003e0: 8b5f 453e 986a 623d 0abd 3abe d910 dfbd
000003f0: fd4e 6a3c ebd9 30be 50f5 98bd d0b2 dbbe
-0.23789205 0.017538102 0.027889922 -0.24759962 -0.14129016 -0.22481193 0.29593778 0.10211134
0.05559436 0.05833426 -0.2110721 -0.11692747 -0.04891242 0.008505448 -0.14304025 -0.014349754
0.023696942 0.30738688 -0.4508015 0.27689287 -0.0027429303 0.06569282 -0.085829616 -0.08837912
0.23180993 -0.32972237 -0.13326147 -0.112084135 0.093402706 0.04759014 0.09032301 0.029255839
-0.0024253181 -0.01989689 0.06428433 -0.09495658 -0.031008163 0.06703688 0.050925292 -0.01943595
0.13627054 0.11965934 0.08574697 -0.42862174 -0.009922538 -0.08101775 -0.43555105 -0.14029221
0.15746309 0.08242128 -0.016294356 -0.16515532 -0.07257348 -0.19515473 -0.20973562 0.5361056
0.16511747 -0.0043477914 0.18309595 -0.18229184 -0.26975524 0.02584997 0.25867328 -0.0383338
0.25220153 0.11714039 -0.17459999 0.0056456844 0.08826904 0.30698997 -0.0746606 -0.17293605
0.017874902 0.042078312 -0.046791475 0.18527387 -0.005536563 0.006784086 0.10056884 0.1414226
0.09903622 0.10905323 0.3097787 -0.0068530543 0.10002942 0.12492671 0.1060966 0.030154325
0.08917236 0.016123418 0.07504744 0.12878525 0.060536567 0.07282585 0.072622344 0.026326513
0.03514545 -0.029487306 0.009975569 0.028056959 0.022904525 -0.0009663404 0.049177445 -0.006737138
0.11574797 0.09339953 -0.052933507 0.030947607 0.07771321 0.060356226 0.045035373 0.05227096
0.02056387 0.0495407 -0.0042522214 0.08995739 0.028558051 0.04727505 -0.010025963 0.007633835
-0.011949719 0.007117292 -0.046216555 0.035753403 -0.027908249 0.09702343 0.23266706 0.4003721
0.053387728 -0.13428509 -0.433799 0.1448464 0.097793125 0.01125127 -0.0985373 -0.18171048
-0.0622904 0.1766187 -0.29994044 0.020160254 -0.020583013 0.29408816 -0.17828825 0.0011048388
0.038792256 -0.11768552 -0.13893716 0.033562675 -0.05985217 0.014930514 -0.029031238 0.090851024
-0.1606161 0.18982641 0.122522116 -0.1330598 0.016753994 -0.10233292 -0.0042055105 0.06384307
0.0018756591 -0.096799985 0.077732004 0.05937022 -0.075422496 -0.1138132 -0.23560354 0.005400784
0.16520509 -0.02720935 -0.030286497 -0.019663159 0.024953604 -0.07620653 0.033260457 0.2701172
0.122968964 -0.122549094 0.2631892 0.08787174 -0.08367274 0.041702446 0.22143988 0.04647967
-0.055361338 -0.28398505 -0.11422966 -0.04352548 0.1462082 0.013054477 0.13852657 0.05586571
-0.1617485 0.0486126 -0.18678728 0.04779852 0.044006642 0.053676553 0.031177877 -0.11066487
0.13846014 0.024502499 0.018470539 0.003762653 0.08463059 -0.03272186 0.17248158 0.14136167
0.091114424 0.119611174 -0.038666066 -0.029387465 -0.18568313 0.05946105 -0.015247979 0.046012487
0.33348703 0.057061873 -0.084291205 0.006007581 -0.42915323 0.15213148 0.25293422 -0.050783012
0.24061881 0.16524975 -0.055644803 0.34705374 -0.08727796 -0.0713096 -0.14226367 -0.09548535
0.21012636 -0.090781584 -0.16611809 0.20216642 -0.1560824 -0.1903666 -0.04359091 -0.04502604
-0.042796828 0.05469035 0.15292533 0.0044402527 -0.19778344 0.13440219 -0.24519925 -0.16709845
0.19274728 0.055277437 -0.18236175 -0.10891885 0.014301059 -0.17270629 -0.07468665 -0.4290986

fc1_layer.bias f4 [256]
00000000: 485a eebe 7618 123f 27e9 17bf 7f51 1cbf
00000010: 11c0 5ebf d369 1ebf 560f 33bf 08c4 903e
00000020: bedd 33be aecf 1bbf 85ad 26bf 9e10 32bf
00000030: e4b1 5dbf 3ae2 4ebf 0621 4abf 611f 45bf
00000040: cb9e 35bf a459 14bf 876a 1fbf b5fd bfbe
00000050: 32b4 4bbf 41aa f2be 64ff 2ebf 0c1d ccbe
00000060: 2ac4 2fbf 6162 48bf 6a17 4fbf e616 34bf
00000070: a1d9 2ebf d2a5 06bf f760 52bf 9f9e e5be
00000080: 9cbf 49bf 79bd 04bf bb5c 49bf 43c5 1dbf
00000090: a24e adbe 3421 2cbf 7203 36bf 47af 31bf
000000a0: eaef e7be 23a2 2bbf 0a0e 67bf adc0 4cbf
000000b0: 9b9f 35bf 7707 66bf 947c 2abf f1ca 4abf
000000c0: 585e 38bf d9e6 45bf 648c 53bf 7cbc 60bf
000000d0: 3c9a 3cbf 7dfc 22bf 6b21 35bf 372b 10bf
000000e0: 0155 1ebf 31fd 16bf 6f26 57bf 11d4 41bf
000000f0: 6bdb 4dbf 50e7 24bf 31af 14bf 495b a7be
00000100: de09 3dbf 3ed5 41bf d730 3abf d5d6 bebe
00000110: f757 fdbe dafe 77bf 905b afbe 4249 0dbf
00000120: f3a9 c3be 9722 18bf 5bad 49bf 3a42 32bf
00000130: bafe 6cbf 1a19 26bf 4a47 0abf 95c1 1dbf
00000140: 4c54 56bf c8d4 3ebf 9f0f 4ebf 0b6a 37bf
00000150: 9ab4 18bf 0006 19bf 8f88 3bbf 0129 5fbf
00000160: 9494 1abf b9cf 49bf a13c 35bf 64bf 3ebf
00000170: 6b19 53bf 0163 0fbf ea08 30bf 2636 01bf
00000180: 93ec 23bf 0b30 54bf 5029 3ebf 1f31 3dbf
00000190: 7924 00bf abf2 1cbf 4be4 14bf b601 23bf
000001a0: 6727 5dbf 7e74 32bf afa6 32bf 3fcd 2abf
000001b0: 1753 35bf ab14 f8be abe7 4bbf 4cd9 2fbf
000001c0: bbb3 3dbf 9196 3ebf ad4c 26bf 0451 2bbf
000001d0: 7770 20bf c6f6 3bbf 3243 29bf 8a8f 05bf
000001e0: 9dc4 3ebf 1018 49bf fbac 25bf 45f6 bebe
000001f0: 60ba 4dbf db76 52bf 8c46 60bf d232 4ebf
00000200: d06f 35bf a0e3 41bf 773e 1dbf 5030 14bf
00000210: e09f c8bd 36b3 aabe 1336 3dbf 3d17 47bf
00000220: c8d3 3fbf a228 c4be 8473 2bbf 2ae8 41bf
00000230: c456 0fbf 0930 38bf 91bd 38bf 4f86 22bf
00000240: c9f7 15bf 58f3 47bf 5726 3cbf b487 2ebf
00000250: fb5d cebe ba65 45bf ae4c 3dbf 2a9e 05bf
00000260: 87ef 1cbf 921e 4ebf 0103 2abf 00cc 2ebf
00000270: 5a70 46bf 185a 37bf 6092 dfbe 05de 4fbf
00000280: d48d 3cbf 0ed3 2bbf fd1c eebe 5dbc 34bf
00000290: 9a82 29bf 9a43 eebe 4fbb 2cbf ad59 27bf
000002a0: 2e79 3abf ffe1 2abf ee7d 41bf 19fb 41bf
000002b0: c0ed 3fbf 6989 3dbf ce49 5abf 3b86 34bf
000002c0: 20c1 31be 3792 5ebf 362b 45bf 1526 023f
000002d0: 437a 28bf 17f0 16bf 2ce0 0fbf 2e61 34bf
000002e0: 18b9 28bf 7753 11bf 25e0 e33e c200 73bf
000002f0: d6fb 56bf 63dd 2fbf 0e5d ecbe bc15 1bbf
00000300: 427f 1ebf 7371 24bf 3992 18bf a8e6 4bbf
00000310: e202 44bf e642 c1be 332a 04bf 8bd4 43bf
00000320: 919e 4dbf bfe6 08bf 47d0 10bf b401 13bf
00000330: 3063 16bf 15e8 48bf b4e1 11bf 11d8 38bf
00000340: 6769 3ebf 439a 21bf 7c2b 22bf dc26 31bf
00000350: 4661 f4be ddf4 03bf d830 33bf 8d35 74bf
00000360: b5d0 35bf b442 53bf 5627 0dbf 8127 11bf
00000370: 0941 31bf da72 17bf 7585 27bf e110 58bf
00000380: bae4 54bf 5d1c 60bf e13e 61bf 1daf 46bf
00000390: e22c 43bf 6e3d 54bf a6dc 23bf 5e66 3abf
000003a0: 7225 4fbf 9cdf 39bf 5b35 3dbf e199 03bf
000003b0: 7e17 45bf f71c 21bf 4bf6 0cbf 19e1 42bf
000003c0: a867 98be a57f 0cbf 1975 e4be d458 42bf
000003d0: 9728 3ebf bd63 3ebf 7258 49bf 5aba 35bf
000003e0: b3ee 0cbf f19e 36bf f1ac 17bf 8ff3 1abf
000003f0: c4aa 5dbf 22ec d8be 1d65 25bf b052 19bf
-0.46553254 0.57068574 -0.5934014 -0.61061853 -0.8701182 -0.61880225 -0.69945276 0.2827456
-0.17565057 -0.6086377 -0.6510852 -0.69556606 -0.86599565 -0.80813944 -0.7895664 -0.77001005
-0.70945424 -0.5794928 -0.6227192 -0.3749825 -0.7957183 -0.47395518 -0.68358445 -0.3986591
-0.686587 -0.78275114 -0.808951 -0.7034744 -0.68300825 -0.5259677 -0.82179207 -0.4484758
-0.78808 -0.5185161 -0.7865712 -0.6162912 -0.33849055 -0.67238164 -0.7109901 -0.69408077
-0.45300227 -0.67044276 -0.90255797 -0.799815 -0.70946664 -0.8985514 -0.6659634 -0.79215914
-0.7201896 -0.7730537 -0.82636094 -0.87787604 -0.7367284 -0.63666517 -0.70754117 -0.5631594
-0.61848456 -0.5898009 -0.8404302 -0.7571421 -0.8041293 -0.64415455 -0.5807982 -0.32686833
-0.7384318 -0.75716007 -0.72730774 -0.3727328 -0.49481174 -0.9687325 -0.34249544 -0.5518991
-0.38215598 -0.5942778 -0.78780144 -0.69632304 -0.9257618 -0.6488205 -0.5401503 -0.6162351
-0.83722377 -0.7454343 -0.80492586 -0.71646184 -0.59650576 -0.5977478 -0.73255247 -0.8717194
-0.6038296 -0.78832585 -0.7079564 -0.7451079 -0.8246066 -0.5601044 -0.687636 -0.5047325
-0.6403286 -0.8288581 -0.7428179 -0.7390308 -0.5005565 -0.6130778 -0.5816085 -0.63674486
-0.8638825 -0.69709 -0.6978559 -0.6671943 -0.7082991 -0.48453268 -0.7965037 -0.68690944
-0.7410237 -0.74448496 -0.6496075 -0.66920495 -0.6267161 -0.7342342 -0.66118157 -0.5217215
-0.7451876 -0.7855234 -0.6471707 -0.37297264 -0.8036251 -0.8221261 -0.87607646 -0.80546296
-0.7087374 -0.75737953 -0.6142344 -0.5788622 -0.09796119 -0.33339852 -0.73910636 -0.77769834
-0.7493253 -0.3831225 -0.6697314 -0.7574488 -0.5599177 -0.71948296 -0.72164255 -0.6348619
-0.58581215 -0.7810569 -0.73496 -0.68175817 -0.40306076 -0.7710835 -0.7394513 -0.52194464
-0.6130299 -0.80515397 -0.66410834 -0.6828003 -0.77515185 -0.7162185 -0.43666363 -0.8119815
-0.7365391 -0.6711892 -0.4650649 -0.7059992 -0.6621491 -0.4653595 -0.6747331 -0.6537121
-0.72841156 -0.6675109 -0.7558278 -0.7577377 -0.7497215 -0.74037796 -0.85268867 -0.7051732
-0.17358828 -0.86941856 -0.7701906 0.5083936 -0.65811557 -0.589601 -0.56201434 -0.70460784
-0.6590743 -0.5676798 0.44506946 -0.9492303 -0.8397802 -0.68697184 -0.46164745 -0.6058004
-0.6191293 -0.6423561 -0.5959812 -0.7964883 -0.765669 -0.37746352 -0.5162689 -0.7649619
-0.8032008 -0.5347709 -0.56567806 -0.57424474 -0.587451 -0.7847913 -0.5698502 -0.7220469
-0.7437958 -0.6312601 -0.633476 -0.6919992 -0.47730464 -0.51545507 -0.69996405 -0.9539421
-0.71021587 -0.82523656 -0.55138147 -0.56700903 -0.6923986 -0.59159625 -0.65438014 -0.84400755
-0.8316151 -0.8754328 -0.8798657 -0.7761095 -0.7624036 -0.82906234 -0.6400856 -0.7281245
-0.8091651 -0.72606826 -0.7390954 -0.51406676 -0.7698897 -0.6293482 -0.55063313 -0.7612472
-0.29766583 -0.5488227 -0.44620588 -0.7591679 -0.74280685 -0.7437094 -0.7865058 -0.70987475
-0.55051726 -0.71336275 -0.5924826 -0.6052789 -0.8658869 -0.42367655 -0.6460741 -0.59891796

fc2_layer.weight f4 [256, 256]
00000000: ddb7 16bd cb56 a5bd fdfe 533d 7f51 89bd
00000010: 7b1b a7bd 1929 78bd 7a96 15bd 907e 22be
00000020: c831 59bd e7fd 4fbd 8eaf 91bd 7328 98bd
00000030: 1ed7 74bd c031 0f3d b5b1 95bd 6209 75bd
00000040: ac88 b93c e36b f93c 72d6 903c a33b a6bb
00000050: 7158 d33c c9ac 18bd 4f95 b2bc 8100 b4bd
00000060: 40cf f13d cc5f c23d c0c0 13be 6695 1ebd
00000070: b15d 49bd 08e1 c9bd f18d 08be d36b cabd
00000080: 4438 88bc 338e 2abd 660a 92bc cbe1 033d
00000090: 1356 06be 6b3a b3bc a61f f6bc c289 82bd
000000a0: 794c c9bd ffa3 dd3d 5378 08be 1593 bdbd
000000b0: f551 0bbe 0b9d abbc d36d 93bd 088b e0bd
000000c0: 34b9 d83c 6b79 dabd c5dd 98bb 40c3 cabd
000000d0: 456d 87bc 9a5d 743d 102d 4c3c a1af 77bc
000000e0: 6281 afbd 49df d83c be9b 40bd 6588 913d
000000f0: 6232 0f3d 4353 343c 99fd a8bd 968b 82bc
00000100: 5c4c 1f3d e5e4 893d a8c1 003d f70b 99bd
00000110: 267e f1bd 341e 96bd 3330 86bd 0b43 c6bd
00000120: d11f 13bd c17c 5ebd eeb3 153d 352a a43d
00000130: 67da 9bbc 0bee babd 9185 cd3d 7696 21bd
00000140: 2f0f 02be 7b2f cebd 56da afbd 8669 61bd
00000150: b115 adba 785e bdbd 66b3 e23c c249 1f3c
00000160: 8692 27bd f5ab 8e3d 04e3 13be 12b9 643d
00000170: 6c9c 0cbe 5c77 d4bc cbcd 59bc 187a 8fbd
00000180: c686 82bc c25a abbd a2cd 3e3d 29c6 afbd
00000190: 442c 95bc 4393 e23c 4996 263d ed5d d23c
000001a0: 7720 8ebd 9578 b7bc e359 85bd eed0 e2bd
000001b0: c4f4 f4bd 85e0 b2bd d8d5 7d3d 90ac c9bc
000001c0: f79d 963d ca63 31be 7192 463a 6dd7 eebc
000001d0: 620f 46bd fb33 9abc 2751 bebc 53cf 283d
000001e0: 5c7e a4bc d3fa 8ebd ff97 f93d ee3b 0e3c
000001f0: 4ecb 36ba 22a8 9fbd 1492 673a 525f 463d
00000200: d383 b5bd 31ba 293b c513 3dbd 63b9 0a3e
00000210: f5dd 8bbd 287a ee3a f43b e4bb 8eca 0b3d
00000220: ec54 5dbd 9f1e 3ebc 71b1 b03c 903f c4bd
00000230: dc1b b3bd 5b47 a0bd daf4 d2bd 30a6 8fbd
00000240: ee70 e1bc 1f20 19ba b7e5 8ebd 86ce 74bd
00000250: da83 8abd e4ce 2d3d ccb2 6ebd aa03 2ebe
00000260: 76b5 2c3d 844a e5bb 66d1 8dbd 806b a2bb
00000270: 2948 11bd a17d 0d3d b2d7 1f3b 2a6f 53bd
00000280: 6eac 81bd 69e6 50bb 4466 e2bc f01e 70bd
00000290: f543 53bd 84a3 cdbb 66f8 f43c c1c2 c2bd
000002a0: 6f1e f4bc 9155 10bc 9bac 7e3c e29a 8fbd
000002b0: 9043 f63c 3088 d1bd 7dc8 8ebd 074e e5bd
000002c0: 71b1 883c 1dc9 adbd 51b3 91bd 890f c6bd
000002d0: 4621 77bc b9d9 e4bd 0ee1 76bc 7a76 26bd
000002e0: 9423 c03a 7b1c 9b3b 2ad1 d4bd b67d a13d
000002f0: 8289 d5bd a8e1 9a3d 0a5c d1bc 82b4 003d
00000300: c206 19be 75f1 203d 1d38 303d 76e5 19bd
00000310: 27d3 da3b ff1d fbbd c368 3a3d 9ba1 853d
00000320: 2e46 8b3d d56f a63d 7bb7 75bd e18e b7bd
00000330: 8de8 84bd 9401 b6bd 47f5 463d c39c 6bbe
00000340: eae2 9a3d a2a2 993c d842 103a bfa2 243d
00000350: d41c abbd 1dd2 433d af34 133b 47e4 bfbb
00000360: 38a3 2abd 4827 3abd b442 3ebd eed9 623c
00000370: f2dc 02bd 7bad 14be ec75 063d 0e91 9fbd
00000380: e290 b2ba 72b3 b5bd 736d 8dbd 4e92 923d
00000390: 7410 45bc eac1 0dbd a2a7 6c3d 44fb 74bd
000003a0: 6b6e 0ebd da8f 81bd 3ad6 e6bc bbbb 8d3b
000003b0: a583 4a3d 27ec 02be c777 fdbc 2afc 9f39
000003c0: 1a4c ebbc 9534 b2bd 85ca 313d 0099 90bd
000003d0: 2957 e93d afd6 063d 4dd7 debd 4a4e 143d
000003e0: 99ef dc3b 462e edbd 8b62 5dbd b586 10be
000003f0: 1584 813d b74f a1bd 8dee 3abe 1837 6cbb
-0.03679644 -0.08073195 0.051756848 -0.06704997 -0.08159538 -0.06058607 -0.03652046 -0.15868592
-0.05302599 -0.05077925 -0.071135625 -0.0742959 -0.059775464 0.034959555 -0.073092856 -0.0598234
0.022648178 0.030446952 0.01768038 -0.005073027 0.025799008 -0.037274156 -0.021799712 -0.087891586
0.11807108 0.09490928 -0.14428997 -0.038716696 -0.049161617 -0.098573744 -0.13335396 -0.09883847
-0.016628392 -0.041639518 -0.017827224 0.032197755 -0.13118772 -0.021878442 -0.030044388 -0.063739315
-0.09829039 0.108222954 -0.1332715 -0.09256569 -0.13605483 -0.020948907 -0.07198682 -0.10964018
0.0264555 -0.1066769 -0.004665109 -0.09900522 -0.016531596 0.059659578 0.012461916 -0.015117557
-0.085696 0.026473658 -0.047023527 0.07106093 0.03496016 0.011006179 -0.08251495 -0.0159357
0.03889118 0.06733111 0.031434685 -0.07472985 -0.11791639 -0.073299795 -0.06552162 -0.09680756
-0.035919014 -0.054318193 0.036548547 0.08015863 -0.01902504 -0.09127434 0.100352414 -0.03945013
-0.12701105 -0.1006765 -0.08586566 -0.055032276 -0.0013205317 -0.09246534 0.027673434 0.009722175
-0.04091122 0.06966392 -0.14442068 0.05584056 -0.13731545 -0.025935821 -0.013293694 -0.070057094
-0.015933406 -0.0836692 0.046582825 -0.08582718 -0.018209584 0.02765811 0.040670667 0.025679553
-0.06939786 -0.022396365 -0.06511285 -0.110750064 -0.11960748 -0.0873423 0.061971515 -0.024618417
0.07354348 -0.17323223 0.0007574922 -0.029155457 -0.048354514 -0.018823614 -0.023232056 0.041213345
-0.020079784 -0.06981435 0.12187194 0.008681281 -0.0006973044 -0.07795741 0.0008833718 0.04843075
-0.08863034 0.0025898332 -0.04616143 0.13547282 -0.06829444 0.0018194364 -0.006965155 0.034128718
-0.054036066 -0.01160398 0.021568986 -0.09582436 -0.08745548 -0.0782611 -0.10300608 -0.070141196
-0.02751967 -0.0005841273 -0.069774084 -0.05976727 -0.0676343 0.042433634 -0.058275983 -0.16993585
0.042165242 -0.0069974083 -0.06924705 -0.0049566627 -0.035469208 0.034543637 0.002439004 -0.051619686
-0.063317165 -0.0031875616 -0.027636655 -0.058623254 -0.05157848 -0.006275596 0.029903602 -0.095098026
-0.029799668 -0.008809463 0.015544082 -0.070119634 0.030061513 -0.10231054 -0.06971834 -0.11196523
0.016686173 -0.08485625 -0.0711428 -0.09670932 -0.015083617 -0.1117434 -0.015068306 -0.04064033
0.0014659041 0.0047336197 -0.103914574 0.078853056 -0.10426618 0.07562572 -0.025556583 0.031422146
-0.14943984 0.03929277 0.043022264 -0.037572347 0.0066780034 -0.12261581 0.045510065 0.065249644
0.06800495 0.08126799 -0.059989434 -0.08962799 -0.06489668 -0.0888702 0.04857376 -0.23009019
0.07562812 0.018754307 0.00055031246 0.04019427 -0.08355108 0.0478078 0.0022461822 -0.00585607
-0.041659564 -0.045447618 -0.04645033 0.013845904 -0.03194899 -0.14519303 0.032827303 -0.07791339
-0.0013623501 -0.08872117 -0.069056414 0.07156812 -0.0120278485 -0.03460876 0.057777055 -0.059809938
-0.03477327 -0.06326266 -0.028178323 0.0043253577 0.049441952 -0.12785397 -0.030940903 0.0003051472
-0.028722811 -0.087014355 0.04340603 -0.070604324 0.113935776 0.032919582 -0.10880909 0.036207475
0.0067424295 -0.115810916 -0.054049056 -0.14113887 0.06324021 -0.078765325 -0.18255062 -0.003604358

fc2_layer.bias f4 [256]
00000000: a232 10be c221 b8bd f77c dfbd 289d 19bd
00000010: 31e1 c4bd 5e20 40bd 94e7 3fbd f6b1 12be
00000020: b235 efbd 6c4f 1dbd 6d58 b6bd 2124 8cbd
00000030: e6cd 2e3b 868f fabd 1538 b7bd 12d7 f5bd
00000040: 594e 07be ab38 d1bd dc1f 17be 6810 3ebe
00000050: 2121 cebd 528b 9cbd b46b 36bd ae61 f3bd
00000060: a8e5 40be b9c8 c4bd 3db4 11be cda4 7abd
00000070: f8ef efbd 8bb4 3cbe 7eea 953c 41ab d3bd
00000080: 17d0 77bd 52e1 fabd 2d53 dcbd 4133 c9bd
00000090: 0143 86bd e028 25be 062a bfbc b7df 65bd
000000a0: efa8 d1bd 3d19 ccbd ae71 b7bd c064 aebd
000000b0: 1593 cfbd c0b0 84bd f7c7 0cbd 03ca 5cbd
000000c0: fa7d f6bd baa7 0ebe be87 36bd aa1e c4bd
000000d0: ffc8 c13f e1d5 b4bd 821a 8bbd 4e07 05be
000000e0: c9e8 41be 0a9f edbd f26e 8ebd 7b39 01be
000000f0: 0022 d1bd 3637 33bd 5bb2 0ebe 32c6 29be
00000100: 1154 44bd 4600 98bd a5d5 5dbd 3d64 14be
00000110: a705 8dbd bb26 a8bd 1ce9 bcbd 3b43 aabc
00000120: 8ce0 c6bd c841 b9bd 6b55 27bd 6dc5 c0bd
00000130: 5739 0ebe 1a24 65bd 5d0f 27bd de99 d2bd
00000140: c04e 92bd 3bfd 57be c5f8 ddbd 76d8 05be
00000150: b6df a9bd 0163 73bd 4811 9fbd cfa6 85bd
00000160: 2700 05be 4920 79bd 3fa3 a2bd 89eb 6ebd
00000170: a22c 3b3e c18c bcbd c44d de3e 1ed0 55bd
00000180: 9432 30be 3f0f 89bd 82ae 8bbd 9fb3 47bd
00000190: 5110 f9bd 92f7 febc faf7 d33c 2d8d 36be
000001a0: 3301 93bd 194e 8bbd 9c1a e8bd b279 13bd
000001b0: ff02 ec3c 7d85 19be ac30 eebc bc67 58bd
000001c0: 817a 98bd 260a e1bd b3aa d8bd 756e 19bd
000001d0: f1ae 9cbd 6fbc 08be d75e f2bd 6d36 60bd
000001e0: fcb6 80bd cadc 60bd 63e5 19be 7ff3 83be
000001f0: a8e2 ddbd d04e cebd 1a3e 81bd 6f7a debd
00000200: 6157 a3bd 66f2 96bd 10e1 c8bd a1d4 8ebd
00000210: f0e0 7dbc e913 bfbd 4094 a7bd b3ec 8cbd
00000220: 8458 c83b fc61 c2bd 6377 41be 05f8 efbd
00000230: f7ac 7dbd f1c4 2ebd e5aa d1bd 3ce1 5abd
00000240: cce9 cabd b062 50bd 1365 ddbd 6244 bcbd
00000250: 2084 66bd 384b e9bd 25bb 68bd 47f5 5abd
00000260: 57be c0bd aadc 5dbe 1a5c 16bd 76b3 66bd
00000270: 8d6c edbb 0f3f d3bd b8cc 64bd 2860 bcbd
00000280: f86c 07be fbaf ffbd 40c5 cabd d415 84bd
00000290: 823d d3bd fbab c8bd 1a12 c2bd b2e4 e5bd
000002a0: 55fc b9bc 55e2 46bd e8ec 7bbe 121f 50bc
000002b0: 0035 2ebd a805 7dbd 7773 69bd 8133 4ebd
000002c0: d577 78bd c4de 9dbd 89ae d2bd 7859 aebd
000002d0: 93a4 88bd b9aa eebd e702 0fbe a946 0abe
000002e0: 0234 ffbd 4e0c b5bd a700 27be 9062 16bd
000002f0: 3d4f a9bd 8b64 e3bd acc6 00bc c271 8fbd
00000300: 67e7 46be 6f61 54bd fb95 03bc 9c57 8cbd
00000310: 558e 2cbe c4cd 66bd 8585 14be 8c84 65bd
00000320: 0086 bcbd 319f a6bd 20cf 8dbd 4ea5 2bbd
00000330: 7581 9cbd 0204 b63f e496 dfbd 7681 9ebd
00000340: 9eb8 46bd 4112 7fbd f74e 66bd 1f20 a8bd
00000350: 76d5 9cbd 6859 a6bd ede9 9cbe 0723 0abe
00000360: a2f9 debd 1c3b 07be f941 a7bd 2944 20be
00000370: 92d3 babd 856b c9bd df29 59bd feb2 02be
00000380: 8fb6 3abe 03de 31bd 5a10 86bd 25b9 4abd
00000390: a908 99bd 4d19 f4bd 8080 99bd 6870 02be
000003a0: ff73 12be 2f56 91bd f8a0 9ebd a098 9dbd
000003b0: c739 f23a b880 bfbd 5fca febd 7fd3 ebbd
000003c0: 16df edbb d3d0 fabd 67bb 1dbe 37cc 0abe
000003d0: cad1 1cbd e8c5 013b 1982 51bd 63aa fdbd
000003e0: 0609 f4bd e376 0abe db1e 20be a3ce c7bd
000003f0: c4ef e1bd 8091 a5bd cd7f a7bd 00c4 72bd
-0.14081815 -0.08990814 -0.10912507 -0.03750339 -0.09613264 -0.046905868 -0.04685171 -0.14325699
-0.116801634 -0.03840582 -0.08903585 -0.068428285 0.0026673018 -0.12234406 -0.08946244 -0.12003912
-0.13213481 -0.10215887 -0.14758247 -0.18560946 -0.100649126 -0.07643761 -0.044536307 -0.11883865
-0.18837607 -0.09608597 -0.14228912 -0.061192323 -0.11715692 -0.18428247 0.018300291 -0.103353985
-0.060501184 -0.12250008 -0.10758052 -0.09824229 -0.06555749 -0.16128874 -0.023335468 -0.056121554
-0.102373 -0.09965751 -0.089572296 -0.0851531 -0.101354755 -0.06479025 -0.03437039 -0.05390359
-0.12035747 -0.1393117 -0.044563048 -0.09576161 1.5139464 -0.08829857 -0.06792165 -0.12991068
-0.18936457 -0.116026 -0.06954755 -0.12619583 -0.10211563 -0.043753825 -0.13935225 -0.16579512
-0.047931734 -0.07421927 -0.054158825 -0.14491363 -0.06885844 -0.08210512 -0.092241496 -0.020784011
-0.09710798 -0.0904575 -0.040852945 -0.09412656 -0.13889061 -0.055942632 -0.040786136 -0.10283254
-0.071439266 -0.21092694 -0.10838465 -0.13070855 -0.082946226 -0.05942059 -0.07766968 -0.06525957
-0.1298834 -0.060821805 -0.07941293 -0.058330093 0.18278745 -0.09206534 0.43418705 -0.05220043
-0.17206794 -0.06692361 -0.06820394 -0.048755284 -0.12161315 -0.03112391 0.02587508 -0.17827292
-0.07177963 -0.06802005 -0.113332 -0.03600473 0.028810022 -0.14992328 -0.029075943 -0.052833304
-0.07445241 -0.10988264 -0.10579433 -0.037458856 -0.07650555 -0.13353132 -0.118344955 -0.054739404
-0.062849015 -0.05489806 -0.1502891 -0.2577171 -0.10834247 -0.10073626 -0.06310673 -0.10863196
-0.079756506 -0.073704526 -0.09808552 -0.069741495 -0.015495524 -0.093299694 -0.08182573 -0.06881084
0.0061140675 -0.09491345 -0.18893199 -0.11717228 -0.06193253 -0.042668287 -0.10237674 -0.053437456
-0.099078745 -0.050875366 -0.10810294 -0.091927305 -0.056278348 -0.113913 -0.0568191 -0.05345657
-0.094113044 -0.21666208 -0.03670893 -0.05632349 -0.0072456063 -0.10314762 -0.055859298 -0.09198028
-0.13225162 -0.124847375 -0.09900904 -0.06449476 -0.10314466 -0.09798428 -0.09476109 -0.11225261
-0.02270333 -0.04855569 -0.24602091 -0.01270272 -0.042531013 -0.061772972 -0.05699488 -0.050342087
-0.060661156 -0.07708505 -0.10287196 -0.085131586 -0.06672015 -0.116536565 -0.13965951 -0.13503517
-0.124610916 -0.088402376 -0.16308843 -0.03671509 -0.08267067 -0.111031614 -0.007859867 -0.070041195
-0.1942421 -0.051850732 -0.008031364 -0.06852648 -0.1685117 -0.056348577 -0.14504059 -0.05603461
-0.09205246 -0.08135832 -0.069242716 -0.041905694 -0.076418795 1.4219973 -0.10917452 -0.077395365
-0.04851591 -0.062273268 -0.05622765 -0.082092516 -0.07657902 -0.08122522 -0.3064722 -0.13489924
-0.108874574 -0.13206142 -0.0816688 -0.15651001 -0.09122385 -0.09834961 -0.053018447 -0.12763593
-0.18233703 -0.043424617 -0.065460876 -0.049492974 -0.07472355 -0.11918888 -0.074952126 -0.12738192
-0.14302061 -0.07096516 -0.07745546 -0.076951265 0.0018480354 -0.09350723 -0.12440943 -0.11514949
-0.00725926 -0.12246861 -0.1540352 -0.13554464 -0.038286008 0.00198018 -0.05114946 -0.12386014
-0.119157836 -0.13521914 -0.1563677 -0.0975621 -0.1103206 -0.080843925 -0.08178673 -0.05926895

critic_out_layer.weight f4 [1, 256]
00000000: 5a31 54bb 3166 edbc 029e d53c d8f2 94bc
00000010: 46b9 e2bc c77a bf3c ec7f 85bc cd51 aa3b
00000020: e649 d43c ebf8 f3bc 4188 b53c 3de6 bf3c
00000030: 1770 29bd 93a1 b6ba 4188 ba3c 0b07 1abc
00000040: ea6e ffbc b4f8 673c 6339 213c f22f 2cbd
00000050: 968f e2bc f900 b03c c798 9b3c d29c ccbc
00000060: e481 0e3c 1670 183c 3a5c bd3b 64b1 67bc
00000070: 0a0a ad3c 5cf5 cf3c f74a d7bd 669f bdbc
00000080: 72a3 07bb f302 503c 3e86 e8bc 7f11 0e3d
00000090: e1fa eabc fbba 003d 0ff7 82bc 1e82 23bc
000000a0: 6093 b83c 3733 b73c 5dfe d9bb 3f75 85bc
000000b0: 4013 d43c 9387 1bbd 7be0 c9bc 9c33 8638
000000c0: 884b b1bc a371 2b3d 498b 41bb 413a ca3c
000000d0: aa98 0e3e 5c82 b93b 5b3b 503c a018 19bc
000000e0: d082 a8bb b9bb 873c 3d13 b63c c300 f83c
000000f0: 4660 ef3a 7dc8 e23c 1751 8a3c c6b8 e7bc
00000100: 0406 a9bc a706 1b3c 8156 c4ba 0a57 e0bc
00000110: f372 9cbc 3924 1b3a 01fb 86bc 7055 01bc
00000120: 9c41 ad3b 7ca8 413b 727c 4bbd 2b02 67ba
00000130: 5d80 d1bc d23a 2cbc d0c0 51bc 2e6f 493c
00000140: 5409 0f3d 690d 66bc 395d c93c dbf8 4bbc
00000150: 43c2 5cbb d89e 6b3c 57d8 43bc 085a 19ba
00000160: 9faa c1bb 14d5 a3bc 2ed2 86bb 5c86 9f3c
00000170: daab 9b3c c3aa eabc 97f4 1f3d 7359 6b3c
00000180: ed20 943c 45ca 433c 81db 00bc a16d 59bb
00000190: cc2f c4ba 41a3 e23c e62b d2bd 7d0f c93b
000001a0: e263 48bc 7703 423b 3fbc be3c 6482 8fbc
000001b0: 5f66 173d e308 abba 4c36 753c 9f31 a8bb
000001c0: d69b bebc 870e 003d 923f ff3c a657 a33c
000001d0: e69c d0bc 21cd 02bd e0e6 ebbc 3700 1fbc
000001e0: 137b 59bc fa8a 07bc 586a f3bc d725 a4bd
000001f0: eb44 03bc 673a 483c 6dfc afbc bb9c 61bc
00000200: bca1 603c b4a4 b33c b762 99bc 3bd3 b4bc
00000210: eac1 d73c 0678 0f3c 3722 10bd ef1a fbbc
00000220: bacb 17bd 200f e3bc 0b66 0fbc 515f f93c
00000230: 60fb c7bc ef69 9abc 4036 22bc 8431 c43c
00000240: cc97 d83b 344a dab9 f87a 4d3c 8976 e5ba
00000250: 9f0b 953b 4355 c33c 0063 853c c399 853d
00000260: 01a5 983c b60c f1bb dc07 bebc 49c0 57bc
00000270: f8f2 e2bc 4eba 973c 4209 693b 5265 86bb
00000280: 8430 67bc 77a5 8abb 573a 553c dd97 93bb
00000290: 1bbf 85bc dc35 5d3c 4458 963c 64ca e83c
000002a0: ab9a 40bc 7a81 8bbc 4403 bebb 5914 f2bb
000002b0: 83d7 383c 97f4 d83c b2db b03c 659b dc3c
000002c0: 0f63 e2bc 613c e53c 9af9 223d 277a f5bc
000002d0: 7383 813c a582 1c3a 7b3a ca3c ec21 843c
000002e0: a7e4 583c 449d ab3c d692 103c 7a91 ec3c
000002f0: b244 b6bc 2195 223c ec7c febc 2172 d53c
00000300: 7340 933c e0d4 38bd bb24 423c e2a5 643c
00000310: 995f 943c 0553 d3bd c863 843c 0960 12bb
00000320: df71 fd3c a01a bf3c 7524 b93c e974 563c
00000330: 81a1 a23b 1048 ca3d 5771 903b f629 b7bc
00000340: 51b8 a1bc 33e0 79bb e42c e0bc c034 2dbc
00000350: e5ab d33c 30ec 3a3c 3f8e 7abc e1e0 7c3c
00000360: 2b5e 313c 0f8b b1bc 7bd2 31bc c959 52bb
00000370: a790 4a3c 80cb 4dbd df21 93bb 5cc4 3cbb
00000380: ea7d 6dbc 4cff 6d3d 81ab 293c b476 fa3b
00000390: 28d5 cfbc f5c2 d7bb c075 f2bc 6c83 233b
000003a0: 4bd3 78bb 6938 a0bb 9d32 99bc 2dd6 94bc
000003b0: 020e 8ebc 00d7 f93a 005f 963c 3b02 79bc
000003c0: b899 59bd 2c3a 313b c29e 9bbb 0663 4b3b
000003d0: 7ce9 1bbb 3b19 c3bc e50b 0a3c ab76 b03a
000003e0: 16d1 573c 630d 46bd c976 0dbd 4d31 aebb
000003f0: d19e 8ebc ab30 5f3b 6f37 773b b7f0 aabc
-0.0032378049 -0.028979393 0.02607632 -0.018182203 -0.027676236 0.023373974 -0.01629635 0.0051977397
0.025914144 -0.02978178 0.022159697 0.023425216 -0.041366663 -0.0013933651 0.022770049 -0.009401093
-0.031180818 0.014158417 0.009840342 -0.04203791 -0.027656358 0.021484839 0.018993748 -0.024977122
0.0086979605 0.009304067 0.0057788165 -0.014141414 0.021122951 0.025385551 -0.10512345 -0.023147296
-0.0020696786 0.012696016 -0.028384324 0.034684654 -0.028684082 0.03142832 -0.015986947 -0.009979753
0.022531211 0.022363288 -0.006652637 -0.016291259 0.025888085 -0.03797109 -0.024643173 6.399231e-05
-0.021642461 0.04185642 -0.0029532483 0.02468598 0.13925424 0.005661292 0.012709464 -0.00934425
-0.005142547 0.016569005 0.02222597 0.0302738 0.0018262945 0.02768349 0.01688437 -0.028286349
-0.020632751 0.009462035 -0.0014979393 -0.027385253 -0.01909778 0.00059181784 -0.01647711 -0.007893905
0.0052873623 0.0029549887 -0.049679227 -0.0008812274 -0.025573904 -0.010512071 -0.012802318 0.012294574
0.034921005 -0.014041283 0.024580585 -0.0124494685 -0.0033685125 0.014381133 -0.011953435 -0.00058499025
-0.005910232 -0.019999065 -0.004114411 0.019473247 0.019002844 -0.028645879 0.03905162 0.014364588
0.018082106 0.01195008 -0.007864834 -0.0033176916 -0.0014967858 0.027665736 -0.10262279 0.0061358796
-0.012230845 0.0029604116 0.023283122 -0.01751823 0.036962863 -0.0013048913 0.014966559 -0.0051328684
-0.023267668 0.031263854 0.031158242 0.019939255 -0.02546544 -0.031933907 -0.028796613 -0.009704641
-0.013273972 -0.008272881 -0.029713795 -0.0801503 -0.008012037 0.012220955 -0.02148267 -0.013770278
0.0137104355 0.021929123 -0.018723829 -0.022073379 0.026337583 0.008756643 -0.03518888 -0.030652491
-0.037059523 -0.027717173 -0.008752356 0.030440958 -0.024411857 -0.018849341 -0.0099006295 0.023949392
0.0066098925 -0.00041635486 0.012541525 -0.001750664 0.0045485045 0.023844367 0.016282558 0.06523468
0.018633367 -0.0073562516 -0.023197107 -0.013168403 -0.027703747 0.018521454 0.0035558497 -0.004101434
-0.014110688 -0.0042311507 0.013014398 -0.0045041875 -0.016326478 0.013501611 0.018352635 0.02841682
-0.011755626 -0.017029513 -0.005798729 -0.0073876795 0.011281851 0.026483817 0.021589134 0.026929567
-0.027635125 0.027982892 0.03978882 -0.029965473 0.01580975 0.0005970395 0.024686089 0.016129456
0.013238109 0.020949014 0.008824071 0.028877962 -0.022249553 0.00992325 -0.031065427 0.026055397
0.017975068 -0.04512489 0.011849578 0.013955565 0.01811199 -0.10318569 0.01616086 -0.0022335073
0.030938087 0.023328125 0.022600392 0.013089397 0.0049631004 0.09877026 0.0044080424 -0.022358876
-0.01974121 -0.0038128018 -0.027365156 -0.010571659 0.025838802 0.011408851 -0.015292703 0.015434475
0.010825674 -0.021672754 -0.010853405 -0.0032096973 0.012363589 -0.0502429 -0.0044901217 -0.0028803563
-0.014495352 0.0581048 0.010355831 0.007643545 -0.025370196 -0.00658452 -0.029597163 0.002495016
-0.0037967737 -0.004889537 -0.018700892 -0.018168533 -0.017340664 0.0019061267 0.018355846 -0.015198286
-0.053125113 0.002704273 -0.00474915 0.0031034364 -0.002379029 -0.023815742 0.008425687 0.00134631
0.013172409 -0.04835261 -0.03453711 -0.0053159357 -0.017409714 0.0034056108 0.003772225 -0.020866735
